scheduler/BaGTI/checkpoints/simulator/energy_latency_10_Trained.ckpt (torch_old, 502193 bytes, 24 tensors)

find.0.weight f4 [128, 120]
00000000: 6e38 70bd 6c95 8e3d da9a 4c3e a466 9b3e
00000010: c31e 463e 66fc ab3d 8293 bfbe 0ed2 d5be
00000020: ad6c 2d3d 1823 1dbd 5333 90be 2182 1d3e
00000030: 0e8b d5bd bab7 3fbe 5ad2 e4bd be70 87bd
00000040: 25ed 5c3e 9e05 5b3e 5d21 1f3e cec4 423e
00000050: f7ea 86be 2966 07bd af86 48be e604 99bd
00000060: 0e19 203d db62 633d e64f 763d 16fa 723e
00000070: c7f9 ff3c 980f 0abe 840a dbbe 9ce9 94bd
00000080: e572 f83c 4f96 f33d 0d1f 2fbe 9d74 953d
00000090: f605 af3e 076d 85be 944e 7ebd 1fa5 b5be
000000a0: 18a2 9c3e 4643 363e 9933 113e e651 ad3d
000000b0: 764d 23be c5e5 bdbd a46a fdbd 7d86 7ebd
000000c0: 98de 4ebe 5ce8 f0bd f1e6 c6bd 9318 f1bd
000000d0: ff56 743d f6a7 bbbd 44b2 b23d cc8c abbd
000000e0: d615 463e 8c2b 9ebe 9b85 1f3e 0f4e a1bd
000000f0: 1aab 273d 0576 cdbd a4ed 2fbd 4638 b13d
00000100: 2d55 2fbe d2d6 f23d 649e 3b3e 8c58 aebd
00000110: 9cde 973a 2215 a83e 605e 403d eab3 0d3e
00000120: ae71 6d3d d2c6 b4bc 23bf 1cbe c84f acbd
00000130: ab8d abbd c291 2a3e 8e55 08bf 1d83 d73e
00000140: b93e ae3d 5ad0 89be 47c4 6fbe 7329 943d
00000150: 49c8 08be bbf7 f7bd 9936 923d 133c 573d
00000160: 6dab c43d a73b 9f3e f1ab 27be cd43 8fbe
00000170: 2b82 11be 98be 513e 9753 d2be eef9 f13d
00000180: b84f 87be 2049 c6bd dce2 f7bc abdd 39be
00000190: 739a acbe fd34 cabd f2f2 9b3e 2f89 0b3d
000001a0: 8a52 6c3e 0f50 c1bc c1bb 483d c6b7 7bbe
000001b0: e114 37bd e730 b13d ef26 75be 155d fdbd
000001c0: 9538 15be 45f3 cabd a014 403d c4a6 bbbd
000001d0: 9130 c0bd d4d6 0e3e 352a 7e3e 062f f33d
000001e0: ff0c 12be 2b71 8dbd d146 ad3c 7963 9fbd
000001f0: a47b 073e d415 33be 3c21 853d 38b7 4abe
00000200: 90d2 02be b38b d9bd 12f6 b8be 9232 213e
00000210: 6c07 21bd 5f1d edbd 25eb e1bc 0abd 54be
00000220: f7df 2b3e 9dd9 fc3b c5e7 dbbd 1b91 6abd
00000230: 9466 853e 444e 23be fb28 ffbd 08df 20be
00000240: 3a17 48be 28a8 83bd 838c 9dbe 4f92 3abe
00000250: b889 46be b0d4 823e 1b44 483e 1fe1 833d
00000260: 5df7 b43d 27a8 11be b20d c5bd 2af7 0dbd
00000270: e1c3 3fbe f4da 57be 105a bebc f847 8a3e
00000280: da85 e43b b2c3 7fbc 1989 fc3c 973b 833e
00000290: f176 4dbe e838 76bd 4400 b7bd 1368 d2bb
000002a0: 8658 4a3d 43a0 37be 8a14 70be 2dad 0b3e
000002b0: cac2 94bc c066 953c f2f9 95bd acef 3dbe
000002c0: 41f6 36be b8b3 bf3c 4219 8fbd 8532 6a3d
000002d0: cf96 87be 9b44 39be da53 e5bd 6e86 46bc
000002e0: d193 35bb 15b9 f1bc 6a06 7b3e ec96 e1bd
000002f0: 7e3d 9d3d 28e6 3bbe 9646 9bbd 8e6c f83b
00000300: 39ab 76be 0e5e 5f3d d372 13bd 182b 723e
00000310: 1320 2cbe 09d3 e1bd 8d0d 9abd 6ee1 f2bd
00000320: 91c7 e8bd 837a 7cbd b474 2a3e 7512 32bb
00000330: e7ec 9ebe f61f 07bd e3e0 c93c e14c 563e
00000340: fab4 03be 4e53 2c3d 21b5 933d 595e 7e3b
00000350: f636 9e3d 6793 06be a134 4ebe 2995 563d
00000360: 9250 17be cdd9 233d f5c8 ea3d ec05 aabd
00000370: 26b9 c63d e7e9 e1bd 235e 0f3e d0f6 56be
00000380: 70df 0bbc bd80 bcbd addb f93d 12e8 783e
00000390: 4fd0 393d 2072 033e aea5 93bd 58c5 de3d
000003a0: 8dcd 5a3e 0f54 14be d38f 203e d76d fe3c
000003b0: 609f cdbd cdec 65bd a285 c5bd 4b7b 193e
000003c0: eb1b ec3b 2b18 62bd 8abc a93d 6fb2 f63d
000003d0: 55ab 1ebf 7138 adbd 96e8 2fbe 4c99 55bd
000003e0: 0574 503d 0728 673d 1f15 8a3e 0a9a 21be
000003f0: 4e43 24be 4ee4 d93d 7a23 2b3e aded 6f3c
-0.058647566 0.06962094 0.19980946 0.30351746 0.19347672 0.083977506 -0.37417227 -0.41761822
0.04233997 -0.038363546 -0.28164157 0.15381671 -0.10426913 -0.1872243 -0.11172934 -0.06613301
0.21574838 0.21388862 0.15540071 0.19020388 -0.2635114 -0.033056412 -0.19582628 -0.074716374
0.039086394 0.055514198 0.06013479 0.23728213 0.031247033 -0.13482511 -0.4278146 -0.0727112
0.030328223 0.118939035 -0.17101689 0.07297633 0.34184235 -0.26059744 -0.062086657 -0.3547754
0.30592418 0.177991 0.14179839 0.084628865 -0.15947518 -0.09272341 -0.12373856 -0.062139977
-0.202021 -0.11763069 -0.09712017 -0.11772265 0.05965328 -0.091628954 0.08725408 -0.08376464
0.19344267 -0.308926 0.1557831 -0.078762166 0.04093466 -0.10032276 -0.04295124 0.086533114
-0.17122336 0.1185738 0.1832214 -0.08512983 0.0011586729 0.32828623 0.046965003 0.13838163
0.05796974 -0.022067461 -0.15307288 -0.084136546 -0.083766304 0.16657165 -0.53255546 0.4209222
0.08508057 -0.26916772 -0.23414718 0.07234468 -0.13357653 -0.12107798 0.0713932 0.052547526
0.096030094 0.311002 -0.16374184 -0.27981415 -0.14209811 0.20482862 -0.410794 0.118152484
-0.26428008 -0.09681916 -0.030259542 -0.18150966 -0.33711585 -0.09873388 0.3045879 0.034066375
0.23078361 -0.023597745 0.04900718 -0.24581823 -0.044697646 0.086519055 -0.23940633 -0.123712696
-0.14572366 -0.09909681 0.04689467 -0.091626674 -0.09384263 0.13949138 0.24820788 0.118742034
-0.1426277 -0.06906351 0.021151932 -0.07782645 0.13230759 -0.17488796 0.065004796 -0.19796455
-0.12775636 -0.10622349 -0.36125237 0.15741947 -0.03931372 -0.11577868 -0.027577946 -0.20775238
0.16784655 0.007716371 -0.10737566 -0.05726729 0.26054823 -0.15947825 -0.12458988 -0.1571008
-0.1954011 -0.06428558 -0.30771264 -0.18219875 -0.19388473 0.25552893 0.1955723 0.06439423
0.08836243 -0.14224301 -0.09621753 -0.034659542 -0.18727066 -0.21079618 -0.023236305 0.27008033
0.006973964 -0.015610622 0.030827092 0.256314 -0.20064904 -0.060112864 -0.089355975 -0.006421098
0.04940083 -0.17932229 -0.23445335 0.1364028 -0.018159289 0.018237472 -0.07323064 -0.18548459
-0.17867376 0.023401126 -0.069872394 0.057177085 -0.26482245 -0.18092577 -0.11197634 -0.0121170115
-0.0027706514 -0.0295072 0.24514166 -0.11015114 0.07677744 -0.18349516 -0.075818226 0.0075813
-0.24088754 0.054533057 -0.035998177 0.23649251 -0.1680911 -0.1102658 -0.07522116 -0.118594036
-0.11366189 -0.061640274 0.16646081 -0.0027171646 -0.31040117 -0.032989465 0.024643367 0.20927764
-0.12862006 0.042071633 0.07212282 0.003881356 0.07725327 -0.13142167 -0.20137264 0.052388344
-0.14776829 0.040002633 0.11464111 -0.08301911 0.09703283 -0.110309415 0.14000754 -0.20992589
-0.008537158 -0.092042424 0.12200103 0.24307278 0.045364674 0.12836504 -0.07209335 0.10877484
0.21367474 -0.14485191 0.15679865 0.031058235 -0.10040164 -0.056134034 -0.09644629 0.14988439
0.0072054765 -0.05519883 0.08287914 0.12045752 -0.6198018 -0.08458031 -0.17178568 -0.05214815
0.050891895 0.056434657 0.2696924 -0.15781417 -0.160413 0.10639249 0.16712752 0.014644069

find.0.bias f4 [128]
00000000: dbb4 16be 511b 6abd b57e 87bd affc cebd
00000010: 1106 a4bc 7308 0c3c 6261 a4bd ac10 f5bd
00000020: e7e7 45bb f485 88bc c7fc f9bd 77b1 55bd
00000030: f573 e5bd ef6e 2cbd 9b9b 383e 275e 483d
00000040: 1d4a 9dbd b16f e3bd 106f acbd 95aa a4bd
00000050: 3d1e febd 579f 3dbe 7b0d 47be e8cd 473d
00000060: df51 ecbd a060 0bbe 5e59 0fbe 2c45 b9bd
00000070: cd02 4c3d e3e1 56bd d831 29bc 27bb f6bd
00000080: bc05 f73c 81d5 4abe c698 dcbd 7a2b b63b
00000090: d5dd cdbd 23d2 a33d e2c4 00be e346 17be
000000a0: 6cd1 a63c 0451 733b c9c2 17be 7d93 4abe
000000b0: 4e77 6abb f59a 72bd 860b cfbd c5c2 29be
000000c0: 18b9 2bbd 4c5b 20be ae44 2abe 1b7a c2bd
000000d0: a3ac e2bd c27c f0bc e00e cfbd d645 eabd
000000e0: f032 5ebe ea33 08bd 6f74 25bd 5a4e 3cbd
000000f0: 97bf 11be b5bc 73bd bc4c b9bd f342 40bd
00000100: f5c1 a43c d8e3 8ebd 07d9 66bd 2b0a 8a3d
00000110: 0ae3 24bd 3185 91bc d75a 8fbd 5bd1 7bbd
00000120: 47e4 8c3c 7160 c0bd c56b 25be 3145 43bd
00000130: 488b 35be 105d 7a3d dedc a6bd f448 04be
00000140: 2fe4 33be 9ac3 bbbd f418 17be ea48 eebc
00000150: bcf2 cbbd aaca fabc 662b cabd 10de 9dbd
00000160: 74c1 b0bc ce6a 78bd 4890 01be cdb8 eebd
00000170: d22a 14be 2fb2 123b 74d2 ecbd 69a8 06be
00000180: c4e7 c3bd 629f 44bc 3653 39be c04f aebd
00000190: 2fd3 23bc 378e 3ebd 2628 7abd d29d 3c3d
000001a0: 17af 19bd 482d b0bd 0c6f 18be 9a55 0b3e
000001b0: 9241 2bbe 4399 703d b3bc 22be 129c 563d
000001c0: b721 c43d 70f6 a5bd 9534 55be 7446 d4bd
000001d0: 8346 bfbd e028 413d 5810 06be 46ab 50be
000001e0: 0896 43bd f61a c8bc d842 31be 789b 25be
000001f0: d5e1 e9bd e38b 03be f9ad 18be 3741 0bbe
-0.14717428 -0.057154957 -0.06615964 -0.10106789 -0.020022424 0.008546936 -0.08026387 -0.119660705
-0.003019804 -0.016665436 -0.122064166 -0.052171197 -0.11203758 -0.042097982 0.18028109 0.048917916
-0.076801516 -0.11105288 -0.08419621 -0.080403484 -0.12408111 -0.18517815 -0.19438736 0.048780352
-0.11539053 -0.13611078 -0.13998935 -0.090463966 0.04980736 -0.052461516 -0.010326825 -0.12047415
0.030154102 -0.19808008 -0.10771327 0.005559382 -0.10052077 0.07999065 -0.12575105 -0.14773135
0.020363532 0.0037127146 -0.14820398 -0.19782825 -0.0035776678 -0.05922981 -0.1010962 -0.16578205
-0.041924566 -0.15659827 -0.16627762 -0.09495946 -0.11068084 -0.029356364 -0.10110259 -0.114391014
-0.21699119 -0.033252634 -0.040394243 -0.04597316 -0.14233242 -0.059506137 -0.09047839 -0.046938848
0.020112017 -0.069770515 -0.056359317 0.06740221 -0.040255584 -0.017763706 -0.06999748 -0.061478954
0.017198695 -0.09393395 -0.16154392 -0.047673408 -0.17728913 0.061123908 -0.08147596 -0.12918454
-0.17567514 -0.091681674 -0.14755613 -0.029087503 -0.09958407 -0.030614216 -0.09871559 -0.07708371
-0.02157662 -0.060648732 -0.12652695 -0.11656342 -0.1446946 0.0022384038 -0.11563578 -0.13150181
-0.0956569 -0.01200089 -0.18098149 -0.08511305 -0.009999081 -0.046522345 -0.061073445 0.046048947
-0.037520494 -0.08602387 -0.14886111 0.13606873 -0.16724232 0.05873991 -0.15892296 0.052394934
0.09576743 -0.08103645 -0.2082084 -0.10365 -0.09339621 0.047158122 -0.13092172 -0.20377836
-0.047750503 -0.024426918 -0.17310655 -0.16172588 -0.11420027 -0.12846331 -0.14910115 -0.13599096

find.2.weight f4 [128, 128]
00000000: f580 a9bd fde1 1cbd c434 943d 84a3 91bd
00000010: 8cd8 803c e77d 983d 737d bdbd 5303 5bbd
00000020: e93b 113c f80f 02be a6bf bdbd a95a 8fbd
00000030: d607 193e bb09 4bbd ea09 843e abd8 f53c
00000040: d680 6dbc aa05 93bc db29 533b 5645 333c
00000050: 53c5 e6bd 2605 bcbb 1135 96bd 5ad9 3a3c
00000060: 202f 74bd ee7a 03bd 1fc5 d1bd d176 15bd
00000070: fc99 d63d e4ed 973d 343e bdbd 1be0 e8bd
00000080: 7a83 0a3e bdfa 1fba deff dd3c 9667 4ebd
00000090: e3a8 803d 61db 183e 654e 1f3d 76fe 8cbd
000000a0: ddab 783b 9d6e 81bd 06c9 ccbb da69 b0bc
000000b0: 3b11 79bc 83b6 8abb 22a7 163e c4fe d9bc
000000c0: 3efc de3d a717 d53c 9188 7abd d57e ecbb
000000d0: 345d 4c3d 6868 383d 70d6 aa3d bba9 873d
000000e0: 45b9 1e3c 5af9 c83d bc98 bdbd 3cce 5d3e
000000f0: 4880 ccbd b28c eb3c acc6 46bc 0c1f c43d
00000100: 04d2 e4bd 4c96 6c3d 55a6 323d 1bf6 243d
00000110: ffee 653d d7bf 573e 23b3 863d a6f4 bdbc
00000120: f693 403d 2382 31bd 7ba3 9fbd 9f7b 38bd
00000130: 8c8e 7a3c 01e3 2c3e b046 b1bd 324f fabd
00000140: 52b9 5b3d 5bf9 b4bd 83d9 60bd 6c78 febd
00000150: b3af 02be 9f60 a33b b627 e1bc 7dbe 383d
00000160: 6db2 87bc c4ca a23d 5af4 debd db6f 953c
00000170: 5fe5 9c3d 11c6 00be 92e2 f1bc 442d 37bd
00000180: 0be8 0fbe 1996 1b3e 3fe9 2cbb 6591 08be
00000190: 4e16 68bd 3ed9 b2bd b1b5 d0bd 44f1 913e
000001a0: db34 81bd 3c49 96bc aba3 bfbd cfe1 513e
000001b0: 64c4 0bbe d5ab f6bd c6a5 90bd 284a 9e3e
000001c0: 5cb4 4b3e 6a52 3cbd 868d 93bc 65b5 16be
000001d0: dfdc acbd 1f16 5a3e 98fa eebc 0397 22bd
000001e0: 3715 00bb c23a 083e 3629 9f3c 9ff4 553c
000001f0: 26a9 a7bd 804a 933d 3aad 85bc 59dd 07bd
00000200: 0c6a 03bd 78df b1bc eee1 15bd abdd 47bd
00000210: 4a8d 1dbd 2ee3 ebbc 55f5 b4bc 3110 40bd
00000220: 1793 2abd a846 f1bc 19db 5ebd 341a e3bc
00000230: 2725 afbc 4cf4 08bd 0792 b9bc 5be1 00bd
00000240: 0e98 74bd eaf7 3bbd ff14 d1bc 9c12 0dbd
00000250: 9d13 33bd 86ba f8bc 537c 5cbd 910f d0bc
00000260: cb89 4bbd 31d7 09bd 1df4 10bd 7aeb fcbc
00000270: 7a5c cdbc 9574 92bc ef0d efbc 5cd6 41bd
00000280: 30bf c0bc 53ea 30bd 5fab 1abd 84c1 fabc
00000290: 93e4 abbc 8b1a 12bd fc8d 0fbd 255f 24bd
000002a0: 1132 0fbd 1bfe 0dbd ca89 36bd 687f 11bd
000002b0: fc39 f4bc 32b4 efbc ac2d 9bbc d8ff 2bbd
000002c0: 7c94 f3bc 0973 1abd 264a 60bd 5583 05bd
000002d0: 0a97 d8bc 910c 0fbd 91f8 92bc 6ce1 fcbc
000002e0: 5629 a9bc 1bc5 05bd d573 f9bc f0ed c1bc
000002f0: 0adc 14bd fee8 febc 054e 1abd 91d4 bbbc
00000300: 2dbf bebc 34b7 1abd bc94 f5bc a949 fcbc
00000310: d7f6 e9bc 756d c1bc a813 a7bc cd2a 93bd
00000320: 9fd6 ecbc 2d40 21bd 089e 6cbd c7d5 b1bc
00000330: 2d02 26bd dd0c d8bc 8575 f9bc 3608 debc
00000340: f480 febc 5b78 32bd 6f95 31bd 8696 e8bc
00000350: f177 9dbd c288 e9bc a5cc 17bd 0d00 96bd
00000360: d767 07bd 8267 03bd b73b 91bd fbe1 53bd
00000370: 17a3 1ebd d294 02bd fbc2 2fbd a457 f7bc
00000380: 5ba5 25bd 64a7 b3bc 80f4 15bd e0ca 00bd
00000390: 7a8e ebbc f664 e9bc 331f 84bd c47e ebbc
000003a0: 59e8 0dbd abb8 54bd 159e 87bd 0353 06bd
000003b0: f225 f8bc 40b0 03bd ade2 e6bc 3bf1 0cbd
000003c0: 9d44 3dbd 082f 70bd f000 1bbd 3ab8 0abd
000003d0: 5c1f c6bc 668f fcbc 0044 73bd 494b 17bd
000003e0: 3018 a6bd ebe4 d6bc d848 0cbd 0701 46bd
000003f0: 8d7f cebc 5911 9dbc 97cc e1bc dddf 41bd
-0.0827655 -0.038301457 0.07236627 -0.07111266 0.015728258 0.07445889 -0.09252443 -0.053469967
0.008864381 -0.12701404 -0.0926507 -0.06999714 0.14944395 -0.049569827 0.25788814 0.030010542
-0.014496049 -0.017947037 0.0032220993 0.010941824 -0.11268105 -0.0057379184 -0.0733434 0.01140436
-0.059615254 -0.032099657 -0.10242676 -0.036490265 0.10478589 0.07418421 -0.0924038 -0.1137087
0.13526717 -0.00061027316 0.027099546 -0.050391756 0.062822126 0.14927436 0.038893122 -0.06884472
0.0037944235 -0.06319926 -0.00624955 -0.021534849 -0.015201862 -0.004233183 0.14712194 -0.02661074
0.10887955 0.026012255 -0.061165396 -0.007217268 0.049893573 0.045021445 0.08341682 0.066241704
0.009687726 0.09813185 -0.092576474 0.21660703 -0.09985405 0.028753612 -0.012132328 0.09576234
-0.1117287 0.05776052 0.043615658 0.040273767 0.056136128 0.21069275 0.06577136 -0.023187947
0.047016107 -0.043337 -0.07794853 -0.04503977 0.015292775 0.1688347 -0.08656061 -0.122221366
0.053643532 -0.08836623 -0.054894935 -0.124253124 -0.12762336 0.0049858834 -0.027484756 0.04510354
-0.016564572 0.07948831 -0.1088645 0.018241813 0.076609366 -0.12575556 -0.029526982 -0.044720903
-0.14053361 0.15193976 -0.0026384143 -0.13336714 -0.056661896 -0.08732842 -0.10190905 0.28504384
-0.063089095 -0.018345468 -0.09357389 0.20496295 -0.13649136 -0.12044493 -0.07062869 0.30915952
0.1989302 -0.045977034 -0.01801182 -0.14717634 -0.08440565 0.21297501 -0.029172227 -0.039694797
-0.0019543895 0.13303664 0.01942883 0.0130588105 -0.081865594 0.07191944 -0.016317952 -0.033170078
-0.032083556 -0.021713004 -0.036592416 -0.048795383 -0.038464822 -0.028794851 -0.02208964 -0.04689044
-0.041644182 -0.029452637 -0.054408167 -0.027722456 -0.02138002 -0.033436105 -0.02265264 -0.031464916
-0.059715323 -0.045890726 -0.025522707 -0.034441575 -0.043719877 -0.030362379 -0.053829502 -0.025398048
-0.049691956 -0.03365249 -0.035389055 -0.030874003 -0.02506851 -0.017877856 -0.029181449 -0.04732357
-0.023528665 -0.04319222 -0.03776109 -0.030609854 -0.020983016 -0.035669845 -0.035047516 -0.0401298
-0.034959856 -0.034666162 -0.044565 -0.035521895 -0.029812805 -0.029260729 -0.018942676 -0.04199204
-0.029733889 -0.037707362 -0.054758213 -0.03259595 -0.026439209 -0.034924094 -0.017940791 -0.030869208
-0.020649593 -0.032658678 -0.03045074 -0.023673028 -0.036342658 -0.031116959 -0.03767206 -0.022928508
-0.02328452 -0.037772372 -0.029978149 -0.030796843 -0.028560085 -0.023611763 -0.020395115 -0.07185898
-0.028910933 -0.039367843 -0.057767898 -0.021708382 -0.04052942 -0.026373321 -0.030451545 -0.027103525
-0.031067349 -0.04357181 -0.0433554 -0.028392088 -0.07688893 -0.028507594 -0.0370604 -0.073242284
-0.033058014 -0.032081135 -0.07091468 -0.051729184 -0.038729753 -0.031880207 -0.042910557 -0.030193157
-0.0404409 -0.021930404 -0.036610126 -0.031443477 -0.028754462 -0.028490525 -0.06451263 -0.02874697
-0.034645412 -0.051933926 -0.06621949 -0.03279401 -0.030291531 -0.032150507 -0.02818426 -0.034409743
-0.046208013 -0.058638602 -0.03784269 -0.0338671 -0.024184875 -0.030830096 -0.05939102 -0.036937032
-0.08110082 -0.026232203 -0.034249157 -0.048340824 -0.025207305 -0.019173311 -0.027563376 -0.047332633

find.2.bias f4 [128]
00000000: fa7b a93c 46d8 9fbd ec23 96bd 0af2 183d
00000010: b9b7 6e3c 4a57 0b3d 3a27 45bd b636 a9ba
00000020: 589e 95bd afb6 9ebd 4db6 7e3b f164 9abd
00000030: c0d2 2b3c f436 bcbd 58c0 fbba 313f 0cbd
00000040: 200b 34bc 1246 2f3d 3e74 9fbd d58e 21bc
00000050: 1e25 9cbd e597 0bbd b0f0 2ebc 213f 963d
00000060: 2cdc 9fbd 9176 98bd 23d1 8bbd c519 a4bc
00000070: 90c7 a738 30e6 a0bd a5af 1a3c e266 9dbd
00000080: 11a7 c23c 297a 96bd e663 98bd ef5f 53bd
00000090: ec49 05bd 97df 9bbd d5e6 cabb 83b0 0ebd
000000a0: 2cc0 c43c 6cdc 97bd 647f 99bd 0209 8abd
000000b0: b66d 98bc e790 9dbd c65e 8a3d 25e3 a1bd
000000c0: 80a5 9fbd 360f 51bd 781f 9cbd 9ba5 91bd
000000d0: 9359 a1bd d73d 35bd 099c 383d 1f67 7fbd
000000e0: fab2 9fbd ad96 8a3d 704a f2bc f60d 88bd
000000f0: dc6c 9ebd 954e 91bd 6b3a 9fbd 8bfd 94bd
00000100: 3607 9ebd 76f5 6dbd 2611 a0bd e5bc 223d
00000110: f906 83bc c82f 9cbd 2ca4 b5bc 3f5c b9bc
00000120: 6705 9abd a820 e13c 0070 283d 8296 6ebc
00000130: b2e6 033d 567e 2c3d 75f8 30bd 59b3 9abd
00000140: 2fb2 d0bd b858 803c 1089 9bbd 0f25 f3bc
00000150: 9f0e 703d d7fa 8b3c b227 ddbc a579 81bd
00000160: 425c 13bd f184 9ebd 0b69 9ebd cf10 86bd
00000170: 6634 8abd 42d4 933c a000 8ebd 917c 92bd
00000180: 425b 0bbd 2f30 7b3c 9c84 97bd b837 d7bb
00000190: d44e 8fbd 42f9 4c3c 2eb0 25bd e43d 6a3b
000001a0: 5d72 a1bd d951 633b 73bf 9bbd a934 f4bc
000001b0: b57b 95bd dad5 a0bd 77a2 8cbd 1c8f f43a
000001c0: bfe6 91bd 1f9c f4bc aa55 453b 5d6e 213d
000001d0: dd20 96bd 4a0e a2bd 4e7a c1bc 9308 71bd
000001e0: e5d9 14bc efe4 9dbd ae2d 15bd cccf 9ebd
000001f0: 28f4 a1bd 6fc5 9fbd 5ae8 60bd 335a 8bbd
0.020689 -0.07804923 -0.0733107 0.0373402 0.01457017 0.034018792 -0.048133112 -0.0012909982
-0.07305592 -0.07749688 0.0038865984 -0.07538784 0.010487258 -0.09190169 -0.0019207103 -0.03423995
-0.0109889805 0.042791434 -0.07785843 -0.009860714 -0.07624267 -0.034080405 -0.010677502 0.0733626
-0.07805666 -0.0744449 -0.06826999 -0.02003182 8.000352e-05 -0.07856405 0.009441291 -0.07685639
0.023761304 -0.07347519 -0.07440929 -0.05160516 -0.0325412 -0.07611006 -0.006192068 -0.034836303
0.024017416 -0.07415089 -0.07495001 -0.06739999 -0.018607002 -0.076936536 0.06756358 -0.079046525
-0.077952385 -0.051039897 -0.0762319 -0.07111665 -0.07878413 -0.04424843 0.04507068 -0.062354203
-0.07797809 0.067670204 -0.02957651 -0.06643288 -0.07735607 -0.070950665 -0.07774814 -0.07274922
-0.07716219 -0.058095418 -0.07815771 0.039730925 -0.015994536 -0.07626301 -0.02217301 -0.022626994
-0.07520562 0.027481392 0.041122437 -0.014562251 0.03220243 0.04211267 -0.043205697 -0.07553739
-0.10190236 0.015667304 -0.07594502 -0.029680757 0.058607694 0.017087383 -0.026996467 -0.0632203
-0.035976656 -0.077402 -0.07734879 -0.06546175 -0.067482755 0.018045548 -0.06933713 -0.071526654
-0.034022577 0.015331312 -0.0739834 -0.0065679215 -0.06997457 0.0125106 -0.04045122 0.0035742456
-0.07883141 0.0034686236 -0.076048754 -0.029810267 -0.07298986 -0.07853289 -0.06866925 0.0018658373
-0.071240894 -0.0298596 0.0030110874 0.03941189 -0.07330487 -0.07912882 -0.02361789 -0.058846068
-0.009085153 -0.07709681 -0.036420517 -0.07754478 -0.07907897 -0.07801329 -0.054909088 -0.068043135

find.4.weight f4 [64, 128]
00000000: e4ac adbc 695a 06bb 5606 c6bb a336 063e
00000010: 0505 6dbd c14e 483c fe2f 45bc a690 6cbd
00000020: 9118 d0bb eb70 c2bb bcb7 68bd 73e3 1dbc
00000030: 869b 2d3d 8910 c3bd a5b0 96bc 7ef4 2bbc
00000040: a173 023e b88c e33d b049 97bb 6f37 debd
00000050: 203d 17bc 7827 013b 1872 573d 1731 a53c
00000060: 7436 d0ba c4d9 b8bb e663 e4bb a1f5 0d3d
00000070: a800 55bd 2846 79bb 3c60 38bc 04d9 30bb
00000080: 9f25 973d 1a5e c1bb d541 9fbb 4586 b83d
00000090: 6f36 223e 2f2d 3dbb 68d7 a3bd d86b 9cbd
000000a0: d6b3 b8bd 85aa c8bb fb0a cdba 48e7 f8bb
000000b0: a785 023e db9c 3fbb 4471 6e3c f889 3cbb
000000c0: adb6 1fbc 8cd1 72bc 1b86 8dbb 220d e8bb
000000d0: 81c1 15bb d95a a83d e072 36bc 5a39 873d
000000e0: 97e7 36bb 5889 eb3d 42b3 593d 1578 15bc
000000f0: f46f 07bb 811c 0ebc 039c 8abb 06d8 d0bb
00000100: c676 57bb e11e 1fbc 46af 03bb ef90 b53d
00000110: d9b5 d43d 31c1 adbb e855 b5bc 93b6 01be
00000120: 2056 99bb a2e1 38bd 823a 0b3e a446 813d
00000130: 75e3 1e3e ef43 343b e64b a5bb 2283 80bb
00000140: 4dce 84b9 393e f0bd 0874 71bb 82d7 99bd
00000150: 192a 5a3d f0be 6abd 6990 523d ce29 47bc
00000160: 9eb9 a83c 5b75 0bbb 50e6 caba 4e3e 09bc
00000170: 6193 c939 721f 2dbc 90bd f2bb 9189 e9bb
00000180: 0369 81bc bc39 e5bc 2c3d e4bb ce85 34bd
00000190: 871d 09bc 3b67 dabd 0d4d 083e c151 01bc
000001a0: 221a efba d5a0 f5bc 9e3b a2bb 7018 d6bc
000001b0: 45ac b0bb 42d3 b9ba a5e2 0cbc c4da 47bd
000001c0: 54e6 4e3a 04a4 0fbe ff28 b1bc 3bd9 9bbd
000001d0: 78e2 b6bb da06 0438 d045 e5bd 7ee5 853d
000001e0: ec6c 92bc 7400 4cbb 3e71 1fbd 9a0a 21bb
000001f0: f7ef e5ba 56a6 31bb 7b67 33bc 7ddd 273c
00000200: f955 6b3d cf5a 4039 a078 ff3a 5265 6a3e
00000210: 8842 b7bd 3f30 123c 9276 a53c 9521 3fbe
00000220: b732 053b 08a8 833a 267d b5bd 4164 24ba
00000230: 9bbd 213e b6c4 39be 675f 883d e819 063d
00000240: bc98 1d3e f5dc 803e b894 40b9 bd48 5bbe
00000250: e471 e738 d586 d6bd 7b6f 153e 8361 df3d
00000260: 2826 ed38 75b8 073b a21d 2e3b 6b93 dcbc
00000270: 7daa 90bd 0ee8 d3b9 cd42 ad3d dc82 1f3b
00000280: 3641 443e 0f05 c63a 537d a23b c12b 0e3e
00000290: 0bfb b73c 6bd1 2e3b d880 15be 7763 93be
000002a0: 7b55 1e3c 8176 c53a f076 843b 50b0 d33b
000002b0: 6973 d03d 1416 293b 1aed 2f3e 8ab6 15b9
000002c0: 6dfb 83ba e567 4d3c d0c1 1b3b c440 5e3b
000002d0: a8bd 0b38 035e 4bbc 3edb ae3d 5f3e 283d
000002e0: 9c95 0d3a 3cec 2a3e db04 333d 699d a53b
000002f0: d336 c139 cdc1 043b 5533 7e39 1f9a 4b3b
00000300: 0491 5339 c211 653c 1134 b13a d7e3 7b3e
00000310: 349d 2a3e a40f 2eb9 807b 29bd 41f6 00be
00000320: 898b 9d3b 0d24 c1bc e933 e13d 9499 81bb
00000330: 6cf1 143e 727b cf3d 03c3 a33c 5dce 303b
00000340: 00d5 12be ef13 1cbe 74dc 693b 38c4 13be
00000350: 84fd fd3d df24 8ebd 6fbe 383e 1a1b 52ba
00000360: 9103 dfbd 3b27 fb3a 04ef 9cba 2668 e63b
00000370: 835a 7fbb 0389 3b3d 4f9d e03a b270 8f3a
00000380: e45d 823d 87f7 e33c 7cf3 703a 39b5 3dbd
00000390: 8672 343b c51f 9bbd c3ce 2c3d 8c78 873d
000003a0: 1943 92b9 b1ab 7fbc b2d4 473b 3952 13be
000003b0: d9f3 bd3b 7469 20b9 a843 743b c395 7cbd
000003c0: c1ad 54bb 37c4 aebd c157 d13d 6873 4dbc
000003d0: f7d2 d13b c91b 77ba 8e57 5fbe 0fd7 97bd
000003e0: 3079 473d d54a fe3a 7ae9 91bd a5eb 87b9
000003f0: f5e3 17ba 05a8 5fba 9b93 603c 9219 7bbd
-0.021200605 -0.0020500666 -0.006043236 0.1310678 -0.057866115 0.012225808 -0.012035368 -0.057755135
-0.006350585 -0.005933871 -0.056815848 -0.009636748 0.042384647 -0.09524638 -0.018394778 -0.010495303
0.12739421 0.11110824 -0.0046169385 -0.10850417 -0.009230882 0.0019707363 0.052599043 0.02016501
-0.0015885369 -0.005641194 -0.0069699166 0.034658078 -0.05200258 -0.00380362 -0.011253413 -0.002698482
0.073802225 -0.0059011104 -0.0048601427 0.09009985 0.15841077 -0.0028866043 -0.0800007 -0.07637757
-0.09018676 -0.006123843 -0.0015643531 -0.0075959302 0.12746297 -0.002923778 0.014553372 -0.002876876
-0.009748143 -0.014820468 -0.004318965 -0.0070816437 -0.0022850933 0.08220453 -0.011135787 0.06602736
-0.0027909034 0.115008056 0.05314947 -0.009122868 -0.0020666094 -0.008673788 -0.004230024 -0.0063734083
-0.003287719 -0.009711952 -0.0020093485 0.088655345 0.10386247 -0.005302571 -0.02213569 -0.12667303
-0.0046794564 -0.045137055 0.13596538 0.06312302 0.15516455 0.0027506312 -0.005044448 -0.0039218822
-0.00025330708 -0.11730618 -0.0036842842 -0.07511808 0.053262804 -0.057311 0.05140725 -0.012155963
0.020596322 -0.0021279666 -0.0015480015 -0.008376671 0.00038447513 -0.010566579 -0.0074078515 -0.007126995
-0.015797144 -0.027981631 -0.0069653 -0.04407292 -0.008368856 -0.10664221 0.13310643 -0.007893027
-0.0018242041 -0.029983917 -0.0049509546 -0.0261347 -0.00539163 -0.001417734 -0.008598958 -0.048792616
0.0007892598 -0.14027411 -0.021625994 -0.07609793 -0.0055811964 3.1477633e-05 -0.11194956 0.06537913
-0.017874204 -0.00311282 -0.038926356 -0.002457297 -0.0017542829 -0.00271072 -0.010949965 0.010245678
0.057455037 0.00018344376 0.0019490905 0.22890213 -0.08948237 0.008922636 0.02019814 -0.18665154
0.0020324418 0.0010044584 -0.08861761 -0.00062710425 0.15794985 -0.18141446 0.066588216 0.03273955
0.15390295 0.25168577 -0.00018365949 -0.21414466 0.00011036152 -0.10474936 0.14593308 0.10907271
0.00011308148 0.002070931 0.0026567956 -0.026925763 -0.07063768 -0.0004041795 0.08460007 0.0024339473
0.19165501 0.0015107709 0.0049587875 0.13883878 0.022458574 0.0026675116 -0.14599931 -0.28786823
0.009663935 0.0015065224 0.004042499 0.006460227 0.10178263 0.0025800513 0.17180291 -0.00014277748
-0.0010069438 0.012536977 0.0023766644 0.0033913115 3.3316814e-05 -0.012412551 0.08537911 0.041075107
0.00054010167 0.16691679 0.043705802 0.005054165 0.00036852676 0.0020257116 0.0002424245 0.0031067205
0.0002017655 0.013981285 0.0013519545 0.24598633 0.1666153 -0.0001659976 -0.041377544 -0.12593938
0.0048078937 -0.02357676 0.10996229 -0.0039550755 0.1454522 0.10130967 0.01999045 0.002697847
-0.14339066 -0.15241979 0.0035684379 -0.1443032 0.1240187 -0.06940626 0.18041395 -0.00080149027
-0.10889352 0.0019161472 -0.0011973088 0.0070314584 -0.0038963861 0.04578496 0.0017136725 0.001094362
0.063655645 0.027827991 0.00091915554 -0.046315406 0.0027534082 -0.07574419 0.04218937 0.06614789
-0.00027897282 -0.015604899 0.0030491767 -0.14386834 0.005796891 -0.00015298073 0.0037271772 -0.06166626
-0.0032452198 -0.08533519 0.10221816 -0.012539722 0.006403323 -0.00094264426 -0.21810743 -0.07414066
0.048699558 0.0019400964 -0.0712461 -0.00025924775 -0.0005794161 -0.0008531812 0.013707067 -0.061303683

find.4.bias f4 [64]
00000000: 8fcd 2d3d a65b f73c b0e4 af02 d558 b582
00000010: 7994 513d 42a6 c382 e618 f83c 4ac1 bb3d
00000020: cf8f bc3b e3c9 91bd e365 ae02 5f84 b4bb
00000030: 2a46 28bd 3eff ad82 7eda 4f3c a1dd b03d
00000040: e817 b882 027a b782 2dc9 c902 86ec fabc
00000050: 7956 c502 4f4c b882 ccec 9c3c 442e a302
00000060: cda6 b602 fb5c 9fbd c41d b782 90ac ae82
00000070: 3d7f 003e 9549 f5bc 3645 c102 cd9c b002
00000080: 2c01 643b bbd3 24bd ed6d b402 38ba bd82
00000090: 0d61 a202 d6bb 983d b49c b082 4838 af82
000000a0: aa18 713d e84c bb82 b54e b902 b8a3 bb82
000000b0: 0241 a6bb e678 c73c 0391 5782 7262 4e3c
000000c0: 79fb 803d 2ba6 4d02 1cd7 19bd c166 1c3d
000000d0: 4e1a b902 04e9 c1bb 9630 b282 c8b7 1a81
000000e0: ef75 163c de71 b602 6ba3 543d 317c 9f3d
000000f0: 2024 bbbd d067 0b3c 2f5e b482 a16b a5bc
0.042432364 0.030195069 2.58452e-37 -2.6646547e-37 0.051166985 -2.8748102e-37 0.03028531 0.09167726
0.005754448 -0.07118585 2.5625482e-37 -0.005508944 -0.04108254 -2.5566567e-37 0.01268637 0.08636022
-2.7050092e-37 -2.6959462e-37 2.9649765e-37 -0.030630361 2.8996181e-37 -2.708017e-37 0.019155882 2.3977253e-37
2.6838235e-37 -0.077814065 -2.6906518e-37 -2.5666048e-37 0.12548538 -0.029942313 2.8398526e-37 2.5950875e-37
0.0034790738 -0.040240984 2.6511717e-37 -2.7877938e-37 2.3859465e-37 0.07457702 -2.595082e-37 -2.5746243e-37
0.058861412 -2.7521322e-37 2.7228482e-37 -2.757115e-37 -0.0050736675 0.024349641 -1.5837322e-37 0.012596713
0.062979646 1.5108709e-37 -0.03755866 0.03818393 2.7198405e-37 -0.00591767 -2.6182636e-37 -2.841719e-38
0.009183391 2.6807853e-37 0.05191366 0.077873595 -0.0913775 0.008508638 -2.6502682e-37 -0.020192923

find.6.weight f4 [2, 64]
00000000: a53a 9b3d 31a0 5bbd 40fd c082 5601 c182
00000010: 82ba 0e3d 3d2a c102 f155 21be 4df1 b7bc
00000020: 53eb 563e fcdf de3d 3a52 b882 4072 3ebe
00000030: 3e34 b7be 2019 b702 92c8 0c3e f945 f6bd
00000040: 7656 b702 7089 9502 5873 a902 68e6 173d
00000050: ba9e ac02 3eee c002 1d7f e8bd 0325 9d02
00000060: 9791 c782 ad0d aa3c 8ed7 a302 934b cb02
00000070: 6f4f 153d 866f f13e cb10 3302 d38d bc02
00000080: 0f45 4d3d 2c10 163d 62c9 be02 1c79 a102
00000090: d820 5f82 fd06 2c3b a451 d182 b1ce b402
000000a0: 6a23 adbb 942d 7182 e8df bd02 a4b9 8602
000000b0: 2f43 da3d a071 5fbc fdbd c602 c7f5 ddbc
000000c0: 39e1 cdbc ce26 c182 2f0d 7fbc 0b59 0cbe
000000d0: 1e3b b602 3298 e83d 6b19 d802 e4a0 c782
000000e0: c016 41bd 0243 c282 e417 27bc b4d7 813e
000000f0: 38cd ee3d 3a25 643c c005 ac02 d5f7 23bf
00000100: 05d4 ad3d 2684 833e a39c b482 52cf b482
00000110: a625 3c3e 6aca bd82 0286 763e 9f83 c43e
00000120: 8b80 973e ca65 fabe c93c be02 66ed 6abe
00000130: 55f3 0dbe 8a20 be02 c08c 7abe 246f 923e
00000140: d16f 9c82 743a a382 0ea4 a882 8796 ccbe
00000150: 02e8 ac82 b9b0 c802 c511 343e e269 ba02
00000160: 70af c582 32a6 73be 9dfb 0302 5a61 c002
00000170: 93b9 b53e 3599 55bf ed58 9c02 3984 c282
00000180: 4bc3 8dbe 1f39 99bd 1538 c202 183e b002
00000190: 397a 3182 16e4 8f3e a4b6 bf02 f763 8602
000001a0: 9027 9d3e 18f0 4b83 777b be82 a197 aa82
000001b0: ee9b 233e b25e 813e 74b4 c802 8c5d 6e3e
000001c0: 38f2 673e 8652 c182 4181 93bc 23b1 43be
000001d0: 8503 c382 8c15 823e 5e45 b082 4c96 cd82
000001e0: 3860 75be 66d2 a782 e887 5d3e 7053 583c
000001f0: 3d1d 22be 71cf 57be 4632 ba02 b950 033f
0.07579545 -0.053619567 -2.8357223e-37 -2.8359568e-37 0.034845836 2.8383045e-37 -0.1575544 -0.022453928
0.20988207 0.108825654 -2.7083566e-37 -0.1859827 -0.35782045 2.6903854e-37 0.13748387 -0.12025065
2.693906e-37 2.1972468e-37 2.4898522e-37 0.037084967 2.5364233e-37 2.8348609e-37 -0.1135237 2.309032e-37
-2.9323986e-37 0.020758474 2.407442e-37 2.9871547e-37 0.036452707 0.47155398 1.3155662e-37 2.770552e-37
0.050114688 0.036636516 2.803358e-37 2.3726337e-37 -1.6392878e-37 0.0026249283 -3.075665e-37 2.6567258e-37
-0.0052837627 -1.7718964e-37 2.789957e-37 1.9796083e-37 0.106573455 -0.01363793 2.9202533e-37 -0.027094735
-0.025131809 -2.8381074e-37 -0.015567108 -0.13705842 2.6776428e-37 0.11357154 3.1752937e-37 -2.9332769e-37
-0.047140837 -2.8544199e-37 -0.010198567 0.2535988 0.11660236 0.013924891 2.527643e-37 -0.64050037
0.08487705 0.2568676 -2.6538528e-37 -2.656762e-37 0.18373737 -2.7887234e-37 0.24074557 0.3838167
0.29590258 -0.48905784 2.795288e-37 -0.22942123 -0.13862355 2.7936667e-37 -0.24467754 0.2860042
-2.298632e-37 -2.3984248e-37 -2.4779544e-37 -0.39958593 -2.5406294e-37 2.9488793e-37 0.17584904 2.7391017e-37
-2.9047245e-37 -0.23793867 9.69657e-38 2.8267741e-37 0.35493144 -0.834369 2.297318e-37 -2.858163e-37
-0.2768806 -0.07481598 2.8537928e-37 2.5896516e-37 -1.3038982e-37 0.28103703 2.8169758e-37 1.9746907e-37
0.30694246 -5.9931952e-37 -2.7988856e-37 -2.5066286e-37 0.15977451 0.2526756 2.9490934e-37 0.23277873
0.22650993 -2.8406167e-37 -0.018005969 -0.19110541 -2.8654695e-37 0.25407064 -2.590069e-37 -3.020831e-37
-0.23962486 -2.4659207e-37 0.21633875 0.013203487 -0.15831466 -0.21075226 2.73591e-37 0.5129505

find.6.bias f4 [2]
00000000: 065b 2b3e 800a 973d
0.16733941 0.073750496

exp_avg f4 [128, 120]
00000000: 4c19 c73a bea7 233a 59df 37ba 61a4 fd39
00000010: ad3c a237 4d72 86b8 7947 7139 2a5f 8f3a
00000020: 8a2c dc3a c306 10b8 ccee 6e3a e2a8 3c39
00000030: 2d3d 613a f8e9 023b 3bdb 8239 3cd1 afb9
00000040: a442 72b8 d4aa 193b 19e5 3e3a b10b 0eb8
00000050: 3cf0 37b8 5095 a8b9 b1c0 8339 3576 803a
00000060: 045d 713b b7be 653a eed2 213a 92bc 94b8
00000070: ce96 ecb9 b4d7 15b9 c81a 3e37 073f 343b
00000080: ca0e 1137 bd52 a638 9f10 9139 0bdd 303a
00000090: ca66 8c3b 6529 543a 80ba 9838 e42e aeb8
000000a0: a0b5 873a ca98 1c3a 872f ce3a a102 04ba
000000b0: 5113 1e38 c506 243a a329 34b8 0134 8339
000000c0: a82b 783b f1e2 4c3a da00 663a 80b5 5738
000000d0: 1e10 d83a 9823 a436 6ac3 9cb9 de30 e834
000000e0: dace eeb9 2c07 c83a 0230 dc39 d431 8736
000000f0: f298 303b 7fc6 5b3a 8286 943a 1abb a4b9
00000100: 5c57 4739 55d7 a3b8 aab2 233a 4ea5 fe39
00000110: 6388 773a 9dc8 8db7 ea60 4c3a 1ef6 27b5
00000120: 1fab ce3a 1349 a43a bd21 90b8 3346 c73a
00000130: 370b 4c3a 73ad 9036 0e9f b2b6 c2a5 10b8
00000140: 1164 fab9 4843 2b39 3e64 da3a 2722 08b7
00000150: 239a 013b 8e0f 4b3a b178 83b9 d1dd 1eb8
00000160: 5a5e 2d3b 1b8e 9f3a 21aa d5b9 a759 0d38
00000170: 6cc7 e6b6 9279 153a 0e48 12b7 9fb3 41b8
00000180: b208 0c3b 462e e239 bc66 70b9 2849 c1b8
00000190: 0b08 8837 d10b 86b5 ad3b 6d3a bb9a 84b9
000001a0: 983c aeb8 0035 e739 b293 1b3a 4c3e 9038
000001b0: 19cd f23a 7c56 363a c057 1b3a 34bb 2539
000001c0: 7a69 5bb4 29cc 393a b7e3 5bb9 2c19 85b9
000001d0: 8401 0b3a 59a6 6bb8 ed5f 1bb9 684f f639
000001e0: ff29 13b9 06cb b6b8 9eac 3438 3139 c7b8
000001f0: b5b8 a1b8 9f9b 21b8 9ba8 ca38 6153 85b8
00000200: 7cd6 5a3a bbd4 4e36 6776 1538 340f 6bb9
00000210: 96cb 94b9 543b 2738 b6b4 c3b8 47ce a1b5
00000220: 9ea5 7f35 aeab 523a 2bda 16b7 0470 f538
00000230: 107c b8b7 6f1e 02b9 31ce e6b8 8754 38b8
00000240: b323 223a cd65 4239 f8c2 78b8 3761 e0b4
00000250: ffde 3737 69fe 35b9 8553 aeb8 25d2 463a
00000260: 989e 1c37 be50 72b6 a9c7 9838 bfda 50b7
00000270: 20a1 0a3a dd32 2239 c038 ac38 8abd 3b37
00000280: 147d c9b7 520b 76b7 82fe 5c3a bf69 34b6
00000290: a227 c6b9 e3f5 8eb8 ebc0 6938 ed8f 79b7
000002a0: cdd0 1e3a bb80 4639 066e 0f38 f268 bcb8
000002b0: c410 27b9 8c26 01b6 cd31 22b9 2c36 fab5
000002c0: 6077 58b7 871f 633a ee1e 0438 aac5 ceb5
000002d0: 246e e839 01d0 9b38 930b 1ab9 7c5f c838
000002e0: 966e a938 7f65 da37 c8eb 5fb8 f54b 9cb9
000002f0: 63a0 463a 2bfc c136 fe33 9237 b99b 2937
00000300: 4e67 fe39 14b6 f739 1ac5 a037 6bd0 dcb9
00000310: 1543 ca37 6696 37b7 3411 58b5 4a11 cb35
00000320: 8ac8 21b8 64f9 18b8 9e8d 5b3a 2688 1b38
00000330: 3df1 023a a9de 0839 c3ba 1cb8 31ca 2f36
00000340: fde8 223a 16dd 98b8 7de6 9b38 a1e1 adb8
00000350: 3e1d 37b7 a0d1 a9b8 5276 36b6 2eb3 8936
00000360: 7039 183a 99e0 4bb8 2ba7 0b38 291c 35b7
00000370: 6d90 72b6 63b4 93b5 6dd9 6fb9 df1d 25b8
00000380: ba42 4238 d090 b0b8 d3e1 8c37 df4a 92b8
00000390: ae72 a3b9 b1ca 21b9 342a 08b9 b07f 2338
000003a0: de53 5036 917f bab7 4364 35b9 785f 1e38
000003b0: 3c91 8eb8 e7f2 47b8 153d 6537 e469 e6b8
000003c0: 7a92 90ba 4bd5 e5b9 d794 3838 1580 57b6
000003d0: f6dc ab36 bd87 2639 ebaf 45ba 0563 2aba
000003e0: 9326 9eba 6fe9 0337 f329 bfba fe46 f938
000003f0: 1fcc 82ba a520 cfba 1a02 a4b7 e832 4239
0.0015190034 0.0006242952 -0.00070141774 0.00048378392 1.934016e-05 -6.410908e-05 0.00023010177 0.0010938395
0.0016797942 -3.4338573e-05 0.0009114563 0.00017991991 0.0008592185 0.0019975882 0.00024958872 -0.00033534493
-5.775936e-05 0.0023447769 0.0007282063 -3.3866327e-05 -4.3854336e-05 -0.00032154704 0.00025129833 0.0009800853
0.0036829123 0.00087640755 0.00061730936 -7.092314e-05 -0.00045125786 -0.00014290103 1.1331118e-05 0.0027503388
8.646117e-06 7.930908e-05 0.0002766894 0.0006746805 0.0042847143 0.00080933265 7.282663e-05 -8.3057006e-05
0.0010353811 0.0005973695 0.0015730717 -0.0005035792 3.7688125e-05 0.0006257112 -4.295412e-05 0.00025025013
0.0037867818 0.00078157993 0.00087739306 5.142903e-05 0.0016484295 4.8917245e-06 -0.00029900233 4.3248923e-07
-0.00045549014 0.0015260926 0.00041997439 4.0291143e-06 0.0026946631 0.0008383765 0.001133159 -0.0003141992
0.00019010663 -7.8125544e-05 0.00062445796 0.00048569817 0.00094426255 -1.6901928e-05 0.0007796424 -6.2570496e-07
0.0015767551 0.0012533985 -6.872739e-05 0.0015203416 0.00077836536 4.3117266e-06 -5.32333e-06 -3.448665e-05
-0.0004775827 0.00016332895 0.0016661955 -8.114183e-06 0.001977571 0.0007746153 -0.0002507619 -3.7876718e-05
0.0026453943 0.0012173088 -0.00040753282 3.3700515e-05 -6.87775e-06 0.00057020143 -8.719055e-06 -4.618207e-05
0.0021367487 0.00043140555 -0.00022926455 -9.2165836e-05 1.6216209e-05 -9.987217e-07 0.0009049725 -0.00025292285
-8.308253e-05 0.00044099241 0.0005934789 6.878059e-05 0.0018524259 0.0006955636 0.00059258565 0.00015805365
-2.0434337e-07 0.0007087612 -0.00020970298 -0.0002538649 0.0005302655 -5.618329e-05 -0.00014817687 0.0004697994
-0.00014034657 -8.716252e-05 4.3076107e-05 -9.499712e-05 -7.7114826e-05 -3.8530325e-05 9.663516e-05 -6.357465e-05
0.00083480007 3.0820217e-06 3.563464e-05 -0.0002241701 -0.00028380443 3.9871156e-05 -9.3319846e-05 -1.2055469e-06
9.523591e-07 0.00080364465 -8.991493e-06 0.00011703375 -2.199228e-05 -0.00012409104 -0.00011005661 -4.394774e-05
0.0006185129 0.00018539205 -5.9309386e-05 -4.1793984e-07 1.095957e-05 -0.0001735628 -8.312523e-05 0.00075844146
9.33525e-06 -3.6107808e-06 7.2851144e-05 -1.2448697e-05 0.0005288292 0.00015468472 8.2121696e-05 1.1190199e-05
-2.4019311e-05 -1.4665378e-05 0.00084302586 -2.6883642e-06 -0.00037795032 -6.8168876e-05 5.5731198e-05 -1.4875067e-05
0.00060583354 0.00018930707 3.4196324e-05 -8.984086e-05 -0.00015932607 -1.9244935e-06 -0.00015468076 -1.8642218e-06
-1.2902397e-05 0.0008664061 3.1500058e-05 -1.5405724e-06 0.0004433255 7.42972e-05 -0.00014690896 9.5545285e-05
8.079146e-05 2.6034888e-05 -5.338693e-05 -0.0002981123 0.0007577 5.7812044e-06 1.7428767e-05 1.0109442e-05
0.00048523623 0.0004724717 1.9165269e-05 -0.00042116953 2.4111514e-05 -1.0942667e-05 -8.0491304e-07 1.512971e-06
-3.8572158e-05 -3.6471887e-05 0.00083752896 3.7081678e-05 0.0004995054 0.00013052918 -3.7367234e-05 2.6194723e-06
0.00062145275 -7.289105e-05 7.433908e-05 -8.2913095e-05 -1.09144585e-05 -8.097594e-05 -2.7188985e-06 4.1037774e-06
0.00058068987 -4.8608144e-05 3.329587e-05 -1.0794997e-05 -3.6144877e-06 -1.1004853e-06 -0.00022873814 -3.9366885e-05
4.631535e-05 -8.4193074e-05 1.6794458e-05 -6.975768e-05 -0.00031175226 -0.00015429665 -0.00012985693 3.8981147e-05
3.1043232e-06 -2.223233e-05 -0.00017298856 3.7759048e-05 -6.79814e-05 -4.7671518e-05 1.3663685e-05 -0.00010986978
-0.0011029982 -0.000438372 4.4007636e-05 -3.211205e-06 5.1219204e-06 0.0001588156 -0.00075411674 -0.00064997404
-0.0012065939 7.862559e-06 -0.0014584645 0.000118864686 -0.0009979046 -0.0015802576 -1.9551302e-05 0.00018520246

exp_avg_sq f4 [128, 120]
00000000: cdb2 c838 8f5d 4a37 2f13 7f37 4e5d 9e36
00000010: a7f0 a337 3aad 3538 6cd5 5837 7d2b 2d36
00000020: e7c6 7a37 758e 2d38 2e3f 2537 8ea2 4c37
00000030: 2017 1239 e553 3937 7a65 2e37 9793 9b37
00000040: 89eb b537 9812 1b38 2bc6 2837 b8fc 1b38
00000050: 6629 3636 a708 c237 f289 e336 f6da 3f37
00000060: 40c5 0839 8907 ad37 a147 1337 cdd8 b536
00000070: 63ac b837 8288 7e38 48d4 9636 152f 0537
00000080: 8315 3537 32d7 8737 17c6 1b37 b066 0038
00000090: 1b10 1b39 1a3f 0d37 d82c 8737 e856 8837
000000a0: 7893 1b38 315a dc37 d102 4337 0da8 5937
000000b0: 658c 9537 0878 8a37 7363 0337 d21f 2b37
000000c0: c4f6 bb38 99bd 7137 6116 9e37 667d 6b38
000000d0: 017f 8737 02fc 3b37 0454 9937 7556 6b36
000000e0: 268f 3337 05b9 6837 9e08 c237 863d b636
000000f0: 7cc0 0239 9018 3737 43b8 0137 e120 d037
00000100: c931 6637 1ede 2837 aeb2 2537 a13d 4c38
00000110: 20c9 3037 e024 de37 5beb 2d37 3152 ee36
00000120: cc3b b538 3ccc 1137 ee84 1137 349e 1638
00000130: 007f 7236 f4b4 5b38 357b 7b36 557b 7b37
00000140: 5b54 d137 6c1d 1737 b6f0 2737 847f f736
00000150: 1c1d 1a39 a37f fe36 33cd 7f37 cd9c b237
00000160: a65a 4338 5831 8737 b6fe 5937 c963 9337
00000170: 552c 0a36 5f62 7737 5bfb 9a36 8385 4237
00000180: b2ba 3338 5e41 9f37 e966 8e37 4c79 8237
00000190: f387 4336 a174 2b36 01f3 a637 957d f236
000001a0: 532b 3a37 3aaf c637 5872 c337 53a1 2438
000001b0: 8b9f 6938 4ce8 0537 9a97 3937 fb44 9a37
000001c0: 7548 bd36 9371 1838 4da6 d037 ed92 5937
000001d0: 5b53 8b37 3f2f 1d37 5227 5f37 841a a636
000001e0: fde9 e436 0bbb c535 2af9 9035 bcb9 6235
000001f0: e448 ba35 16aa cb35 aff1 9136 1aab 9734
00000200: e548 4435 e110 2436 8713 bd35 64bc eb35
00000210: 0713 6737 2c0e 8c35 57ee 8a35 2a2e 0936
00000220: 3051 3636 1b0f 4935 7788 6d36 3abc bf35
00000230: d412 4d35 5c83 0a36 90f7 b735 7743 4335
00000240: c3ad 4f37 5ffd cf35 771b 6b35 b646 2b35
00000250: 4c51 5035 e68d c736 4d50 8e35 0f32 8635
00000260: 22e8 c035 0658 a035 a880 8c35 149c 1636
00000270: 00ad 4a37 02e8 6235 88e1 9835 9e77 3636
00000280: 45fc 9936 d1f9 9135 0566 8735 1592 e235
00000290: f265 7235 86f2 5935 9817 0335 5090 d935
000002a0: a897 4337 3fe9 a935 2a09 9d35 472d c236
000002b0: bba5 dd35 2a16 8e35 02db 3535 73f3 c634
000002c0: fbad 8435 c030 ca35 c9b5 0d36 85db e834
000002d0: ca90 f336 8555 7535 d5b2 2f35 cea7 2336
000002e0: 74b0 b535 742c 8436 d0bc 0535 89b6 d035
000002f0: a8ad f735 a70a 4935 d7a5 e035 87c9 4c35
00000300: 9059 0037 6a96 7035 dffa 6135 7c05 7336
00000310: 4cd3 4b34 17eb a436 de46 2135 7d42 0f35
00000320: 053c d535 a1ea 8535 3e6b 7f35 3de6 5f35
00000330: c901 1a37 3738 4b35 e196 9b35 d837 1636
00000340: fb9b a336 66cc aa35 3a6f cc35 6fd0 a935
00000350: bf5f 1a35 fc1d 1b35 38e9 1d35 a976 6a35
00000360: 7d9d af36 121c 1e36 92a5 7a35 2c55 3635
00000370: e896 1235 81ce 6834 b3f4 ba35 8443 3435
00000380: affe 1635 4356 0736 eac6 4f36 f7b7 9736
00000390: 8d06 c736 69e1 7135 1c42 1135 00a7 7335
000003a0: 3f98 d034 03c2 8c36 30a9 0436 d64f df35
000003b0: 9918 d635 27a6 7a35 ac42 b735 2628 3535
000003c0: b7f9 9f38 531c 3037 bab3 8837 7d69 6a36
000003d0: 0e1b 8036 8d49 a337 86df 4c37 ac77 8636
000003e0: 7dd9 e337 f85a 9c37 800b ba37 8be5 0337
000003f0: ab53 c538 7940 4437 23e3 2c37 967a bf37
9.5700474e-05 1.2061922e-05 1.5203651e-05 4.719629e-06 1.9543177e-05 4.3315093e-05 1.2924294e-05 2.5804322e-06
1.4947472e-05 4.1379088e-05 9.849477e-06 1.2197195e-05 0.0001393226 1.10463925e-05 1.0394835e-05 1.8546167e-05
2.1686561e-05 3.6972197e-05 1.005972e-05 3.7190242e-05 2.714421e-06 2.3130631e-05 6.781186e-06 1.1435468e-05
0.00013043452 2.0626716e-05 8.77856e-06 5.4194593e-06 2.2014783e-05 6.0685452e-05 4.495061e-06 7.93838e-06
1.0793449e-05 1.6193462e-05 9.284841e-06 3.0613213e-05 0.00014787952 8.418947e-06 1.6114136e-05 1.6252932e-05
3.709222e-05 2.6268042e-05 1.16235615e-05 1.2973335e-05 1.782756e-05 1.6506776e-05 7.831363e-06 1.0199803e-05
8.9628185e-05 1.44088635e-05 1.8845489e-05 5.6145152e-05 1.6152395e-05 1.1204744e-05 1.8278144e-05 3.5068053e-06
1.0702561e-05 1.3871356e-05 2.3130615e-05 5.431185e-06 0.00012469472 1.0913369e-05 7.731901e-06 2.4810843e-05
1.372066e-05 1.0065296e-05 9.8763685e-06 4.8694787e-05 1.05372455e-05 2.6481634e-05 1.03664015e-05 7.102521e-06
8.6418906e-05 8.6902255e-06 8.673624e-06 3.5910125e-05 3.6134734e-06 5.2382195e-05 3.747363e-06 1.4989481e-05
2.4954023e-05 9.007152e-06 1.0010021e-05 7.3760184e-06 0.00014697429 7.5846488e-06 1.5246961e-05 2.129227e-05
4.6576046e-05 1.6116232e-05 1.2993512e-05 1.7570232e-05 2.0589407e-06 1.4745251e-05 4.6188193e-06 1.1594387e-05
4.28508e-05 1.8984716e-05 1.697564e-05 1.555369e-05 2.9136397e-06 2.5548873e-06 1.99019e-05 7.2267817e-06
1.1096551e-05 2.3685036e-05 2.3299057e-05 3.9250892e-05 5.5700115e-05 7.981504e-06 1.1062157e-05 1.8390352e-05
5.641074e-06 3.63454e-05 2.4872972e-05 1.2968417e-05 1.6608907e-05 9.36893e-06 1.3300991e-05 4.9502723e-06
6.8221693e-06 1.473208e-06 1.0801352e-06 8.446184e-07 1.3879294e-06 1.517418e-06 4.3494724e-06 2.8250435e-07
7.3121765e-07 2.444773e-06 1.408728e-06 1.7563693e-06 1.3773103e-05 1.0434937e-06 1.0351167e-06 2.0441462e-06
2.716737e-06 7.4900316e-07 3.5395185e-06 1.428539e-06 7.639585e-07 2.0640064e-06 1.3706613e-06 7.2741335e-07
1.23786185e-05 1.5496443e-06 8.758429e-07 6.380536e-07 7.760434e-07 5.9471813e-06 1.0603195e-06 9.998347e-07
1.4372674e-06 1.1946547e-06 1.0468257e-06 2.2442591e-06 1.2080418e-05 8.4529177e-07 1.1390521e-06 2.718974e-06
4.5891234e-06 1.0876048e-06 1.0087975e-06 1.6880828e-06 9.0300375e-07 8.119172e-07 4.8835636e-07 1.620976e-06
1.1658216e-05 1.2659365e-06 1.1700079e-06 5.7869215e-06 1.6514017e-06 1.0586275e-06 6.774645e-07 3.7057507e-07
9.885401e-07 1.5064361e-06 2.111645e-06 4.337309e-07 7.25882e-06 9.139406e-07 6.5452815e-07 2.4386568e-06
1.3536905e-06 3.9390816e-06 4.982112e-07 1.5550332e-06 1.8453475e-06 7.4893836e-07 1.6737566e-06 7.6289183e-07
7.650247e-06 8.962585e-07 8.41841e-07 3.6213014e-06 1.8982718e-07 4.914949e-06 6.00803e-07 5.3368404e-07
1.5887205e-06 9.977558e-07 9.515096e-07 8.3409014e-07 9.179531e-06 7.5705196e-07 1.1592311e-06 2.2384247e-06
4.875937e-06 1.2725475e-06 1.5231556e-06 1.2652143e-06 5.75088e-07 5.778563e-07 5.8826436e-07 8.7344466e-07
5.2337405e-06 2.3560174e-06 9.3373194e-07 6.7924225e-07 5.4608836e-07 2.168181e-07 1.3929297e-06 6.7153474e-07
5.624997e-07 2.0166779e-06 3.0961187e-06 4.521567e-06 5.9314248e-06 9.010751e-07 5.411291e-07 9.076757e-07
3.8853793e-07 4.194911e-06 1.9768013e-06 1.663803e-06 1.5951401e-06 9.337404e-07 1.3653967e-06 6.748618e-07
7.628224e-05 1.0497012e-05 1.6296155e-05 3.493012e-06 3.817847e-06 1.9465364e-05 1.2211391e-05 4.007443e-06
2.7161785e-05 1.863901e-05 2.2178283e-05 7.861653e-06 9.4092764e-05 1.1697522e-05 1.0304883e-05 2.2826058e-05

exp_avg f4 [128]
00000000: 1b67 763b 3ab6 083a b86d 70bb 21e5 1aba
00000010: 808f e8ba 40d3 60ba 7ecb 063b 3697 db39
00000020: f649 fe3a 8607 903b 50e7 84b9 5583 dc3a
00000030: ae10 9dba 84c1 fd3a a186 24bc 2f88 813a
00000040: adf6 b13a 294a c339 2699 883a c90b 10bb
00000050: 1bd9 9a3b 58bf a4b8 8887 103b 6c08 f03a
00000060: 28ad 383a fd2e 7c39 a35b 4c3b 5626 1c3b
00000070: 3ac8 e7ba bfd8 84ba 69f5 653b f155 3cb9
00000080: 8448 92ba 7c3b 50b9 888c 3a39 3ed6 023b
00000090: 66dc 91ba 99a6 8cbb 6051 afb9 f1b9 543b
000000a0: c13d 6e3a d24b 523b c3c5 053b 389d ac37
000000b0: 1bad 153a 8008 bd39 5ae5 ccba d9aa 813a
000000c0: ffd2 b0ba 9271 5db9 ac59 2cb9 e495 2fbb
000000d0: e5d5 9dba d078 bdb9 3f2f 49ba 7a66 94ba
000000e0: 2713 9b39 4ee9 a5ba 5e65 013b c8c9 4fbc
000000f0: 7a38 7b3b 9cfe d7ba 71aa 59ba b437 c7ba
00000100: 25d6 ae3b cb8b c3bb b639 253a 598e dfba
00000110: 6b5a f9ba 3368 7ebb 8020 1737 d549 e3ba
00000120: d123 22ba 561e 1a3b 4a0d 6db8 6e70 823a
00000130: 7221 373a e172 03bb 28d2 2f3b d4d5 823b
00000140: 9ea8 0a39 c4c3 c83a 5adc b93a cf08 713b
00000150: 14d5 dcb9 7254 5a3a 3c9a 1b3b b027 3eba
00000160: 102f 61ba 0aa7 6bba 8887 333a a135 4c3a
00000170: a076 28b8 3571 ac3b 3299 b53a f17b ab3a
00000180: da1b a23b 74f5 f8ba 7c06 d838 6180 8e3b
00000190: 1a54 32b9 97d5 233b f5f5 3a3a 97c2 e6bb
000001a0: 766e af3b e09f 9a3a 1f0f dcb9 f20b b3bb
000001b0: af5f 863b 5540 193b 920f 063b 5ff0 95bb
000001c0: 7096 b8bb 5809 1d39 b2f8 a639 4385 c93b
000001d0: 48cf 463b 6cc2 84bb 151f 073a 6582 e13a
000001e0: 3bf4 02ba f9c1 c9ba bb05 853a eef6 c039
000001f0: 6713 603b e5e5 52ba 1ceb 953a a506 bc3a
0.0037598077 0.0005215142 -0.0036686491 -0.00059087767 -0.0017742962 -0.00085764006 0.0020568068 0.00041883596
0.0019400704 0.004395428 -0.00025349343 0.0016823808 -0.001198312 0.001936004 -0.010041864 0.0009882505
0.0013577543 0.00037248552 0.0010421618 -0.002197968 0.004725588 -7.85577e-05 0.002205344 0.0018313057
0.0007044845 0.00024050097 0.003118255 0.002382656 -0.0017683574 -0.0010135396 0.0035088903 -0.00017961093
-0.0011160527 -0.00019858585 0.00017790694 0.0019964124 -0.0011128306 -0.004292321 -0.0003343923 0.0032459463
0.00090881815 0.003208865 0.0020412065 2.0577208e-05 0.00057096937 0.00036055222 -0.0015632317 0.0009892836
-0.0013490616 -0.0002111851 -0.00016436604 -0.0026792223 -0.0012041895 -0.00036138901 -0.0007674582 -0.0011322044
0.00029578173 -0.0012658031 0.0019744257 -0.012682386 0.0038333223 -0.0016479078 -0.0008303291 -0.0015199096
0.0053355866 -0.0059675924 0.000630285 -0.0017055973 -0.0019024139 -0.0038819432 9.007868e-06 -0.0017340729
-0.00061851466 0.0023516617 -5.651758e-05 0.000995172 0.000698588 -0.0020057487 0.0026828144 0.0039927755
0.0001322352 0.0015317132 0.001418005 0.0036778932 -0.00042120425 0.00083286234 0.0023743054 -0.00072538387
-0.00085900817 -0.00089894293 0.0006848504 0.0007789974 -4.01648e-05 0.005262519 0.001385486 0.0013083202
0.004947168 -0.0018994049 0.000103008904 0.0043488 -0.00017006733 0.0024999136 0.00071319874 -0.00704224
0.005353744 0.0011796914 -0.00041972936 -0.0054640705 0.004100762 0.0023384292 0.0020456058 -0.0045757736
-0.005633168 0.00014976168 0.0003184728 0.0061499192 0.0030335952 -0.004051497 0.0005154473 0.0017204998
-0.00049954996 -0.0015392891 0.0010148803 0.0003680507 0.0034191252 -0.0008045121 0.0011437866 0.0014345242
