scheduler/BaGTI/checkpoints/simulator/energy_latency2_10_Trained.ckpt (torch_old, 532913 bytes, 24 tensors)

find.0.weight f4 [128, 140]
000000 9a a5 e7 bd 07 5c d7 3c 48 96 cb bd 38 cf 85 bd
       -0.11310883 0.026289 -0.09940773 -0.065336645
000010 87 d9 bd 3c 3c 25 7d be 08 64 70 3d 6f bc 7f be
       0.023175014 -0.24721235 0.058689147 -0.24974225
000020 29 f0 1a be 7a 5c a2 b9 08 09 7d 3e 96 75 dc bd
       -0.15130676 -0.00030967948 0.24710476 -0.10764615
000030 2e d2 21 bd 92 4e bb bd fb c6 18 3c 83 51 97 bc
       -0.039507084 -0.091458455 0.009324784 -0.018471485
000040 2a 37 92 be 6c 57 5f 3e 82 ed a9 3d bc b3 29 3c
       -0.28557712 0.21810693 0.08297254 0.010357793
000050 b0 3b c2 3b d6 1d 68 bd 70 dd 1a 3e f4 4c 3d be
       0.0059275255 -0.05666908 0.15123534 -0.18486387
000060 2a a3 3e be 77 63 59 bd 3a b9 97 bd 0f 6a 4d bd
       -0.1861693 -0.053073373 -0.07408376 -0.050149973
000070 d1 58 9d bc 13 01 e5 bd 0c 56 d2 bc cb 43 05 be
       -0.01920739 -0.111818455 -0.025675796 -0.13014142
000080 08 82 d2 be 7f 51 9d bc 87 9f 4a 3b e4 8f 58 3e
       -0.4111483 -0.0192039 0.003091784 0.2114864
000090 60 3a 58 3d f4 8c 34 be 98 b0 ae be d3 6e be 3d
       0.052790046 -0.17631894 -0.34119105 0.09298482
0000a0 4c 09 bf bd 82 05 b5 bd 1d 74 b8 bb 2a 81 da 3d
       -0.09327945 -0.08838941 -0.005629076 0.10669167
0000b0 be 5a 9b 3e f1 a7 0a 3e 2f 8b 37 bf a5 2b cb be
       0.30342668 0.13540627 -0.7169675 -0.39681736
0000c0 d2 f9 92 be 64 53 08 3e 11 92 8c 3e 64 2f 34 3e
       -0.28706223 0.13313061 0.2745519 0.17596203
0000d0 d9 85 61 3d 46 ab 4b bd 98 7f 11 bd 19 dc 67 bd
       0.055059288 -0.049723886 -0.035522074 -0.056606386
0000e0 42 83 bb be 3d d3 e7 bd bb 49 c7 3e 19 2b 4e be
       -0.3662358 -0.113195874 0.3892344 -0.20133628
0000f0 55 03 e5 3d 20 21 25 3e 44 48 87 be 31 86 4e 3d
       0.11182276 0.16125917 -0.26422322 0.050420944
000100 15 fa b2 3e a5 8c 93 3e 2d cc 92 be 62 32 63 be
       0.34956422 0.2881824 -0.286714 -0.22187188
000110 99 af 99 bc ee 12 7f bd e7 51 62 3e d1 a1 77 3e
       -0.01876049 -0.062273912 0.22101556 0.24182822
000120 cd 17 06 3d d4 79 11 3e 4b 18 7d be 99 0a 30 be
       0.032737542 0.1420663 -0.24716298 -0.17191543
000130 f6 a0 e7 be b9 c8 b5 3e ee 94 80 3b c0 0b 30 be
       -0.4523999 0.35504702 0.003924004 -0.17191982
000140 69 93 c6 3e 8f 1c c3 3d 20 07 08 bb f7 cb d9 bc
       0.3878434 0.095269315 -0.00207562 -0.026586516
000150 71 01 34 3e e1 81 42 be 6d 76 e6 bc 0c 58 05 3d
       0.17578675 -0.18994857 -0.028132642 0.03255467
000160 50 0f 2c 3e 01 68 16 3e 8d d0 a2 be db 4f 35 3d
       0.16802716 0.14688112 -0.31799737 0.04426561
000170 e6 b4 2a be cf f4 36 3e 2e 8e 40 3e 53 db 86 be
       -0.1667057 0.17866825 0.18804237 -0.26339206
000180 db 68 8d bd 7a 59 41 bc f9 60 41 3e bf 10 ae bd
       -0.06904765 -0.011801118 0.18884648 -0.08499288
000190 60 25 71 3d f2 43 71 3e ae db 23 3f f7 28 fd 3d
       0.058873534 0.23561075 0.6400708 0.12361329
0001a0 90 c0 8d be c5 ad b4 bb a4 e5 c6 be af a3 dd 3d
       -0.27685976 -0.005513879 -0.38847077 0.10822236
0001b0 a7 31 59 bc 2a d2 2e 3d 86 a4 1e bd 74 ee e0 bb
       -0.013256467 0.042680897 -0.03873112 -0.0068643633
0001c0 a8 11 3a 3b b8 63 f5 bd 3b de 91 3e 20 00 78 be
       0.0028391872 -0.119819105 0.2848986 -0.24218798
0001d0 d5 9f 74 3d 3e c0 09 3e 73 4e bf bd b2 55 06 3e
       0.05972274 0.13452241 -0.09341135 0.13118628
0001e0 03 b6 36 3e 4f 44 47 3d 32 f1 2b be 67 2b 84 3e
       0.1784287 0.04864913 -0.16791227 0.25814363
0001f0 50 ed 66 bd de de 84 bd 57 18 8f bb 3f e5 6f 3d
       -0.056378663 -0.06487821 -0.004366915 0.058568235
000200 23 ef 27 3e ef ac ac be 7e 65 81 3e c0 5a 1c 3e
       0.16399817 -0.33725688 0.25272745 0.15268993
000210 cc 47 97 3d 9e b9 1b be 48 34 b8 bd 0c a3 21 be
       0.07386741 -0.15207526 -0.08994347 -0.15784854
000220 14 22 a1 3d 9e 8e b2 3e b2 a3 2b bd 9e b1 a6 bd
       0.07867828 0.34874433 -0.04190416 -0.081393465
000230 1f 88 dc bc 31 51 9e 3c 97 64 46 3e cb d5 8d bd
       -0.026920376 0.019325824 0.1937431 -0.069255434
000240 d6 b1 34 be 7d 4f 30 bd c9 e7 02 bf 21 31 ac 3d
       -0.17645964 -0.043044556 -0.51134926 0.08407808
000250 0f 09 81 be c8 9d 57 bd 78 73 18 3e 7c fd 9b bd
       -0.25202224 -0.052640706 0.14887798 -0.07616708
000260 93 2a c8 bd e8 6e cf bd 35 e5 96 3e 34 8d 53 bd
       -0.097737454 -0.101285756 0.29471746 -0.051648334
000270 38 d7 64 bc b6 b3 94 be 04 92 89 3d 5b 5e 6d bd
       -0.013967328 -0.2904336 0.067173034 -0.057951313
000280 1e 9e 4e 3e c8 31 3d be 97 b3 f3 bd 45 b2 c5 3d
       0.20177504 -0.18476021 -0.118994884 0.09653143
000290 1f e0 7e be 72 37 0d 3e f6 2b dd bd 41 9c ed bd
       -0.24890183 0.13790682 -0.107994005 -0.11602069
0002a0 92 cd 37 3e 3d 6a 05 be 7c 6a 31 3d 70 df fd bd
       0.17949513 -0.13028808 0.043314442 -0.12396133
0002b0 d3 7c ff bd 86 29 98 bd 39 d3 1e be 84 ad a6 3d
       -0.1247498 -0.07429795 -0.15510263 0.08138564
0002c0 28 d0 a5 be 63 f2 1e 3d 6c 37 9a be da f5 d8 bc
       -0.32385373 0.038805377 -0.3012041 -0.026484419
0002d0 16 b3 df bd 8f b3 d6 bd ff 2e e5 3d ed 16 84 bc
       -0.1092283 -0.10483467 0.111906044 -0.016124213
0002e0 f8 35 17 be b3 e0 0c 3e bc 45 f7 3d 31 8d 43 be
       -0.14766681 0.13757591 0.12073848 -0.19096829
0002f0 72 ec 83 be 18 94 00 3e 31 dd 67 3c e6 f1 07 be
       -0.2576633 0.12556493 0.014151857 -0.1327587
000300 66 f5 39 3e 0a 5c 0f be 17 79 03 bd f3 1c 9f bd
       0.18160018 -0.13999954 -0.032097902 -0.077691935
000310 47 d3 1d be 72 b6 08 be e7 e5 c3 3d 7b a2 4c be
       -0.15412627 -0.13350847 0.09565335 -0.19983856
000320 dd 67 5b 3e 6d d0 3a 3e 09 e5 7f bd 25 24 d1 bd
       0.2142634 0.1824357 -0.062474284 -0.10211972
000330 2f 01 9d 3e 55 2f d7 bd f7 84 24 bd 9e 86 2f 3d
       0.30664966 -0.10507075 -0.040165868 0.04285299
000340 a4 36 cd bd 81 a3 08 be ea 61 c8 3e 0e 42 0f bd
       -0.100201875 -0.13343622 0.39137203 -0.034975104
000350 28 33 fe bd 1d a2 4a 3e 2e aa 4a be 54 ea 95 be
       -0.12412101 0.19788404 -0.19791481 -0.2928034
000360 fe 69 cd 3d d0 df 57 3e b7 e2 69 3e 3f 66 ab bd
       0.10029982 0.21081471 0.22840391 -0.08369111
000370 e8 2d bc be b4 ce 5a 3e 2f 21 06 be 59 52 97 bd
       -0.36753774 0.21367913 -0.13098596 -0.073887534
000380 db 04 8f bc b0 09 e7 3d a5 85 9f bd d0 93 94 3e
       -0.01745837 0.112811446 -0.077891625 0.29019022
000390 a7 dc 72 3d 9c af a3 bc 3a 25 62 be c9 de 1e be
       0.05929246 -0.019981198 -0.22084513 -0.15514673
0003a0 66 5b a9 bc 32 0b 22 be 44 41 1b 3e 84 e7 55 bd
       -0.020673465 -0.15824583 0.15161616 -0.052222744
0003b0 93 f3 02 be 65 c9 be bd 9c e9 96 bd b3 7f ed 3d
       -0.12788229 -0.09315757 -0.07368776 0.11596622
0003c0 11 17 d6 bd a4 d1 f4 bd 74 46 b7 3e ea e3 01 3e
       -0.10453618 -0.11954048 0.3579594 0.12684599
0003d0 48 f2 2f be a4 42 0a 3f 3e fd 00 3d d2 60 e0 bd
       -0.17182267 0.54007936 0.03149151 -0.10955967
0003e0 8a 88 8e 38 b8 a8 66 be 46 f8 5a bd f7 78 e2 bd
       6.79652e-05 -0.22525299 -0.05345943 -0.110582285
0003f0 a6 e0 93 bc 87 5f 91 bd 81 b9 59 3d 9d 8f b0 3e
       -0.018051457 -0.070982985 0.053155426 0.34484568

find.0.bias f4 [128]
000000 ef 37 91 bd 35 f7 28 bd 6e 35 03 be d9 e4 be 3d
       -0.070907466 -0.04125138 -0.1281335 0.09320993
000010 ce 60 c3 3d b1 6b 8c bd ae 0b 0f be 26 07 91 bd
       0.095399484 -0.06856478 -0.13969299 -0.070814416
000020 68 29 be 3d 34 29 bb bd f8 47 c3 bd 27 ca 5e 3d
       0.09285241 -0.09138718 -0.09535211 0.054392006
000030 40 4c 11 3d e3 64 14 be 85 9e 14 be 23 b3 06 3d
       0.03547311 -0.1449161 -0.14513595 0.03288568
000040 1a 52 ac bd 86 36 17 3c 07 82 33 bd 75 87 15 be
       -0.08414097 0.009229308 -0.043825176 -0.14602454
000050 21 a2 35 bd b3 dc 68 bd b9 61 c3 3c 36 7d b7 3c
       -0.04434407 -0.0568511 0.023850309 0.022398572
000060 34 21 cc bd 30 66 10 3c d4 80 a7 bd 85 a6 44 bd
       -0.099672705 0.008813426 -0.08178869 -0.048010368
000070 00 ed 88 bd 65 77 8a bd 69 ce ed bd da 0c db bd
       -0.06685829 -0.06761054 -0.11611635 -0.106958106
000080 12 87 fc 3d e9 ad c4 bb 09 51 22 3d eb 3d 4e 3d
       0.1233045 -0.006002177 0.039628062 0.05035202
000090 41 43 a3 bd 94 b5 9e 3b f7 a0 03 bd d7 93 e9 bd
       -0.07971812 0.004843423 -0.03213593 -0.11405151
0000a0 5d ce 20 be 64 5d 6c 3d 07 cc 18 bd a4 74 8e 3d
       -0.15703721 0.05770625 -0.03730395 0.06955841
0000b0 00 40 64 bd db 03 1b be 13 2b 11 be 27 91 27 be
       -0.055725098 -0.1513819 -0.14176588 -0.16363965
0000c0 95 09 bc bc d1 ae f6 bc 87 6e b3 3c c8 ce dd bc
       -0.022953788 -0.030112656 0.02190329 -0.02707614
0000d0 83 3d fc 3c c0 29 89 bd c0 b1 4d 3d 94 28 3d be
       0.03079105 -0.06697416 0.050218344 -0.1847251
0000e0 e5 06 11 be 05 2d e8 bd 92 f1 5d bd 11 09 c5 3d
       -0.14162786 -0.11336712 -0.054185458 0.0962087
0000f0 27 7f 06 be 56 57 b5 bd cb 67 ea 3c e8 67 40 bc
       -0.13134442 -0.08854549 0.028613945 -0.011743523
000100 93 8a ac bd b3 15 c7 bd 97 d0 f4 bd 0a f2 e8 bd
       -0.084248684 -0.09720936 -0.11953848 -0.1137429
000110 ad de 0e bb 4c 30 f6 bd 4a 7e 25 be 7a 72 0c be
       -0.0021800206 -0.12020931 -0.16161457 -0.13715544
000120 86 01 1a be 97 36 80 bc 70 d6 9d 3d b5 c6 27 be
       -0.15039644 -0.01565103 0.07706916 -0.16384394
000130 92 86 22 be d0 20 97 bc 12 3d 25 be 9b 76 a7 bd
       -0.15871647 -0.018448263 -0.16136578 -0.08176919
000140 a3 65 20 3b c7 2a 44 be 9d 66 0f be c6 cf e2 bd
       0.0024474643 -0.19156943 -0.14003988 -0.11074786
000150 87 88 4d bd 68 d0 ff bd b6 26 12 bd 6e 12 77 bd
       -0.05017903 -0.12490922 -0.03568145 -0.06032031
000160 df 52 28 be 0e b0 84 3c e3 57 aa bd ac 08 e6 bc
       -0.16437863 0.01619723 -0.08317544 -0.028080307
000170 a3 1c 60 bd 76 f0 e0 bd a7 33 7e bd 47 36 d0 bc
       -0.05471481 -0.10983364 -0.06206098 -0.025416506
000180 ec 86 9d bc 8c be b5 bd e7 ef c3 3c f6 89 c2 3c
       -0.019229375 -0.088742346 0.023918105 0.023747426
000190 1c e8 05 be 6c 6a d6 bd 4b b0 1e be 64 ff e7 3d
       -0.13076824 -0.10469517 -0.15496938 0.11328009
0001a0 50 cb 0f 3c b9 69 1f be 6e 60 fc bd 2a c6 89 bc
       0.008776501 -0.15567674 -0.1232308 -0.016818125
0001b0 b7 cd 0e bd ef e3 14 be 14 fa b7 bd 56 27 8e 3d
       -0.034864154 -0.14540075 -0.089832455 0.069410965
0001c0 1e e2 4d bd d1 af d6 3c 83 09 f1 bd ae 90 bf bd
       -0.05026447 0.026206883 -0.11769392 -0.09353767
0001d0 98 51 01 bd 75 77 9d bd 45 57 00 bd a6 c7 29 3d
       -0.031571954 -0.076888 -0.031333227 0.041450165
0001e0 ac 71 1e be 8e f4 82 3a 41 82 1c bd 2e 78 7e bd
       -0.1547305 0.0009991096 -0.038210157 -0.06212633
0001f0 ef ff 9a 3d 0c 46 26 be 18 10 03 3a 23 9b 9f 3d
       0.07568347 -0.16237658 0.00049996516 0.07793262

find.2.weight f4 [128, 128]
000000 30 5c 3a be f5 f9 2c 3c 05 a3 c6 bc 1a f1 87 3d
       -0.18199229 0.010557641 -0.024247656 0.06637783
000010 1c 27 e9 bd 4b 92 96 3d 42 52 cd 3d a8 4d 43 be
       -0.11384413 0.07352122 0.10025455 -0.19072592
000020 0c ec 30 3c bc 77 b9 bd a1 ca 82 3e e8 59 b6 bc
       0.010798465 -0.09056041 0.2554522 -0.022259668
000030 88 78 a8 3d 49 fb d4 bc 1b df 94 bc f3 33 55 3e
       0.082261145 -0.025998728 -0.018172791 0.20820598
000040 06 48 66 bc e9 5c 96 bd 9b 43 4d 3e e7 de 09 3e
       -0.014055258 -0.0734194 0.2004532 0.13463937
000050 a3 eb 8d bd e3 21 b1 3d 5f dc da bd e8 1b 84 be
       -0.0692971 0.086490415 -0.10686564 -0.2580254
000060 5f 28 f9 bd a7 ff 9b 3c 8c ab c8 bd 83 c1 49 be
       -0.12165903 0.019042803 -0.09798345 -0.19702725
000070 58 cd d9 bd 5a 41 3d be 57 ae b4 3b 7c ce 37 3e
       -0.10634869 -0.18481961 0.005513947 0.17949861
000080 17 2e d1 bd f2 7b 13 be 49 7a 44 be 6c 16 15 3e
       -0.10213869 -0.1440275 -0.19187273 0.14559335
000090 41 bd 15 be 40 bf 69 be 18 39 ce bd 48 e0 b7 3d
       -0.14622976 -0.22826862 -0.100694835 0.08978325
0000a0 ea 43 a8 3d 03 8e 10 bd d3 d8 c5 bd 89 06 09 be
       0.082160786 -0.035291683 -0.096604966 -0.13381399
0000b0 99 73 5b 3e 28 ba 69 bc 89 06 10 be f2 f6 15 bc
       0.21430816 -0.0142655745 -0.14064993 -0.009153115
0000c0 61 9d 6d bc b4 98 de bd 77 56 91 bd 7b b9 5b bd
       -0.014502854 -0.108689696 -0.0709657 -0.053643685
0000d0 64 35 d4 3d cf 05 cc 3d 7f 96 bd 3d 7a 97 0c 3c
       0.10361746 0.099620454 0.092572205 0.008581037
0000e0 1b 1b 1a bd a7 bb c7 3d be 9e af bd 07 3d 40 3d
       -0.037623506 0.09752589 -0.085751995 0.0469332
0000f0 a0 2a 1b bc 71 d3 38 3e ce 20 8f 3d 21 9c 73 bd
       -0.009470612 0.18049408 0.06988679 -0.059475068
000100 50 e3 2e bd dc 62 18 bd 9c 12 d2 bc b1 0a 71 bd
       -0.04269725 -0.037203655 -0.02564364 -0.058848087
000110 3c 12 5b be 3f aa 0f 3e 0c b5 21 bc 14 42 9d 3c
       -0.21393675 0.14029787 -0.009869825 0.019196548
000120 b7 50 2c 3b c2 df 2f 3e 05 9f 88 be 60 c6 5c bb
       0.0026293227 0.171752 -0.26683822 -0.0033687577
000130 34 13 cc bc 3e 6e 66 bd d7 ad 64 3a 83 39 9f bd
       -0.0249115 -0.05625748 0.0008723414 -0.07774641
000140 aa 40 8f 3c 04 51 9b 3d dc 2c 06 bd 1c d2 3a 3e
       0.017486889 0.07583812 -0.032757625 0.18244213
000150 f1 c2 33 be 29 b2 71 3e 0c f8 36 be 15 32 36 3e
       -0.17554833 0.23603119 -0.1786806 0.17792542
000160 11 03 fa bb 8e ad 58 bb 70 39 3e bd 19 95 48 be
       -0.00762976 -0.003306243 -0.046441495 -0.19588126
000170 e0 e0 0b be 45 88 b1 3c 8f 6c 50 3e e3 c4 45 be
       -0.13660002 0.021671424 0.20353912 -0.19313388
000180 7e 73 62 be bf e0 58 bd d3 7b 33 bd 73 e4 63 be
       -0.2211437 -0.05294871 -0.04381926 -0.22255115
000190 3a ae 99 3c 70 dc 8c bd a8 86 aa 3c f1 6b 92 3c
       0.018759836 -0.068779826 0.020816162 0.017873736
0001a0 14 64 88 3d 46 03 bf bc 8d bc 75 3d 8e 68 70 be
       0.066597134 -0.02331699 0.05999427 -0.23477384
0001b0 bd 9e ce 3d 0f 83 04 3d fe 98 13 be 5d d3 80 bc
       0.10088871 0.03235155 -0.1441383 -0.015725786
0001c0 4f be 3e be 90 96 59 be 0e 1d 5d 3d 0c c1 8f 3d
       -0.18627284 -0.21248841 0.053982787 0.07019243
0001d0 b5 26 e4 bd 87 8d 0c 3c f2 46 05 be 5d 08 bf bd
       -0.11140195 0.008578665 -0.13015345 -0.09327767
0001e0 11 d7 1b bb c7 95 82 be 22 dd 49 3e 8f 68 8d be
       -0.0023779313 -0.25504896 0.19713262 -0.27618834
0001f0 ba b0 28 3e ff 9c 47 3d 7b 6f 04 3e 73 98 46 3e
       0.16473666 0.048733708 0.12933151 0.19394092
000200 37 cb e4 bc 80 a4 66 bb 70 33 72 bc 13 79 68 bd
       -0.027928932 -0.0035193264 -0.0147827715 -0.05675609
000210 29 59 9e bd b5 8a 77 bd 4f 3c 34 bd 4e 04 b2 bc
       -0.0773185 -0.060435016 -0.044002827 -0.021730568
000220 d0 06 c3 bb 10 23 15 bd 70 60 23 bd a7 6e 1d bd
       -0.00595174 -0.03641039 -0.03988689 -0.038435604
000230 73 f7 1b bd 01 5f 04 bd cd 72 b4 bb f7 2e 52 bb
       -0.038077783 -0.032317165 -0.0055068494 -0.003207145
000240 ca 64 0b bd f3 07 86 bc 34 ca 5f bd 18 21 82 bd
       -0.034031667 -0.016361212 -0.054636195 -0.063539684
000250 8a 57 51 bd f7 ef 1a bd 27 74 58 bc 36 7a 1d bd
       -0.051108874 -0.037826505 -0.013211287 -0.038446628
000260 7a de ea bc ab 9d 90 bc 71 1d 16 bd 94 4c da bc
       -0.028670538 -0.017653307 -0.03664917 -0.026647843
000270 49 57 16 bc d5 dd 9c bc 04 3e e8 bc da 47 62 bd
       -0.009176084 -0.019148747 -0.028349884 -0.055244304
000280 17 be 91 bd 7e 6b 11 bd 1a 84 ba bc 09 c1 f8 bc
       -0.07116335 -0.035502903 -0.022768069 -0.030365484
000290 a1 c5 c3 bc a7 75 5a bc 54 f0 1c bd bd ae 93 bd
       -0.023897948 -0.013333715 -0.038315132 -0.07211063
0002a0 8a 50 d2 bc a1 68 21 bc 90 4c 8a bc 05 ea ca bc
       -0.02567317 -0.009851606 -0.016882211 -0.024769792
0002b0 43 a0 f5 bb 67 c5 9f bb 70 84 d1 bc 47 da a2 bb
       -0.0074959113 -0.004875827 -0.025575846 -0.0049698683
0002c0 7d 7d 8f bc f2 7b 00 bd 8a ad 41 3c be 8e ec bc
       -0.017515892 -0.031368203 0.01182116 -0.028876659
0002d0 1e 9d 42 bc 18 ee 80 bd 13 d0 68 bd 82 93 a1 bc
       -0.01187828 -0.06295413 -0.05683906 -0.019723658
0002e0 29 c3 d2 bb 5f 05 b2 bc 3a 5b 32 3c 2e 1c 06 bb
       -0.0064319563 -0.021731077 0.010886008 -0.0020463574
0002f0 d3 ac 38 bd d0 79 c1 bd cd ec d5 bc 67 a2 9f bc
       -0.045086693 -0.09447062 -0.026113892 -0.01948662
000300 99 b5 2e bd f3 98 f8 bb d3 a9 e0 bb 7f 82 02 bc
       -0.042653654 -0.0075865923 -0.006856182 -0.007965683
000310 33 a8 e1 bc d6 fc 3e bc 17 3b 9c bb 16 b7 15 bd
       -0.027546024 -0.0116569605 -0.0047677862 -0.036551557
000320 e2 78 a5 bb dc 1c c6 bd 15 5c 88 bc fe 6d 95 bb
       -0.0050498107 -0.09673473 -0.01664547 -0.004560231
000330 9a 7e c1 bb f7 56 6d bc dd 6e b8 bb e7 03 44 bd
       -0.0059049847 -0.014486066 -0.0056284503 -0.047855284
000340 04 6e a2 bb 15 f3 89 bc 51 d6 18 bc 07 9a 8d bd
       -0.0049569625 -0.016839543 -0.009328441 -0.06914144
000350 a2 7c 11 bd 76 1a a2 bc 68 71 fd bc 92 e1 02 bd
       -0.03551925 -0.019788008 -0.030937865 -0.031953402
000360 d4 dd b2 bb c6 2f da bb d6 b8 bb bc 87 00 12 bd
       -0.005458573 -0.006658527 -0.022915285 -0.035645034
000370 ef 80 cd bc e6 13 17 bd 8b be c5 bd 80 eb 7d bb
       -0.025085894 -0.03688421 -0.09655484 -0.0038745105
000380 ec d7 1f bd ed 93 19 bc 02 a7 0b bd d2 59 e5 bc
       -0.03902428 -0.009373647 -0.034094818 -0.027996931
000390 39 da 90 bc 47 87 c7 bb 86 9d 9d bc e7 5b fc bc
       -0.017682182 -0.0060891244 -0.019240152 -0.030805541
0003a0 5a a2 66 bc b6 bf b1 bb 2a ce 34 bc 7a 67 f4 bc
       -0.014076794 -0.005424465 -0.0110354815 -0.029834498
0003b0 e0 ba 3a bd ab 08 81 bc 92 80 d2 bc 3a 7a 10 bd
       -0.045588374 -0.015751204 -0.025696073 -0.035272814
0003c0 6c 11 74 bc bb fc a4 bc ec 4b 5f 3c c7 87 6a bd
       -0.014896732 -0.020140043 0.013628941 -0.057258394
0003d0 c0 10 16 bd 7e 37 d1 bc 64 86 df bc f6 bb 37 3d
       -0.036637068 -0.025539156 -0.027285762 0.044856988
0003e0 35 65 a9 bb 30 29 87 bc e7 82 ed bd 05 09 d4 bb
       -0.0051695355 -0.016499132 -0.11597233 -0.006470802
0003f0 e0 7a 07 bd e9 08 b2 bc 8f a7 12 bd 86 af 50 bc
       -0.033076167 -0.021732764 -0.035804328 -0.012737161

find.2.bias f4 [128]
000000 ce f2 30 3d 62 2d 43 bd c1 1d 12 bd d8 1e 1a bb
       0.043200307 -0.047650702 -0.035672907 -0.002351692
000010 ac a0 ca bc ec 82 2c bd b9 08 4e bd d5 74 50 bd
       -0.024734817 -0.042117044 -0.050301287 -0.05089267
000020 2e e5 19 bd 9e 0d 1a bd 03 4e cb 3c 73 55 41 bd
       -0.03757208 -0.037610643 0.024817472 -0.04720063
000030 2e 2f 39 bd c4 cf 39 bd 6d f7 39 bd d7 ae 48 bd
       -0.04521101 -0.045364156 -0.04540198 -0.048994865
000040 d5 f6 27 3d ce 7e 47 bd a5 fb 36 3d 0f 45 17 bd
       0.04100688 -0.048704915 0.04467358 -0.036931094
000050 c4 30 2b bd c6 74 4f bd a1 8b 4e bd 35 64 2e bd
       -0.041794553 -0.050648473 -0.05042613 -0.042576034
000060 20 02 4e bd a8 5e e8 bc a2 01 f7 bc 1a 09 71 bd
       -0.050294995 -0.028365448 -0.030152146 -0.05884657
000070 ec b6 69 3d 12 58 c3 bb 87 96 59 bd f4 9d 40 bd
       0.057059214 -0.0059614265 -0.05312207 -0.047025636
000080 d2 0e a9 3c 9b ce c0 bd d5 67 40 bd 8e b8 3f 3c
       0.02063695 -0.09414407 -0.046974022 0.011701716
000090 b7 28 44 bd 66 ef 20 bd 06 16 03 3d 4c 63 79 bd
       -0.04789039 -0.03929081 0.032003425 -0.060885713
0000a0 28 6c 01 3c 70 a3 f3 3a 42 93 3c bd 3d b2 d0 bc
       0.007899322 0.0018588137 -0.046038873 -0.025475616
0000b0 4c 0c 4f bd 76 f3 01 bd 8b 6d 00 3d 16 be 49 bd
       -0.050548837 -0.031726323 0.03135447 -0.049253546
0000c0 23 05 2e bd 01 b2 5a bd ed 9e 51 bd 46 c6 f3 bc
       -0.042485368 -0.053392414 -0.051176954 -0.02975763
0000d0 56 57 54 bd fd c0 9b bc 73 d5 05 3d cc ad 3d bd
       -0.051841103 -0.019012922 0.032674264 -0.046308324
0000e0 e2 df 0d 3d 14 42 aa bc 4d 11 6a 3c 65 69 84 3c
       0.03463734 -0.020783462 0.014286351 0.016163537
0000f0 f7 32 30 bd ea e7 b1 bd bf 72 03 bd d4 ac 93 3c
       -0.043017354 -0.08686812 -0.032091852 0.018026747
000100 eb a4 74 bd 50 1c a7 3c 68 56 41 bd e9 30 bd bc
       -0.05972759 0.020399243 -0.047201544 -0.023094611
000110 7c 3f 98 3d c1 e2 dd bc a6 d8 5a bd 74 84 38 bd
       0.07433984 -0.027085664 -0.05342927 -0.045048192
000120 89 6f 82 bc 63 1c 33 bd 61 2a 61 bd a8 4e 41 bd
       -0.015922325 -0.043728244 -0.054972056 -0.047194153
000130 97 d9 51 3d b2 e5 2e bd f4 ea 2a bd fb a2 40 3d
       0.0512329 -0.042699523 -0.041727975 0.04703043
000140 79 25 63 bd 6e 7c 2f bd 5e 23 ad 3d dc bd ff bc
       -0.05545566 -0.042843275 0.084540114 -0.031218462
000150 2f 57 ee bb 40 d6 18 bc 6e f2 29 bd e3 d1 a0 3c
       -0.0072735767 -0.009328425 -0.041490965 0.019631332
000160 4a f3 53 bd b9 1a 2b bd a8 73 57 bd 0b ba 41 bd
       -0.05174569 -0.04177353 -0.052600533 -0.047296565
000170 c3 9c 63 bd e8 04 8b 3d b3 41 05 3d 3e 27 43 bd
       -0.05556942 0.06788045 0.03253336 -0.047644846
000180 77 3c 5c bd 7a 18 e2 bc f9 d6 55 bd cb cc 32 bd
       -0.0537686 -0.027599562 -0.052206967 -0.043652337
000190 78 62 98 bc 4c f9 96 3d 75 44 58 bd eb ab 36 3d
       -0.018601641 0.07371768 -0.05279966 0.044597548
0001a0 37 9e 6f 3d 5b 3f 81 bd 47 78 53 bd fe 7b 14 3d
       0.058500495 -0.06310912 -0.051628377 0.03625106
0001b0 76 83 3b bd 63 9d 3b bd 6a e7 62 bd 7d 0e 51 bd
       -0.045779668 -0.045804393 -0.055396475 -0.051039208
0001c0 6c b0 a1 bb 5b dd 4c bd a0 5e b8 3c 4e e8 61 bd
       -0.004934361 -0.05001579 0.022506058 -0.055153184
0001d0 66 89 04 bd 45 b7 41 bd df b4 5f bd e2 20 62 bd
       -0.032357596 -0.04729392 -0.05461585 -0.05520714
0001e0 dd 76 28 bd f3 35 3a bd db 73 5b bd 05 9c 7c bd
       -0.04112898 -0.045461606 -0.053577285 -0.06167223
0001f0 60 25 39 bd da 00 98 bc f6 f4 3b 3c 7c 7d 06 3b
       -0.04520166 -0.018555094 0.011471977 0.0020521572

find.4.weight f4 [64, 128]
000000 be 4b a3 82 5c e7 84 82 80 42 5e 82 ce aa 4d 03
       -2.3994171e-37 -1.952845e-37 -1.6329069e-37 6.044016e-37
000010 fc 54 a0 82 37 55 44 03 bf 4d 3d 03 d6 96 a8 02
       -2.3558666e-37 5.7697045e-37 5.5631356e-37 2.4771957e-37
000020 d2 10 5a 83 f8 c0 0b 82 63 11 a7 02 7e f2 25 03
       -6.408375e-37 -1.0267486e-37 2.4548424e-37 4.876751e-37
000030 10 e1 2c 03 6a fe c7 02 50 8a 83 02 0a 1b 9a 82
       5.0804616e-37 2.9386448e-37 1.9328107e-37 -2.2643786e-37
000040 ae 91 3e 83 e6 59 0d 03 c4 47 43 01 d0 aa b9 02
       -5.6003214e-37 4.1539374e-37 3.5867333e-38 2.7281348e-37
000050 b3 d4 04 02 16 7f 0c 03 dd 6f e4 82 6e c7 22 03
       9.75887e-38 4.128819e-37 -3.3565795e-37 4.7836455e-37
000060 7f 1c ac 02 96 3c a9 02 b3 10 fa 82 40 00 b3 02
       2.5289484e-37 2.4867093e-37 -3.6743783e-37 2.630183e-37
000070 9e 82 b5 02 80 60 05 82 16 19 aa 81 be 8f 98 02
       2.667053e-37 -9.798991e-38 -6.2484134e-38 2.2416897e-37
000080 8f cc b6 82 83 36 b4 82 fa bf 28 83 9e 69 b1 82
       -2.6859907e-37 -2.647991e-37 -4.959114e-37 -2.6068434e-37
000090 07 b7 06 03 89 9e 07 83 28 06 ad 82 fe 38 5e 82
       3.9589166e-37 -3.9854924e-37 -2.5423599e-37 -1.632634e-37
0000a0 0e ca d6 02 e3 08 36 02 cf 2d 8e 02 38 5a 1a 83
       3.1560448e-37 1.3373799e-37 2.0891318e-37 -4.53601e-37
0000b0 22 f9 77 02 f9 2f 0a 82 52 f0 b4 02 7e 7e c3 02
       1.8218192e-37 -1.0152406e-37 2.658656e-37 2.8725278e-37
0000c0 55 98 a6 02 88 5d 8c 01 ed c3 12 03 01 4f 57 02
       2.4478942e-37 5.156209e-38 4.3130456e-37 1.5818378e-37
0000d0 c4 28 f9 02 c0 25 a0 02 44 bd af 02 57 0c c3 82
       3.661066e-37 2.3531554e-37 2.5822572e-37 -2.8659758e-37
0000e0 03 1d a3 02 ce 4e 9f 02 fa 47 87 82 fe 43 b8 02
       2.396735e-37 2.3408182e-37 -1.987778e-37 2.7075396e-37
0000f0 93 de a1 02 11 5d c0 02 72 bd b9 82 1c 0c 61 81
       2.3784575e-37 2.8265282e-37 -2.7292043e-37 -4.133466e-38
000100 9f b3 a7 82 ba 58 b6 02 58 d0 c9 01 5a 2a c4 82
       -2.4641542e-37 2.6793423e-37 7.41347e-38 -2.882392e-37
000110 36 21 13 83 b4 ab c3 82 fd 01 7f 02 67 55 54 82
       -4.323754e-37 -2.8751228e-37 1.8735012e-37 -1.5599809e-37
000120 72 6a ab 02 68 bb 04 03 c0 d2 e2 80 9d 84 08 03
       2.5187288e-37 3.9006445e-37 -2.0830425e-38 4.011904e-37
000130 d3 26 cd 82 d3 30 06 03 e2 1b 4e 03 c2 9f 79 02
       -3.0144327e-37 3.943511e-37 6.0569967e-37 1.8339479e-37
000140 38 94 5c 03 28 6d 1f 02 f8 1a 9f 02 a0 0a 5e 83
       6.4822336e-37 1.1712801e-37 2.337843e-37 -6.5252133e-37
000150 ab 18 50 83 94 57 b5 02 26 f2 5f 82 ee 91 b5 02
       -6.1154024e-37 2.6645827e-37 -1.6452946e-37 2.667932e-37
000160 b4 1f f1 02 fe 1a 15 02 ac 1b 4e 03 64 d6 52 82
       3.5429964e-37 1.0954538e-37 6.0569725e-37 -1.548989e-37
000170 3e 15 9f 02 37 aa c2 02 30 81 22 01 e0 59 1f 01
       2.3375143e-37 2.8603437e-37 2.9847388e-38 2.926817e-38
000180 6c d4 57 81 9d 1e 21 83 a6 8a 41 83 3f be 2c 83
       -3.9641669e-38 -4.734879e-37 -5.6876763e-37 -5.076465e-37
000190 ff bc b8 82 26 a6 be 82 a6 5e 54 03 a6 c6 a2 02
       -2.7144849e-37 -2.8013355e-37 6.240985e-37 2.391778e-37
0001a0 ee 76 a1 82 a8 ac 8b 02 92 58 cf 02 ed 89 19 82
       -2.3725086e-37 2.0523314e-37 3.0466753e-37 -1.1280247e-37
0001b0 18 c4 70 02 10 7f 94 81 e5 2f 25 82 f6 66 c4 82
       1.7688691e-37 -5.454894e-38 -1.213603e-37 -2.8858708e-37
0001c0 1b 71 a4 02 96 d3 81 02 68 1d f2 02 ab b4 51 02
       2.4162554e-37 1.907629e-37 3.5575582e-37 1.5406744e-37
0001d0 bf 34 01 83 56 04 fc 82 ec f0 fa 82 a7 3f af 82
       -3.7970242e-37 -3.703056e-37 -3.687248e-37 -2.5750474e-37
0001e0 fa 8a 21 82 34 2a 82 82 d2 a0 46 83 ac 43 bb 02
       -1.1868296e-37 -1.9126007e-37 -5.8371583e-37 2.7516022e-37
0001f0 3b 34 1d 02 68 36 2f 83 7d 97 2f 83 dc c1 b9 01
       1.1549528e-37 -5.1490333e-37 -5.160178e-37 6.823644e-38
000200 7a 3a 33 82 68 f1 23 83 de 89 d7 81 07 be 30 02
       -1.3167625e-37 -4.8178516e-37 -7.9176356e-38 1.2984973e-37
000210 1c 4f bc 02 44 03 de 02 ee 27 f0 01 28 e4 41 03
       2.7669524e-37 3.2621843e-37 8.821937e-38 5.6979513e-37
000220 8c 4c 61 83 ca 95 ae 82 3d d1 b4 82 64 5a 54 03
       -6.620943e-37 -2.5652977e-37 -2.656872e-37 6.2404964e-37
000230 44 ee b6 02 0c c2 bc 02 4e 7a 52 02 62 33 07 83
       2.6879254e-37 2.7735495e-37 1.5463463e-37 -3.973192e-37
000240 78 7b 39 03 d6 a5 55 83 c8 73 15 83 5d 98 ab 02
       5.450835e-37 -6.2785445e-37 -4.3920075e-37 2.5213644e-37
000250 dc f0 3f 83 d0 12 4c 80 49 da 6d 82 94 cf 05 82
       -5.640635e-37 -6.986246e-39 -1.7474655e-37 -9.830869e-38
000260 6f 29 d2 02 3a 5c 67 82 96 b9 bf 82 58 b6 9f 82
       3.0880508e-37 -1.6997667e-37 -2.8171449e-37 -2.346761e-37
000270 56 68 b3 02 c2 1f 09 83 45 17 69 03 58 5f 0e 01
       2.6361572e-37 -4.0297138e-37 6.849926e-37 2.6149687e-38
000280 ee a0 c8 82 46 0c 0e 82 5a 16 59 83 a0 bd be 82
       -2.9479728e-37 -1.0436035e-37 -6.3796227e-37 -2.802683e-37
000290 77 d5 e1 02 b4 0b fd 82 ea c8 c8 82 db c6 06 03
       3.3183301e-37 -3.7181726e-37 -2.9502678e-37 3.9607336e-37
0002a0 25 ae 5e 03 7f 51 0b 83 6e 0e d9 02 f2 25 10 83
       6.5439845e-37 -4.094198e-37 3.1893567e-37 -4.2361356e-37
0002b0 70 cf 8c 01 06 d3 18 83 8f 37 b9 82 74 a5 11 83
       5.1725536e-38 -4.491103e-37 -2.7215196e-37 -4.28016e-37
0002c0 f9 89 90 82 ca 64 89 01 e1 da 5c 02 4e 0a 4c 83
       -2.123809e-37 5.0470477e-38 1.6225862e-37 -5.996204e-37
0002d0 5f 91 e1 02 92 70 e0 02 25 59 38 82 cf 3e b2 82
       3.3144218e-37 3.2978454e-37 -1.3543768e-37 -2.61908e-37
0002e0 02 d4 08 83 0f dd b4 82 22 7e 0b 02 4c 7e aa 02
       -4.021018e-37 -2.6575504e-37 1.0248306e-37 2.5051746e-37
0002f0 1a 6b cc 02 f8 31 0c 82 41 61 c5 82 8c dd 35 01
       3.003658e-37 -1.0299916e-37 -2.900237e-37 3.3403402e-38
000300 7a 74 a7 02 01 4c bc 82 e6 c7 87 02 1d f2 9e 82
       2.4605299e-37 -2.7667741e-37 1.9951203e-37 -2.335498e-37
000310 10 10 91 02 f1 94 3d 82 7f 19 00 82 39 cc 7a 82
       2.1315055e-37 -1.3928271e-37 -9.411272e-38 -1.8425708e-37
000320 28 30 88 02 20 b4 ec 01 b2 82 77 82 0c 99 dd 82
       2.0011044e-37 8.6951175e-38 -1.8184202e-37 -3.2560876e-37
000330 95 48 0d 03 ce de 41 03 e6 2e 18 03 1c dc 2e 82
       4.1519496e-37 5.697337e-37 4.472262e-37 -1.2846669e-37
000340 51 b7 33 03 56 75 24 02 b5 ff b7 02 34 d3 5c 83
       5.281381e-37 1.2082491e-37 2.7036202e-37 -6.489464e-37
000350 7c eb 4f 81 4d d5 a6 02 b4 c5 bb 82 66 4c 6c 02
       -3.8188847e-38 2.4513936e-37 -2.7590656e-37 1.7360467e-37
000360 f8 b8 3e 03 f6 d1 4c 02 b6 96 ef 02 32 1e 6e 82
       5.6048315e-37 1.5047809e-37 3.5204398e-37 -1.7494144e-37
000370 9e 84 e9 02 b3 0f a2 02 ab a9 51 03 2e dc a3 82
       3.4312392e-37 2.3812772e-37 6.161435e-37 -2.4077074e-37
000380 f5 16 19 82 11 57 92 82 64 59 a6 01 d4 cb a7 82
       -1.1247253e-37 -2.1502746e-37 6.110704e-38 -2.4655436e-37
000390 82 0a a8 02 bc 52 a9 82 38 b1 49 02 6a c2 bc 82
       2.4691413e-37 -2.4879805e-37 1.4818007e-37 -2.7735705e-37
0003a0 08 cd 61 83 26 80 15 02 aa 1d 4e 03 ff f9 15 83
       -6.635692e-37 1.0983568e-37 6.057201e-37 -4.4074146e-37
0003b0 2b 03 61 02 0c cc f6 81 74 3a 82 82 3a d6 ba 02
       1.6531298e-37 -9.065892e-38 -1.9135334e-37 2.7453204e-37
0003c0 1c ef b8 82 76 9c 3a 03 1c cc b8 82 60 63 14 82
       -2.7173612e-37 5.4840096e-37 -2.7153523e-37 -1.0901842e-37
0003d0 ba 19 1a 82 88 e6 b5 02 73 65 a6 82 fb fa a6 02
       -1.1321516e-37 2.6727878e-37 -2.4449737e-37 2.4535564e-37
0003e0 3e 37 a2 82 c4 0f 17 02 b4 06 b9 82 fa b2 05 03
       -2.3835468e-37 1.1098252e-37 -2.7187154e-37 3.929064e-37
0003f0 e9 4c 36 03 36 b1 75 80 03 b6 4f 83 b8 e2 b2 82
       5.357328e-37 -1.0808324e-38 -6.104077e-37 -2.628488e-37

find.4.bias f4 [64]
000000 b0 65 ad 02 04 3f 87 82 3f 0a bb 82 e2 39 bf 82
       2.547843e-37 -1.9872636e-37 -2.7483061e-37 -2.809815e-37
000010 2c 21 b9 82 31 a9 bd 02 a0 ea ae 02 22 c5 1e bc
       -2.7202347e-37 2.7868165e-37 2.570167e-37 -0.009690555
000020 e7 37 b4 82 ad f4 cd 3d 7b a7 ba 3c 87 db 98 3c
       -2.648071e-37 0.10056434 0.022784939 0.018659366
000030 07 d4 a4 82 36 d4 ad 82 b5 b3 f9 bb 64 53 b2 82
       -2.4219332e-37 -2.5541868e-37 -0.0076202997 -2.6202613e-37
000040 d9 4d 9b 02 5d 4c 2f 3d 96 db a9 82 61 c7 11 be
       2.2819885e-37 0.042797435 -2.4958354e-37 -0.14236213
000050 d2 77 db bd 8c 03 ac 02 76 73 2a 02 e5 10 9a 82
       -0.10716213 2.5275164e-37 1.2522763e-37 -2.2637963e-37
000060 8e 4d b4 02 ce 9d b0 02 d3 ed 8b 3d 3b 5e b1 82
       2.6493137e-37 2.5951451e-37 0.06832471 -2.6061898e-37
000070 f9 36 bd 82 84 30 30 bd 05 ba c4 02 47 28 a5 82
       -2.7802607e-37 -0.043015018 2.8906382e-37 -2.426769e-37
000080 76 e2 c5 bc f5 d3 aa 82 f0 78 1e bd f8 6a 55 3d
       -0.024155837 -2.5100912e-37 -0.038689554 0.052103966
000090 6d a3 ba 02 54 79 92 bd 91 76 ac 01 11 58 04 bc
       2.7424045e-37 -0.07152048 6.3352956e-38 -0.008077637
0000a0 3f 82 b0 02 1b 31 a0 3a e1 73 22 3d 17 36 5d bd
       2.5935633e-37 0.0012221666 0.039661292 -0.054006662
0000b0 5c fa a2 02 38 d5 32 83 ae 42 9a 82 d2 4c a3 82
       2.394746e-37 -5.255426e-37 -2.2666539e-37 -2.399479e-37
0000c0 87 8b ba 82 92 77 15 82 82 bf b4 82 4d 85 b0 82
       -2.7410328e-37 -1.0981106e-37 -2.6558543e-37 -2.5937387e-37
0000d0 df d3 81 82 57 f7 b7 82 35 bf 21 3d 3c 1b cd 3b
       -1.9076454e-37 -2.70314e-37 0.03948899 0.00625935
0000e0 6b a8 bd 02 1d 49 83 82 46 58 a9 02 9c cd 32 3d
       2.7867721e-37 -1.9290685e-37 2.4882985e-37 0.043653116
0000f0 14 df e3 bd ca dd a8 82 7e c9 98 02 dd 8e b9 02
       -0.11126533 -2.4812682e-37 2.2450044e-37 2.7265306e-37

find.6.weight f4 [2, 64]
000000 66 91 c9 02 bc f2 b4 82 a0 bd ca 82 f5 60 b3 82
       2.961775e-37 -2.6587946e-37 -2.9790072e-37 -2.6357337e-37
000010 dd 76 be 02 f7 ea c3 02 e2 bd b2 82 31 71 50 3d
       2.7986215e-37 2.8787538e-37 -2.6263737e-37 0.050889198
000020 d6 08 c2 02 4d 65 0c 3e 2a 4a 0d be de 62 0b bd
       2.851081e-37 0.13710518 -0.13797823 -0.034029834
000030 81 fa af 02 4a 81 c8 82 32 d6 84 be 6a 14 8e 02
       2.585772e-37 -2.9461567e-37 -0.25944668 2.0876742e-37
000040 ea 26 c7 82 c0 dc 4c bd 64 8e aa 02 9c 24 a8 be
       -2.9262758e-37 -0.05001521 2.5060983e-37 -0.3284043
000050 55 f0 93 be 66 76 ad 02 ad 96 ca 02 5c b4 b8 82
       -0.28894296 2.5488023e-37 2.9767716e-37 -2.7139891e-37
000060 9a 41 ab 82 46 19 b1 02 c1 81 26 bd 1c ee a2 82
       -2.5163845e-37 2.6022319e-37 -0.040651087 -2.3940429e-37
000070 95 2a ca 82 01 55 38 be 11 9f bd 02 24 8e af 82
       -2.9705673e-37 -0.18001176 2.7862354e-37 -2.5795524e-37
000080 94 a4 5e 3c 1e 90 c5 01 e2 90 b4 bd b3 1e cf bd
       0.013589043 7.257317e-38 -0.08816697 -0.10113277
000090 42 be bd 82 6c 4d ff 3d ad 1d ca 82 b8 26 40 3e
       -2.7880257e-37 0.12465939 -2.9698265e-37 0.1876477
0000a0 36 42 c8 02 db 77 16 3e 6a 6f e5 3e f8 16 29 bf
       2.9425362e-37 0.14694159 0.44811565 -0.6605067
0000b0 28 de c8 82 42 1b c7 02 3e 71 c7 82 d2 c1 be 82
       -2.951487e-37 2.9256067e-37 -2.930542e-37 -2.8029238e-37
0000c0 8c f2 af 02 46 5a bd 02 b0 8a c4 82 6c f9 62 02
       2.5853154e-37 2.7822868e-37 -2.8879214e-37 1.6675438e-37
0000d0 0c a9 b2 02 bc 66 a6 02 8e 32 aa bb bc c7 06 3d
       2.6251777e-37 2.4450474e-37 -0.005194015 0.032905325
0000e0 fa b9 bd 82 07 ef c5 82 f7 37 a7 82 47 26 74 3c
       -2.78778e-37 -2.9083743e-37 -2.4570567e-37 0.014901704
0000f0 0e 2e 1d be 61 0a b9 02 0b db e3 02 ea 31 b9 02
       -0.153496 2.7189264e-37 3.3480377e-37 2.7211956e-37
000100 b9 df b0 02 26 be cc 82 05 9b c5 82 39 20 b5 02
       2.5989286e-37 -3.0084246e-37 -2.9035525e-37 2.6614055e-37
000110 85 f0 c2 02 8a 58 ca 82 d6 a6 ac 82 43 91 e5 be
       2.864379e-37 -2.9732051e-37 -2.5368888e-37 -0.44837388
000120 ed ac cc 02 cc ed bb 3e 58 6c 68 3e a1 27 98 3e
       3.007436e-37 0.36704862 0.2269758 0.29717734
000130 76 2a b1 82 0a 72 bf 82 c4 c0 1e be 65 76 a1 82
       -2.6032184e-37 -2.8130383e-37 -0.15503222 -2.372478e-37
000140 f5 ba b4 82 0c 42 d9 3e c2 90 c1 82 1b 51 06 bf
       -2.655593e-37 0.42433202 -2.8441888e-37 -0.5246751
000150 18 26 a7 be 65 36 26 01 96 e1 ba 02 e5 ed bb 82
       -0.3264625 3.052841e-38 2.7459724e-37 -2.7613725e-37
000160 93 69 b6 02 f3 f3 c6 02 0d 00 a3 3e df 44 b2 82
       2.6803093e-37 2.9233505e-37 0.31835976 -2.619428e-37
000170 28 16 c5 82 d1 cb b5 be 04 aa c4 02 ea d4 ae 02
       -2.8959265e-37 -0.35507062 2.8897196e-37 2.5689209e-37
000180 6b 34 c5 be 47 29 02 83 89 21 e9 bb e6 41 91 3e
       -0.38516554 -3.825095e-37 -0.0071145934 0.2837059
000190 dc e5 97 02 fb 01 61 be 7f 26 c0 02 c0 8f bc be
       2.2319389e-37 -0.21973412 2.823396e-37 -0.36828423
0001a0 e0 42 c2 02 98 c3 71 be 60 66 cf bd b9 a4 23 bf
       2.8544122e-37 -0.2360977 -0.10126948 -0.6392322
0001b0 60 f4 c0 82 78 54 d8 82 32 45 ca 02 ec 44 c0 82
       -2.8352129e-37 -3.178683e-37 2.9720949e-37 -2.8251424e-37
0001c0 b0 ee b1 82 d2 f1 b4 82 d9 16 cd 02 a9 2e a7 82
       -2.6144812e-37 -2.658742e-37 3.0135157e-37 -2.4565226e-37
0001d0 c7 ff b3 02 dc 74 ab 82 e7 eb bc be 38 14 ce be
       2.6448495e-37 -2.5193266e-37 -0.3689873 -0.402498
0001e0 20 c3 ad 02 80 ad b3 02 ce 47 ac 82 73 e3 1e 3e
       2.5532062e-37 2.640127e-37 -2.5314342e-37 0.15516452
0001f0 c4 14 02 bf 56 74 8d 81 a4 14 c1 02 6d 3e c6 82
       -0.50812936 -5.1962154e-38 2.8370648e-37 -2.9129316e-37

find.6.bias f4 [2]
000000 f0 24 05 3e e2 9a bb bb
       0.13002372 -0.0057252506

exp_avg f4 [128, 140]
000000 e3 25 46 3a 13 cf 2e 3a 75 ed 01 39 17 e0 9f 39
       0.0007558746 0.00066684297 0.00012390858 0.00030493803
000010 a1 25 15 3a cf 97 9a 38 1a 3f 74 38 e7 6e 96 38
       0.0005689506 7.371569e-05 5.82329e-05 7.1732145e-05
000020 5a e6 7a b8 29 37 a5 38 35 1a 6b b9 3f 91 a2 3a
       -5.9819176e-05 7.8780875e-05 -0.0002242111 0.0012402906
000030 b7 4a 03 3b 1a 53 05 b8 0a 54 e2 3a a7 8d 22 3a
       0.0020033547 -3.1787065e-05 0.0017267477 0.00062009174
000040 3d d8 40 39 be e1 82 37 2f 5f 29 b9 e9 68 36 38
       0.00018391102 1.5602327e-05 -0.00016152555 4.3489887e-05
000050 c4 78 62 38 63 2f ab 3a 8f 2e e9 39 a0 b0 45 38
       5.399507e-05 0.0013060387 0.00044475912 4.7132955e-05
000060 0b 7a e3 36 e7 73 88 38 ea 44 03 3b 88 97 03 b8
       6.779335e-06 6.506574e-05 0.002003009 -3.137396e-05
000070 4f f4 d1 3a 67 55 ff 39 ea e6 9e 35 7d 1e b9 b9
       0.0016018244 0.0004870102 1.1839122e-06 -0.00035308665
000080 5d 20 a5 39 13 3d 8e b9 a6 36 d8 39 3e 14 82 39
       0.00031495365 -0.00027129854 0.00041239447 0.00024810614
000090 8c d1 81 b6 9a 01 11 38 7e a8 8e b6 c1 70 c3 3a
       -3.868894e-06 3.4572186e-05 -4.251545e-06 0.0014910923
0000a0 b3 41 03 3b 0a 32 05 b8 96 79 00 3b b9 14 2a 3a
       0.0020028173 -3.1756274e-05 0.001960372 0.0006488073
0000b0 91 b1 90 39 94 79 8d b8 fd ed 00 3a 71 5b 73 b9
       0.00027598118 -6.7460496e-05 0.00049182755 -0.0002320835
0000c0 7f 38 62 38 89 9d e3 39 da 59 11 39 58 4d 34 36
       5.3935215e-05 0.00043414187 0.0001386175 2.686711e-06
0000d0 9b bc a2 3a 28 c6 37 b8 64 4b 03 3b ca dc 03 b8
       0.0012415828 -4.3815147e-05 0.002003395 -3.143846e-05
0000e0 52 bc 54 3a da 12 f7 39 c6 f4 01 3a e9 29 cc 3a
       0.000811522 0.00047125557 0.00049574336 0.0015576455
0000f0 58 02 0f 39 21 ec f2 38 01 62 5a b8 ec 01 82 38
       0.00013638416 0.00011583442 -5.2066523e-05 6.199241e-05
000100 17 c3 69 39 7b 9b f4 b7 fc 75 79 b8 1c 70 f3 b6
       0.00022293288 -2.9159468e-05 -5.9476108e-05 -7.2550156e-06
000110 34 4e 03 3b ac 19 04 b8 41 10 36 3b eb 27 40 3a
       0.0020035626 -3.149516e-05 0.0027780684 0.0007330167
000120 39 37 79 38 86 0b 35 b9 08 36 11 39 b6 ea 14 39
       5.9417656e-05 -0.00017265798 0.00013848406 0.00014201817
000130 6e e3 bd 38 b9 b6 94 b9 f8 24 e5 39 56 65 06 b9
       9.0545844e-05 -0.000283649 0.00043705828 -0.00012816986
000140 7c 60 00 38 a1 13 c7 3a ff 50 03 3b 84 9a 02 b8
       3.0607436e-05 0.0015188345 0.002003729 -3.113832e-05
000150 48 11 74 3a 16 38 00 3a 72 c7 45 39 a4 d1 81 39
       0.00093104364 0.000489117 0.00018861683 0.00024760992
000160 2b a0 e2 38 3c a6 08 ba 7f ee a5 39 f0 14 ec 39
       0.000108063534 -0.0005212759 0.00031648946 0.00045029027
000170 21 a0 6a 36 76 00 ce 3a f8 3a fb 39 ba 0b 01 ba
       3.4961924e-06 0.001571669 0.00047918386 -0.0004922707
000180 c4 45 03 3b ca fb 01 b8 9e 7d cb 3a a5 89 3a 39
       0.0020030597 -3.0990494e-05 0.0015525108 0.00017789619
000190 6f e6 e3 b8 df 07 6c b9 a9 53 74 3a 23 d8 45 b9
       -0.00010867125 -0.00022509646 0.00093203277 -0.00018867901
0001a0 e6 49 1e b8 f2 09 a7 39 e4 81 84 38 a2 fa 86 b7
       -3.773896e-05 0.00031860132 6.3184445e-05 -1.6090755e-05
0001b0 2f a5 d7 37 c9 f8 df b7 da 4a 03 3b b0 c6 01 b8
       2.5706917e-05 -2.6699521e-05 0.0020033629 -3.094104e-05
0001c0 68 c9 18 3a ce 3a 25 39 f0 7e b5 39 8e a8 9e 39
       0.0005828352 0.00015757533 0.00034617586 0.0003026169
0001d0 e3 39 07 ba 07 3c 03 3a b0 fa e7 b9 e6 bd 07 39
       -0.0005158467 0.0005006198 -0.0004424653 0.00012945346
0001e0 e1 80 8b 39 81 0c b2 b7 d1 cc 27 b8 20 06 3c 39
       0.00026608168 -2.1225076e-05 -4.0006653e-05 0.00017931359
0001f0 e2 47 03 3b a2 35 04 b8 ec 13 ba 3a 09 d3 17 3a
       0.002003186 -3.1521202e-05 0.0014196611 0.00057916396
000200 9f 79 e2 b8 b9 b8 f5 b8 15 21 04 3a 58 e3 c0 3a
       -0.000107991735 -0.00011716918 0.000504033 0.0014716191
000210 07 81 8a 36 a7 5e 50 b4 2c cb 5a 39 77 16 0d 39
       4.1277412e-06 -1.9405944e-07 0.00020865788 0.00013455177
000220 28 ca 31 b8 a5 8a 69 39 50 4a 03 3b fa e6 04 b8
       -4.238836e-05 0.0002227226 0.0020033307 -3.1686366e-05
000230 4e 0e 0e 3a 24 4d 4c b9 5a c4 45 b8 f3 b0 96 b9
       0.00054190017 -0.00019483693 -4.7151327e-05 -0.00028742067
000240 cc cf 7a 38 1a 29 62 39 fe 4a 10 3a 27 8c 14 b8
       5.979817e-05 0.00021568351 0.0005504339 -3.5416477e-05
000250 bc 13 09 b7 d4 60 a9 38 8b 8f a0 b9 65 5a d0 b9
       -8.170431e-06 8.0765836e-05 -0.00030624526 -0.000397402
000260 b4 b3 e9 b8 73 0f 65 ba 40 44 42 37 f0 14 bb b7
       -0.00011143778 -0.0008737959 1.1579192e-05 -2.2301887e-05
000270 92 53 d6 39 e3 8f 3d b7 5d e4 ec 38 44 22 ec 38
       0.00040879525 -1.1298779e-05 0.00011295893 0.000112597394
000280 aa 6a 94 37 83 3e 4a b6 82 67 91 b8 bd 3b b2 b9
       1.7692644e-05 -3.0136732e-06 -6.9334186e-05 -0.00033995314
000290 fc e8 54 b9 6c 24 e2 b8 b9 ea e9 b8 54 19 65 ba
       -0.00020304689 -0.00010783304 -0.00011154026 -0.0008739431
0002a0 d8 46 3f 3a b4 95 56 b9 44 7c 94 b8 cf 18 48 39
       0.00072966283 -0.00020464399 -7.080336e-05 0.00019082728
0002b0 90 6b 80 b9 ba 82 96 b9 50 fe 00 b9 45 a0 2c 39
       -0.00024494203 -0.00028707628 -0.0001230177 0.00016462903
0002c0 77 dd bc b9 59 88 8b 38 b9 95 bd b6 28 33 f6 37
       -0.00036023158 6.653433e-05 -5.650069e-06 2.9349307e-05
0002d0 66 f1 e9 b8 d0 11 65 ba 98 80 8b b9 f3 09 a5 b9
       -0.0001115527 -0.0008738311 -0.00026607956 -0.00031478665
0002e0 05 3f 98 b8 00 6b 18 b9 39 9b b3 b6 3a dc f5 38
       -7.259663e-05 -0.0001453571 -5.352686e-06 0.00011723531
0002f0 2d ed b5 b8 58 b5 1e 3a dd fa ac 39 df d6 5b 37
       -8.67493e-05 0.0006054244 0.00032993304 1.3103446e-05
000300 cb 5d a9 b9 ee e5 2a ba 53 53 e8 b8 9e ff 64 ba
       -0.00032304073 -0.00065192475 -0.000110781424 -0.00087355997
000310 c0 ab 69 b9 7c 57 a4 38 fa f5 99 b8 2c d2 54 3a
       -0.00022284593 7.8364246e-05 -7.341425e-05 0.0008118476
000320 c6 bf a6 39 bb d1 1c 39 fc 06 6a b9 ea 76 3a b9
       0.0003180487 0.0001495545 -0.00022318581 -0.00017782641
000330 b3 cc ae b9 66 3f 5f b6 b8 29 4c b9 01 8a d1 36
       -0.0003334038 -3.3266492e-06 -0.00019470498 6.244751e-06
000340 f1 c0 e9 b8 05 25 65 ba ef b7 46 3a 02 57 71 b8
       -0.00011146244 -0.0008741173 0.0007580509 -5.753991e-05
000350 49 c9 4b b9 5e 9e 3a ba a9 ae 0f b9 b4 e6 de 39
       -0.00019434573 -0.00071189355 -0.00013702609 0.00042515027
000360 d7 66 9d b9 a3 bb 5b 3a 39 65 d2 37 33 9c 42 b5
       -0.00030021995 0.0008382147 2.5081086e-05 -7.249793e-07
000370 c1 2c bb 36 4c 13 96 b8 38 66 ea b8 08 fd 64 ba
       5.5782443e-06 -7.156152e-05 -0.00011177029 -0.00087352144
000380 c4 06 43 ba cf 6a 9d b9 ec 45 b6 39 ea e6 b2 b8
       -0.0007439668 -0.00030024952 0.0003476584 -8.5307125e-05
000390 03 44 16 39 ad c5 92 b8 13 39 9f 39 38 b2 94 b8
       0.00014330451 -6.9986425e-05 0.00030369367 -7.090386e-05
0003a0 d3 53 aa b5 80 87 c4 b9 b5 65 f0 38 fe c0 0e ba
       -1.2690383e-06 -0.0003748499 0.00011463036 -0.0005445628
0003b0 90 55 ea b8 fd 09 65 ba 5d a1 90 b9 68 89 09 37
       -0.00011173927 -0.0008737145 -0.00027586045 8.197829e-06
0003c0 6c 57 80 3a cc 46 a0 b9 7b ec 7a 39 21 36 70 b9
       0.0009791679 -0.00030570326 0.00023929954 -0.00022908348
0003d0 cb a3 97 38 d8 1f 4e b9 96 3f 52 ba 82 7a b7 39
       7.23075e-05 -0.00019657554 -0.00080203393 0.00034995755
0003e0 48 ef 01 b8 26 b1 12 b9 fa c5 e8 b8 b3 15 65 ba
       -3.0978845e-05 -0.00013989638 -0.00011099498 -0.000873889
0003f0 cc af 0f ba 42 44 75 39 69 2e e5 b8 c3 a7 cb b8
       -0.0005481213 0.00023390449 -0.000109282155 -9.7110424e-05

exp_avg_sq f4 [128, 140]
000000 dd 3c ba 38 6d 9b 58 37 54 7a d9 36 e8 de 48 37
       8.880508e-05 1.2910791e-05 6.481345e-06 1.1972828e-05
000010 e4 96 6a 37 a9 1f b8 37 34 77 7c 37 2d 16 0d 37
       1.3982619e-05 2.1949252e-05 1.5048125e-05 8.409418e-06
000020 4b b0 c5 36 22 65 1c 37 56 bb 7c 37 45 be 04 37
       5.8915807e-06 9.321871e-06 1.5063988e-05 7.912114e-06
000030 22 b1 ae 38 ec d0 14 38 0a 17 ba 38 3c e5 35 37
       8.32996e-05 3.5480523e-05 8.8734625e-05 1.08418135e-05
000040 51 a9 5f 36 65 fc 31 37 ec 89 a7 37 8b 42 67 37
       3.3328145e-06 1.0608787e-05 1.9972176e-05 1.3784166e-05
000050 a9 c8 6a 37 fd 90 2f 37 9a ba 6b 37 bb a5 57 37
       1.3994207e-05 1.0464571e-05 1.4050538e-05 1.2853586e-05
000060 e3 75 06 37 bf 61 30 37 1f b1 ae 38 ec d0 14 38
       8.01447e-06 1.0513176e-05 8.329958e-05 3.5480523e-05
000070 3f 0c b6 38 e5 3b 47 37 a2 f2 51 37 42 b5 86 37
       8.680717e-05 1.187527e-05 1.2513863e-05 1.605845e-05
000080 30 5b d6 36 54 f6 64 37 99 c2 ef 36 e2 f5 7d 37
       6.3883126e-06 1.3647212e-05 7.145409e-06 1.5137224e-05
000090 07 e5 08 37 a8 5f e1 36 f7 6c 3d 37 8a c0 85 37
       8.159556e-06 6.7166584e-06 1.1290648e-05 1.5944493e-05
0000a0 2b b1 ae 38 e9 d0 14 38 ad ec ae 38 fc 5b 3b 37
       8.329967e-05 3.5480512e-05 8.341051e-05 1.1167485e-05
0000b0 5e 6e 70 37 0a 55 63 37 87 42 3b 36 1a 74 0c 37
       1.4330812e-05 1.3550054e-05 2.7903895e-06 8.371682e-06
0000c0 2c d5 97 36 48 63 cf 37 83 f1 56 37 06 4b 0a 37
       4.524967e-06 2.4722554e-05 1.2811625e-05 8.242909e-06
0000d0 62 f5 73 37 53 97 0e 37 25 b1 ae 38 ef d0 14 38
       1.4541061e-05 8.4990925e-06 8.329962e-05 3.5480534e-05
0000e0 95 7e 7e 38 f6 3b 11 37 d5 e9 54 37 b0 e2 c0 37
       6.0676208e-05 8.656634e-06 1.2690628e-05 2.2993743e-05
0000f0 03 e5 11 37 bf e8 7d 37 38 01 98 36 24 c8 20 37
       8.695994e-06 1.5134166e-05 4.530095e-06 9.583342e-06
000100 dc d7 62 37 72 51 32 37 e0 d7 0a 37 21 fd 02 37
       1.3520908e-05 1.062859e-05 8.275703e-06 7.80754e-06
000110 1b b1 ae 38 ee d0 14 38 41 ff ae 38 36 6d 8d 37
       8.329955e-05 3.548053e-05 8.344511e-05 1.6859365e-05
000120 97 13 4b 37 e1 4b 1e 37 07 bb 62 36 05 93 ec 36
       1.2104304e-05 9.435201e-06 3.3785489e-06 7.0504634e-06
000130 f5 63 2a 36 67 5f a5 37 4a 70 1f 37 bb b7 13 37
       2.5390157e-06 1.9713958e-05 9.503283e-06 8.804661e-06
000140 9d c2 b1 37 2e 6b 8a 37 1f b1 ae 38 ed d0 14 38
       2.1190668e-05 1.6500791e-05 8.329958e-05 3.5480527e-05
000150 07 b2 95 38 a8 a5 06 37 28 40 84 37 49 92 68 37
       7.138034e-05 8.025592e-06 1.5765501e-05 1.3862337e-05
000160 87 e7 53 37 cd e1 92 37 8d f4 2d 37 e1 d8 ec 36
       1.2630487e-05 1.7509703e-05 1.03685425e-05 7.058596e-06
000170 40 9e bf 36 55 2d 08 37 3a 81 12 37 fb 60 8b 36
       5.7106663e-06 8.116786e-06 8.732366e-06 4.153813e-06
000180 23 b1 ae 38 e7 d0 14 38 03 90 89 38 da ae e6 36
       8.329961e-05 3.5480505e-05 6.559493e-05 6.8748896e-06
000190 c8 5e d4 37 a7 d1 02 37 a8 ab a6 37 cb 4e f4 36
       2.5316505e-05 7.797417e-06 1.9868676e-05 7.2809394e-06
0001a0 29 db ca 36 ff 65 9c 36 e9 85 84 36 95 6b f0 36
       6.0455827e-06 4.661036e-06 3.9494957e-06 7.1650816e-06
0001b0 32 a0 10 37 02 3c e4 36 20 b1 ae 38 e2 d0 14 38
       8.620367e-06 6.8019153e-06 8.329959e-05 3.5480487e-05
0001c0 2b a5 52 38 35 d9 0e 37 53 e0 67 37 ee 86 92 36
       5.0221726e-05 8.514432e-06 1.38209025e-05 4.366847e-06
0001d0 25 e1 cf 37 c4 8b 1f 37 d2 13 9b 36 59 77 f8 36
       2.4781164e-05 9.50968e-06 4.6216674e-06 7.40487e-06
0001e0 e7 90 fb 36 e9 cb e9 36 f6 34 bd 36 3e 0f 17 37
       7.4972518e-06 6.9676794e-06 5.6388044e-06 9.00385e-06
0001f0 26 b1 ae 38 ee d0 14 38 76 8e 33 38 ce 8d 14 37
       8.329963e-05 3.548053e-05 4.2809603e-05 8.854504e-06
000200 e0 95 94 37 0a ee 10 37 33 7f 47 37 48 80 b9 36
       1.7712766e-05 8.638492e-06 1.189094e-05 5.5283635e-06
000210 19 86 95 36 1e 67 3c 36 79 64 45 37 fd b2 be 36
       4.456157e-06 2.8074205e-06 1.1765508e-05 5.6832782e-06
000220 52 38 10 37 0a 08 08 37 25 b1 ae 38 ea d0 14 38
       8.596182e-06 8.108103e-06 8.329962e-05 3.5480516e-05
000230 2b 02 ad 38 db ba 09 37 8b 77 f9 36 de 23 1f 37
       8.249687e-05 8.209342e-06 7.434695e-06 9.4854895e-06
000240 1f d4 d8 37 9b 63 04 38 eb aa ea 36 8c c0 f0 36
       2.5847983e-05 3.1564017e-05 6.993641e-06 7.174973e-06
000250 d7 1c 99 36 42 66 84 36 00 11 fa 36 55 ca 6c 36
       4.5631127e-06 3.945811e-06 7.4525597e-06 3.5284513e-06
000260 e4 1f a2 38 4c f9 59 38 52 03 c0 38 66 81 e7 36
       7.730702e-05 5.1969007e-05 9.155892e-05 6.8994004e-06
000270 ac 2f 87 36 89 ce 68 36 53 fc 7c 37 29 f5 0f 37
       4.0288633e-06 3.4690913e-06 1.5079119e-05 8.580545e-06
000280 05 59 27 38 62 1d 2d 37 c7 c8 65 37 07 1b c1 36
       3.989881e-05 1.0318445e-05 1.3696211e-05 5.7549946e-06
000290 eb 89 4c 36 6b fd a5 36 dc 1f a2 38 4e f9 59 38
       3.0478648e-06 4.946885e-06 7.730696e-05 5.1969015e-05
0002a0 50 12 c5 38 35 56 ca 36 9c 6e b2 37 99 18 3b 37
       9.397103e-05 6.030105e-06 2.127076e-05 1.1151796e-05
0002b0 5a b0 b4 36 f7 50 40 37 39 46 90 36 bc e8 03 38
       5.384948e-06 1.1462943e-05 4.2997094e-06 3.1449585e-05
0002c0 10 39 8b 36 e8 c8 8d 36 c4 57 a2 36 1f d5 9e 36
       4.1491658e-06 4.225516e-06 4.8381935e-06 4.7335775e-06
0002d0 de 1f a2 38 49 f9 59 38 b9 a7 a5 38 56 88 e3 36
       7.730698e-05 5.1968997e-05 7.899054e-05 6.780999e-06
0002e0 7c 30 7c 36 04 73 80 37 ab 5f b6 36 2a 3d 85 37
       3.7579148e-06 1.5312347e-05 5.43516e-06 1.5883317e-05
0002f0 6a b4 9e 36 71 ea 26 38 d2 80 a0 36 2c 6d 3a 36
       4.72977e-06 3.9795825e-05 4.7833682e-06 2.7779706e-06
000300 a6 78 d1 36 e4 93 f8 36 e3 1f a2 38 50 f9 59 38
       6.2427307e-06 7.4081927e-06 7.730701e-05 5.1969022e-05
000310 1f 59 96 38 3f 42 bc 36 5a 5c 2f 37 ee 8f ea 37
       7.1691575e-05 5.6105487e-06 1.0452315e-05 2.7961996e-05
000320 65 bf b7 36 57 73 29 37 31 e3 ab 36 14 f0 fe 36
       5.4761063e-06 1.010004e-05 5.1226457e-06 7.5977387e-06
000330 01 e5 8a 37 0e e7 4a 37 b5 71 ac 36 58 f6 7e 36
       1.655752e-05 1.2093935e-05 5.1392367e-06 3.799234e-06
000340 e4 1f a2 38 5c f9 59 38 8a 53 c5 38 cc b6 e1 36
       7.730702e-05 5.1969066e-05 9.4092524e-05 6.726803e-06
000350 07 e9 d0 37 51 f4 18 37 cd 81 62 36 92 29 ba 36
       2.4904044e-05 9.11679e-06 3.3752178e-06 5.5480714e-06
000360 10 16 85 36 62 95 c1 37 5d 2d 66 37 95 6c 64 37
       3.9662773e-06 2.3076955e-05 1.371963e-05 1.361514e-05
000370 f6 17 1c 36 81 26 d8 36 e3 1f a2 38 49 f9 59 38
       2.3259759e-06 6.441784e-06 7.730701e-05 5.1968997e-05
000380 dc 32 73 38 93 73 f0 36 f6 a6 0a 38 d7 d3 2d 37
       5.798308e-05 7.166012e-06 3.305726e-05 1.0360926e-05
000390 ab 42 7c 37 b8 41 57 37 df 84 ac 36 0c 67 2e 36
       1.5035893e-05 1.28303e-05 5.1414677e-06 2.5988002e-06
0003a0 67 1a 3f 37 1b a9 0f 36 7b c9 2b 37 1a f2 68 36
       1.1390634e-05 2.1407093e-06 1.0239305e-05 3.4711616e-06
0003b0 e8 1f a2 38 4a f9 59 38 f1 cd 39 38 59 87 a9 36
       7.730705e-05 5.1969e-05 4.4299235e-05 5.052349e-06
0003c0 cc 6a 10 38 12 fa 59 36 f7 be d8 36 eb f5 62 37
       3.4431738e-05 3.248108e-06 6.459533e-06 1.3527907e-05
0003d0 39 e9 82 36 6d 15 a6 37 f7 ec cc 36 fc d8 29 37
       3.9014526e-06 1.979872e-05 6.10726e-06 1.0123706e-05
0003e0 3a eb 70 36 08 b4 0a 36 e0 1f a2 38 4b f9 59 38
       3.5899707e-06 2.0668394e-06 7.730699e-05 5.1969004e-05
0003f0 8a f3 c1 37 a6 c4 c3 36 88 e4 ec 36 37 37 c1 36
       2.31208e-05 5.8343458e-06 7.0599526e-06 5.758276e-06
