scheduler/BaGTI/checkpoints/simulator/stochastic_energy_latency_10_Trained.ckpt (torch, 989487 bytes, 42 tensors)

find.0.W_m f4 [120, 128]
0	0x3d894c8f	0.067040555
1	0xbbc3e1be	-0.0059778383
2	0xbdda2844	-0.10652211
3	0x3d333a65	0.04375686
4	0xbd560e37	-0.05225965
5	0xbba2f04f	-0.0049724947
6	0xbc859ece	-0.016311076
7	0xbc92d3da	-0.017923284
8	0xbc408596	-0.011750599
9	0xbd142ca4	-0.036175385
10	0xbd623099	-0.055222128
11	0x3db90274	0.09033671
12	0xbdc83179	-0.09775061
13	0xbe4398f0	-0.1910131
14	0xbd9ff932	-0.07811202
15	0xbd48f0d8	-0.04905781
16	0x3d7698fb	0.060204487
17	0xbe11ba85	-0.14231308
18	0xbd999ec5	-0.07500986
19	0xbd44f295	-0.048082907
20	0x3d0121e4	0.03152646
21	0xbdb90bfd	-0.0903549
22	0xbe251ade	-0.1612353
23	0x3d876353	0.066107415
24	0x3d92430b	0.07141694
25	0xbdf0cd7c	-0.11757943
26	0xbe3c20ea	-0.1837193
27	0x3e11ee6d	0.14251108
28	0x3b5d4064	0.0033760304
29	0xbd0f7a24	-0.03502859
30	0xbe21628a	-0.15760246
31	0x3d3948ed	0.045235563
32	0xbde81633	-0.11332359
33	0xbbfa9932	-0.007647657
34	0x3d049d5d	0.032376636
35	0xbde8eedd	-0.113736846
36	0xbd16534b	-0.036700528
37	0xbd13d0f4	-0.036087945
38	0xbd8e3582	-0.069437996
39	0xbd0b1599	-0.033956144
40	0x3d2c02b1	0.041994754
41	0xbce16cf8	-0.02751778
42	0xbdf64110	-0.120241284
43	0x3e0986cd	0.13430329
44	0xbe28d972	-0.16489199
45	0xbd7ab1f4	-0.061204866
46	0xbd1b5d84	-0.03793098
47	0x3deb75d1	0.11497081
48	0x3db8792e	0.09007488
49	0xbe609df3	-0.21935253
50	0xbdde44ff	-0.10853004
51	0xbddcb816	-0.10777299
52	0xbdc3af92	-0.09554972
53	0x3e19b0c0	0.15008831
54	0x3dc9af86	0.098479316
55	0xbe00e730	-0.12588191
56	0xbe0069e8	-0.125404
57	0x3ce91caa	0.02845605
58	0x3d097dd0	0.03356725
59	0x3be9eb92	0.007138678
60	0xbc933ec4	-0.017974265
61	0x3ca835c8	0.020533457
62	0xbd7998f1	-0.060936872
63	0x3cfe56dc	0.031047277
64	0xbde76fbb	-0.11300608
65	0xbd1b1021	-0.03785718
66	0x3dcc6a8c	0.0998126
67	0x3d26e5c5	0.04074647
68	0x3c9fd9cd	0.019513035
69	0xbdf77c21	-0.120842226
70	0xbdf717f7	-0.12065118
71	0x3d6cfd36	0.05785867
72	0x3d9f01de	0.07764028
73	0xbcae283d	-0.021259421
74	0xbd8a5276	-0.067540094
75	0xbdb9381a	-0.09043904
76	0x3e1944c5	0.1496764
77	0xbd9c139f	-0.0762093
78	0xbd920ecb	-0.07131728
79	0xbd361c23	-0.044460427
80	0xbd9a5068	-0.075348675
81	0x3d4a30e0	0.049363017
82	0x3dfa13e6	0.122108266
83	0xbd061948	-0.032738954
84	0xbe23da3c	-0.16001219
85	0xbc5146a1	-0.012773187
86	0xbe5d27f6	-0.21597275
87	0x3dc7ccac	0.09755835
88	0x3d41950f	0.047261294
89	0x3ccfd641	0.025370719
90	0xbd078344	-0.03308417
91	0xbd7f05d0	-0.062261403
92	0xbdfd72fb	-0.123754464
93	0x3baeff09	0.005340461
94	0xbde20390	-0.11035836
95	0xbdce18f8	-0.10063356
96	0x3c0be4ce	0.008538438
97	0x3d0aaa2d	0.0338537
98	0xbc829f9e	-0.015945252
99	0xbd0af8a5	-0.033928532
100	0x3debbf6b	0.115111195
101	0xbe2df4b0	-0.16987872
102	0x3e05ae63	0.13054805
103	0x3dda850c	0.10669908
104	0x3cd6b65e	0.026210006
105	0xbcfd8bf8	-0.030950531
106	0xbe4e2d08	-0.20134366
107	0x3d44f99c	0.04808961
108	0x3da9023c	0.08252379
109	0xbca50a2e	-0.020146456
110	0xbdc47b04	-0.09593776
111	0xbd1f01e6	-0.03882017
112	0xbe2e51c0	-0.17023373
113	0xbcce027b	-0.025147667
114	0xbd599927	-0.053124573
115	0x3d8548d6	0.06508033
116	0x3d793623	0.060842644
117	0xbce9ebc3	-0.028554803
118	0xbe401c3f	-0.18760775
119	0xbc72ad2b	-0.014811794
120	0x3c55617c	0.01302373
121	0x3dfc0d94	0.12307277
122	0xbd1fef00	-0.039046288
123	0x3ccfb5dc	0.025355272
124	0x3d819f03	0.06329157
125	0xbc1121c2	-0.008858146
126	0x3da4cb50	0.08046591
127	0xbe2d5ee7	-0.16930734
128	0x3d86f2a3	0.06589248
129	0xbe228e06	-0.1587449
130	0xbc8e13de	-0.017343458
131	0xbd5a2a9a	-0.053263284
132	0xbe3a1e06	-0.18175516
133	0x3e34ef95	0.17669518
134	0xbd28ccaa	-0.041210808
135	0xbdcbbafe	-0.09947775
136	0x3dc6417d	0.0968046
137	0xbdd0c010	-0.10192883
138	0x3e06e172	0.13171938
139	0x3bfec253	0.00777463
140	0xbdc95a98	-0.098317325
141	0x3ccc9c1d	0.024976784
142	0xbd1d5786	-0.038413547
143	0xbdcc6c7e	-0.09981631
144	0x3bbc0b3f	0.0057386453
145	0x3d0cae71	0.034346048
146	0xbe36bff0	-0.17846656
147	0x3d806d3f	0.06270837
148	0xbd5e3be9	-0.054256354
149	0xbab2eb18	-0.0013650386
150	0x3e0d8b9b	0.13822787
151	0xbd555c68	-0.05209008
152	0x3d7b5e06	0.061368965
153	0xbd8b13c5	-0.0679088
154	0xbe091011	-0.13385035
155	0xbca1f5f0	-0.019770592
156	0xbdcba70a	-0.099439695
157	0x3d00b9f0	0.031427324
158	0x3dd335bc	0.103129834
159	0xbdb90089	-0.09033305
160	0x3c1e40cf	0.009659006
161	0x3d246fdd	0.040145744
162	0x3e0142e4	0.12623173
163	0xbdbc1810	-0.09184277
164	0x3d674705	0.056464214
165	0xbc4d54eb	-0.012532453
166	0x3d61bb38	0.055110186
167	0x3d9dd6ab	0.0770696
168	0xbda8d64e	-0.082440004
169	0xbdebccf5	-0.11513702
170	0x3c84b466	0.016199302
171	0xbd8ee428	-0.06977111
172	0x3d2e62bc	0.04257463
173	0xbd27f80c	-0.04100804
174	0x3dfb44dc	0.12268993
175	0xbd60bc6c	-0.054867193
176	0xbde67adf	-0.112539046
177	0x3c4270fd	0.011867759
178	0xbd554dbc	-0.052076086
179	0xbd5a8338	-0.053347796
180	0xbe53c83f	-0.20681857
181	0x3d0ba83f	0.034096
182	0xbc9cbc52	-0.019132767
183	0x3d02a8a3	0.031899106
184	0x3d500f7e	0.050796025
185	0xbdea000a	-0.11425789
186	0xba897a5b	-0.0010488735
187	0xbd6628f7	-0.05619141
188	0x3d1ca4db	0.038243156
189	0x3cfa1862	0.030529205
190	0xbe116255	-0.14197667
191	0x3e28c744	0.16482264
192	0xbdc236b7	-0.09483092
193	0x3d397d84	0.045285717
194	0xbdb6aadb	-0.08919307
195	0xbce4412a	-0.027863104
196	0x3d813901	0.06309701
197	0xbd9313fd	-0.07181547
198	0xbc802c5c	-0.015646152
199	0xbe49aea1	-0.19695522
200	0xbde15dbf	-0.11004209
201	0xbd989858	-0.07450932
202	0xbe04456a	-0.12917104
203	0xbddbdd89	-0.10735614
204	0xbdd1b912	-0.102403775
205	0xbdfcb9a1	-0.123400934
206	0xbe278eec	-0.16363114
207	0x3d2bc505	0.04193594
208	0xbce95cd8	-0.028486654
209	0x3c560416	0.013062498
210	0xbd8bcdd2	-0.068263665
211	0xbdf6575a	-0.1202838
212	0xbe0f8dbb	-0.1401891
213	0xbe101fc3	-0.14074616
214	0xbcaacd77	-0.020849926
215	0xbdd175a0	-0.10227513
216	0x3e087f16	0.1332973
217	0xbd831e7d	-0.064022996
218	0x3d838787	0.06422334
219	0x3e3db54d	0.18526192
220	0xbd750ef3	-0.05982871
221	0x3e16cd23	0.14726691
222	0xbe0f5c85	-0.14000137
223	0x3cb9d4af	0.022684423
224	0xbdb73c50	-0.089470506
225	0x3d097503	0.033558857
226	0xbdbaeff9	-0.091278024
227	0x39c41270	0.0003739777
228	0x3e043551	0.12910964
229	0x3de1f23f	0.11032533
230	0x3d2ec050	0.042663872
231	0x3c7f1e18	0.01557114
232	0x3d6dddc3	0.058072817
233	0x3df327e0	0.1187284
234	0xbca01efb	-0.019546023
235	0xbca05b94	-0.019574918
236	0x3cf61d54	0.030043282
237	0xbbdfbd00	-0.0068279505
238	0x3d555beb	0.052089613
239	0xbc6058dd	-0.013693062
240	0x3dae927a	0.08524032
241	0xbe91b827	-0.2846081
242	0x3d366866	0.044533156
243	0xbe00a469	-0.12562717
244	0x3c2b23d6	0.010445556
245	0x3e5a0f91	0.21295
246	0xbdd244d9	-0.10267038
247	0xbdd13083	-0.10214331
248	0xbdc8e6fa	-0.0980968
249	0xbd85189f	-0.06498837
250	0x3d5782b3	0.05261488
251	0x3c00f1bc	0.007870134
252	0xbe39263d	-0.18080993
253	0xbd11e2c7	-0.035616662
254	0x3cf965dc	0.030444078
255	0x3d3ed7ba	0.04659245

find.0.W_s_ f4 [120, 128]
0	0xc0b5bd13	-5.6793303
1	0xc0b499fc	-5.643797
2	0xc0dc608d	-6.886786
3	0xc0a28c7c	-5.079649
4	0xc09d3b1e	-4.9134665
5	0xc08ba35d	-4.363692
6	0xc0f22c4d	-7.567908
7	0xc0a4a853	-5.1455474
8	0xc09d0fe8	-4.9081917
9	0xc0999e19	-4.800549
10	0xc0a452c2	-5.1351023
11	0xc08b5635	-4.3542733
12	0xc09eeac5	-4.9661584
13	0xc0b9a547	-5.8014255
14	0xc09407d1	-4.625954
15	0xc08bf534	-4.373682
16	0xc0ab5562	-5.3541727
17	0xc084b80d	-4.147467
18	0xc0891f16	-4.2850447
19	0xc08f3511	-4.475228
20	0xc0a4e2d9	-5.1526914
21	0xc0a8d9b6	-5.276576
22	0xc0859da2	-4.1754923
23	0xc08da9fb	-4.4269996
24	0xc081ffd5	-4.0624795
25	0xc09137df	-4.53807
26	0xc09136d9	-4.5379453
27	0xc0907913	-4.5147796
28	0xc0989fad	-4.7694917
29	0xc0b5dd89	-5.683293
30	0xc0b1a5ee	-5.551505
31	0xc092fbe1	-4.593247
32	0xc0b1c6fb	-5.5555396
33	0xc09ad53a	-4.8385286
34	0xc08e964e	-4.4558477
35	0xc0956989	-4.6691327
36	0xc086f832	-4.2177973
37	0xc0c8391f	-6.256973
38	0xc09a560b	-4.8230033
39	0xc09835e3	-4.756578
40	0xc09ac96a	-4.8370867
41	0xc0825fb8	-4.0741844
42	0xc0b3ffb2	-5.624963
43	0xc09133f5	-4.5375924
44	0xc0823d13	-4.0699553
45	0xc09e1050	-4.9394913
46	0xc0915086	-4.5410795
47	0xc0969b94	-4.7064915
48	0xc0b067d2	-5.5126734
49	0xc08ee955	-4.465983
50	0xc08ee51f	-4.465469
51	0xc099a0ce	-4.8008795
52	0xc09cdebc	-4.9021893
53	0xc093c8cc	-4.6182613
54	0xc09a0417	-4.8129992
55	0xc0a53aab	-5.1634116
56	0xc0999e83	-4.8005996
57	0xc08cc973	-4.399591
58	0xc0a05330	-5.0101547
59	0xc09652f3	-4.6976256
60	0xc0bb376b	-5.850515
61	0xc092bd77	-4.585628
62	0xc09ca304	-4.8948994
63	0xc0997788	-4.795841
64	0xc09f2e73	-4.97442
65	0xc08914db	-4.283796
66	0xc0e1e65a	-7.059369
67	0xc0ad582d	-5.4170136
68	0xc0a86402	-5.262208
69	0xc093817e	-4.609557
70	0xc0a5d05f	-5.181686
71	0xc0b94311	-5.789437
72	0xc0a03be0	-5.007309
73	0xc087961b	-4.2370734
74	0xc0a00463	-5.0005355
75	0xc08a1724	-4.315325
76	0xc0908301	-4.5159917
77	0xc0a1b2e0	-5.0530853
78	0xc0bc756c	-5.8893337
79	0xc0b6a19b	-5.707227
80	0xc0b21081	-5.5645146
81	0xc0b6bb11	-5.7103353
82	0xc0b87851	-5.764687
83	0xc0be451f	-5.9459376
84	0xc088c5c1	-4.27414
85	0xc0982903	-4.7550063
86	0xc0b9e3c2	-5.8090525
87	0xc08f35cc	-4.475317
88	0xc0b74064	-5.72661
89	0xc09863f4	-4.7622013
90	0xc0b91aec	-5.7845364
91	0xc08a1392	-4.314889
92	0xc08a4885	-4.3213525
93	0xc0a3d340	-5.1195374
94	0xc0a6589b	-5.198316
95	0xc09d69f4	-4.9191837
96	0xc0b3fd81	-5.6246953
97	0xc089ef41	-4.310456
98	0xc09849f7	-4.759029
99	0xc09e1d99	-4.941113
100	0xc0a001f9	-5.000241
101	0xc090ecd3	-4.528909
102	0xc0a34334	-5.1019535
103	0xc095fc7c	-4.687071
104	0xc0a3c902	-5.118287
105	0xc096084e	-4.6885138
106	0xc090397a	-4.507016
107	0xc0c813f6	-6.2524366
108	0xc09c08ef	-4.8760905
109	0xc09ed3f6	-4.963374
110	0xc0924ced	-4.5718904
111	0xc0a65e59	-5.199017
112	0xc098c4cf	-4.7740245
113	0xc087e39b	-4.246534
114	0xc0ae8e3e	-5.4548635
115	0xc0969857	-4.706096
116	0xc0872594	-4.223337
117	0xc08969b3	-4.2941527
118	0xc0abf0c9	-5.3731427
119	0xc099e0ce	-4.808692
120	0xc0998b0b	-4.798223
121	0xc0a2d7e9	-5.088856
122	0xc0ac0931	-5.376122
123	0xc0a1742b	-5.0454307
124	0xc0a4ea3a	-5.153592
125	0xc09a67d1	-4.825173
126	0xc093bfec	-4.617178
127	0xc094295f	-4.63005
128	0xc08b5074	-4.353571
129	0xc0932c30	-4.599144
130	0xc0ae9dc8	-5.4567604
131	0xc09e34f9	-4.9439664
132	0xc080bb6c	-4.0228786
133	0xc08660ab	-4.1993003
134	0xc08bac7d	-4.3648057
135	0xc08cac1d	-4.39601
136	0xc09c63ea	-4.8871965
137	0xc0938cad	-4.6109223
138	0xc0d7a85d	-6.739302
139	0xc08de192	-4.4337854
140	0xc09053fd	-4.5102525
141	0xc0b94227	-5.789325
142	0xc08770f1	-4.232537
143	0xc0eadeb7	-7.339687
144	0xc09c1ec9	-4.878758
145	0xc08beac7	-4.3724093
146	0xc0b8d5dc	-5.776106
147	0xc08a8b70	-4.329521
148	0xc091cd98	-4.556347
149	0xc081f45a	-4.061078
150	0xc08040fb	-4.007932
151	0xc084dd1a	-4.15199
152	0xc0888e49	-4.267369
153	0xc08ce92c	-4.4034634
154	0xc087bb0e	-4.241584
155	0xc08a20ed	-4.3165193
156	0xc095e66a	-4.6843767
157	0xc094c2b6	-4.6487684
158	0xc08c0d3c	-4.3766155
159	0xc0a24e4f	-5.072059
160	0xc0931bca	-4.597142
161	0xc09bd507	-4.8697543
162	0xc0a8c222	-5.273698
163	0xc0948ff7	-4.642574
164	0xc0a19fcb	-5.050756
165	0xc08d91fd	-4.424071
166	0xc09c45af	-4.8835063
167	0xc09a118e	-4.814643
168	0xc09da1c0	-4.925995
169	0xc0a04af3	-5.009149
170	0xc09660a2	-4.699296
171	0xc09fd38c	-4.9945736
172	0xc0819685	-4.049624
173	0xc096891c	-4.704237
174	0xc09309d3	-4.5949492
175	0xc088ba42	-4.2727365
176	0xc0968c4f	-4.7046275
177	0xc08e0fe7	-4.439441
178	0xc0ab8ca8	-5.36092
179	0xc0941ee9	-4.628773
180	0xc08a90b2	-4.330163
181	0xc086bf14	-4.210825
182	0xc08541e8	-4.164295
183	0xc08e06e1	-4.4383397
184	0xc09ba988	-4.8644447
185	0xc082f40d	-4.0922914
186	0xc084490d	-4.1339173
187	0xc0ba042b	-5.813009
188	0xc0b3c39c	-5.617628
189	0xc0b5145e	-5.658736
190	0xc0ad25bc	-5.4108562
191	0xc09d4702	-4.914918
192	0xc088bbb9	-4.2729154
193	0xc083062d	-4.094504
194	0xc0b61dbc	-5.6911297
195	0xc0853597	-4.1627917
196	0xc086a4f7	-4.2076373
197	0xc0901c3d	-4.503447
198	0xc0b764ef	-5.731071
199	0xc0936477	-4.606014
200	0xc095d8e1	-4.6827245
201	0xc08a8260	-4.328415
202	0xc09f3237	-4.9748797
203	0xc094e4ec	-4.6529446
204	0xc0927d33	-4.577783
205	0xc09b970d	-4.862189
206	0xc0863f3d	-4.1952195
207	0xc08af476	-4.3423414
208	0xc09c320f	-4.8811107
209	0xc07d9e38	-3.962782
210	0xc0877faf	-4.2343364
211	0xc0aa1c0b	-5.315923
212	0xc08d9441	-4.4243474
213	0xc08786d1	-4.235207
214	0xc08541e1	-4.164292
215	0xc0895fcb	-4.2929435
216	0xc08db957	-4.4288745
217	0xc0b8fb0c	-5.7806454
218	0xc0afe070	-5.496147
219	0xc08ea10d	-4.4571595
220	0xc0acf640	-5.40506
221	0xc0c4ce16	-6.150157
222	0xc0c672c6	-6.2015104
223	0xc08be46e	-4.3716345
224	0xc094d471	-4.650933
225	0xc086b1cf	-4.209205
226	0xc0ca1b3d	-6.315825
227	0xc0a5d628	-5.182392
228	0xc0be9674	-5.955866
229	0xc093eb0e	-4.622443
230	0xc0a21780	-5.0653687
231	0xc091cbe5	-4.5561395
232	0xc08d04ba	-4.406827
233	0xc089abd7	-4.3022265
234	0xc099c61a	-4.8054323
235	0xc0b3583d	-5.6045213
236	0xc08da104	-4.425905
237	0xc0ae5fcf	-5.4491954
238	0xc0de6079	-6.9492764
239	0xc0802419	-4.0044065
240	0xc085aec7	-4.177585
241	0xc089d3d1	-4.3071065
242	0xc0809e4f	-4.019325
243	0xc093f236	-4.623317
244	0xc089dfb8	-4.3085594
245	0xc07b1bf6	-3.9235816
246	0xc0c28ba7	-6.0795474
247	0xc08b7490	-4.357979
248	0xc0a7591e	-5.2296286
249	0xc0a5df56	-5.1835127
250	0xc08ec348	-4.461338
251	0xc08a9b04	-4.331423
252	0xc08e5b4a	-4.4486437
253	0xc0897cce	-4.296485
254	0xc088c393	-4.273874
255	0xc07f56aa	-3.9896646

find.0.bias_m f4 [128]
0	0x3cd97c19	0.026548432
1	0xbd6228e2	-0.05521477
2	0x3d9b7c73	0.07592096
3	0xbcdbea9a	-0.026845265
4	0xbbfdda96	-0.0077470047
5	0x3ca59a03	0.02021504
6	0x3d07fa8a	0.033197917
7	0xbd68c970	-0.05683273
8	0x3bb4f1f0	0.0055220053
9	0xbd5f52be	-0.05452227
10	0xbd6d03d0	-0.057864964
11	0x3d53c518	0.051701635
12	0x3c1872c3	0.009304705
13	0xbcc50d0a	-0.02405407
14	0xbd863be1	-0.0655439
15	0xbd8a951b	-0.06766721
16	0x3dc519cc	0.09624061
17	0x3ca18ac7	0.019719495
18	0xbda00538	-0.078134954
19	0xbd3d0cd3	-0.04615481
20	0xbd3d79ab	-0.04625861
21	0xbd24fc09	-0.040279422
22	0x3e0a3c20	0.13499498
23	0xbdb6d3a2	-0.089270845
24	0xbd6f08d0	-0.058358014
25	0x3c60b7ba	0.013715679
26	0x3d6e797d	0.05822133
27	0x3c958bdd	0.018255169
28	0xbd5e9243	-0.054338705
29	0xbd6342de	-0.05548369
30	0xba3da73a	-0.00072346965
31	0x3b8b7d95	0.004256914
32	0xbd994803	-0.07484438
33	0x3ae48dfa	0.0017437332
34	0xbc832086	-0.01600672
35	0x3ca6a9bf	0.020344613
36	0x3d167dbe	0.03674101
37	0xbd8e49dc	-0.06947681
38	0xbd4a5ffe	-0.04940795
39	0xbde3ba91	-0.11119569
40	0xbcfdd202	-0.030983929
41	0x3c81f880	0.015865564
42	0xbd8eba8f	-0.06969177
43	0x3c3fb20b	0.011700164
44	0xbd2ab5fd	-0.041677464
45	0x3c49cd4f	0.012317016
46	0xbd9036cb	-0.07041701
47	0xbe00e48a	-0.1258718
48	0xbd44888e	-0.04798179
49	0x3d7273ae	0.059192352
50	0x3d569312	0.05238635
51	0xbd5e85d4	-0.054326847
52	0xbca77144	-0.020439751
53	0x3d17ae38	0.037031382
54	0x3b86683f	0.0041017826
55	0x3c52f261	0.01287517
56	0xbd318bbc	-0.04334615
57	0xbdd1aca3	-0.10238006
58	0xbda34d51	-0.07973731
59	0xbce68fbd	-0.028144712
60	0xbc054a67	-0.008135415
61	0xbbc2769b	-0.005934549
62	0x3cb593ea	0.022165257
63	0xbd1f5adf	-0.03890502
64	0xbbbc2bc5	-0.0057425224
65	0x3d232e32	0.039838977
66	0xbd0298b9	-0.03188393
67	0xbddae446	-0.10688071
68	0xbd74d5e4	-0.059774294
69	0xbb72cae4	-0.0037047202
70	0xbd9d6281	-0.07684804
71	0x3ca6321b	0.020287564
72	0xbd48239e	-0.048862092
73	0xbdb97d08	-0.09057051
74	0xbd4d8617	-0.050176706
75	0x3c4e13a1	0.012577922
76	0x3d32dce1	0.043667678
77	0xbd8d20d3	-0.06891026
78	0x3cb3c1ad	0.021942938
79	0x3d91e308	0.07123381
80	0xbc4343f5	-0.011918058
81	0xbd9cce8e	-0.07656585
82	0x3d077dc8	0.03307894
83	0x3c994321	0.018708767
84	0xbb5c74d5	-0.0033638973
85	0xbdaeb37c	-0.08530328
86	0xbb9b2da6	-0.0047356663
87	0x3d08b729	0.0333778
88	0xbda92f31	-0.08260954
89	0x3cf9f6ae	0.030513134
90	0x3aafdc44	0.0013417085
91	0xba5bb956	-0.0008381804
92	0x3b6e3c61	0.0036351907
93	0x3c931f9a	0.017959405
94	0xbd9faee4	-0.077970296
95	0xbd89a981	-0.067217834
96	0x3dadc76e	0.08485304
97	0x3c5f8c0f	0.013644232
98	0x3d27fff7	0.04101559
99	0xbd78c64f	-0.060735997
100	0x3daf34b6	0.08554976
101	0xbd44dc06	-0.048061393
102	0x3c0a6d8a	0.008448968
103	0xbdaf85b0	-0.08570421
104	0xbc761079	-0.015018576
105	0xbd93943c	-0.07206008
106	0x3c7f86d4	0.01559611
107	0xbd2ff84a	-0.042961396
108	0x3ccdd387	0.025125278
109	0xbd5baf8c	-0.05363421
110	0xbd200383	-0.03906585
111	0xbc8353af	-0.016031114
112	0xbda5ed60	-0.08101916
113	0x3bdf3cb6	0.006812657
114	0xbdc1b14e	-0.09457646
115	0x3c366415	0.01113226
116	0xbbdba3fe	-0.006702899
117	0xbcd0d0c2	-0.025490168
118	0x3ce7f51a	0.028315116
119	0x3d0e285f	0.03470647
120	0xbd35cd61	-0.044385318
121	0xbd281e38	-0.041044444
122	0x3d836f7e	0.0641775
123	0xbd890542	-0.06690456
124	0x3c8adb8e	0.016950395
125	0xbd917697	-0.07102697
126	0xbc4a1984	-0.012335185
127	0x3d3549e6	0.04425993

find.0.bias_s_ f4 [128]
0	0xc0c9e679	-6.309384
1	0xc0db9715	-6.8621926
2	0xc0c6316a	-6.193532
3	0xc0db2f20	-6.8495026
4	0xc0c52509	-6.160771
5	0xc0c5ed5d	-6.185225
6	0xc0d8c317	-6.7738147
7	0xc0d6b0d6	-6.7090864
8	0xc0d16d86	-6.5446196
9	0xc0c7a8a1	-6.2393346
10	0xc0e211d6	-7.0646772
11	0xc0c3a0e7	-6.1133914
12	0xc0da66a2	-6.8250284
13	0xc0deb270	-6.959282
14	0xc0d5361e	-6.662856
15	0xc0cdfa96	-6.436839
16	0xc0c3d802	-6.120118
17	0xc0c2c37f	-6.0863643
18	0xc0ca6d30	-6.3258286
19	0xc0c600d9	-6.1876035
20	0xc0daf93b	-6.8429236
21	0xc0cc8507	-6.3912387
22	0xc0c14d3c	-6.040678
23	0xc0d00851	-6.501015
24	0xc0c6ae7c	-6.2087994
25	0xc0d2f5c5	-6.592501
26	0xc0c22015	-6.0664163
27	0xc0d26e78	-6.575985
28	0xc0dccd88	-6.9000893
29	0xc0d46e51	-6.6384664
30	0xc0df06b9	-6.9695706
31	0xc0c6f6f6	-6.2176466
32	0xc0da791a	-6.827283
33	0xc0dc4857	-6.8838305
34	0xc0cbead5	-6.372416
35	0xc0c301f5	-6.093989
36	0xc0c3fe83	-6.1248183
37	0xc0d9b4ed	-6.8033357
38	0xc0da741c	-6.8266735
39	0xc0dbd0f6	-6.869258
40	0xc0dd63c6	-6.9184294
41	0xc0c467c3	-6.137666
42	0xc0e2984c	-7.081091
43	0xc0c54084	-6.1641254
44	0xc0c4238f	-6.1293406
45	0xc0d9bfed	-6.8046784
46	0xc0d9a563	-6.801439
47	0xc0d6c28d	-6.711249
48	0xc0d4d347	-6.6507907
49	0xc0d0d0c5	-6.5254846
50	0xc0cf0c82	-6.470277
51	0xc0dd6404	-6.918459
52	0xc0da5cea	-6.823842
53	0xc0c96bcd	-6.2944093
54	0xc0c736d5	-6.2254434
55	0xc0cf0778	-6.4696617
56	0xc0db8bd5	-6.8608193
57	0xc0d40620	-6.6257477
58	0xc0d6c4c8	-6.711521
59	0xc0dcb182	-6.8966684
60	0xc0dfe170	-6.996269
61	0xc0ddaa7f	-6.9270625
62	0xc0d79353	-6.736734
63	0xc0dd0532	-6.906884
64	0xc0c67924	-6.2022877
65	0xc0c47af0	-6.140007
66	0xc0df274f	-6.9735484
67	0xc0d3051c	-6.5943737
68	0xc0dbcf2a	-6.8690386
69	0xc0cbb6c5	-6.3660607
70	0xc0d256fc	-6.573118
71	0xc0d553dc	-6.6664867
72	0xc0dcc10b	-6.898565
73	0xc0cc7c54	-6.390177
74	0xc0c83fad	-6.257773
75	0xc0cab921	-6.3350987
76	0xc0cbc263	-6.367479
77	0xc0cc2b15	-6.380259
78	0xc0c97dd5	-6.2966104
79	0xc0d1157f	-6.533874
80	0xc0ddc6bf	-6.930511
81	0xc0cb99d8	-6.3625298
82	0xc0dd49f8	-6.9152794
83	0xc0c9a708	-6.3016396
84	0xc0ca47fc	-6.321287
85	0xc0d70790	-6.719673
86	0xc0d7df0c	-6.7459774
87	0xc0c35c2b	-6.105001
88	0xc0dfe2e9	-6.996449
89	0xc0c31bce	-6.097144
90	0xc0db1237	-6.8459735
91	0xc0c742c1	-6.2268987
92	0xc0c379f9	-6.1086392
93	0xc0c355a7	-6.1042056
94	0xc0c9950c	-6.299444
95	0xc0d8362b	-6.7566123
96	0xc0d182c4	-6.5472126
97	0xc0c307e5	-6.0947137
98	0xc0db53b2	-6.8539667
99	0xc0e04d99	-7.0094724
100	0xc0d8e075	-6.7773995
101	0xc0d6857e	-6.7037954
102	0xc0d93b53	-6.7884917
103	0xc0d9cbda	-6.806134
104	0xc0de2c97	-6.942943
105	0xc0d5b512	-6.6783533
106	0xc0c63eb0	-6.1951523
107	0xc0d46504	-6.637331
108	0xc0c46ef7	-6.1385455
109	0xc0deb559	-6.959637
110	0xc0deea43	-6.9660964
111	0xc0cd16dd	-6.409041
112	0xc0d0ad37	-6.5211444
113	0xc0c2abbe	-6.0834646
114	0xc0d0d6ca	-6.5262194
115	0xc0d505b5	-6.6569467
116	0xc0c74fee	-6.228507
117	0xc0c8a3ed	-6.2700105
118	0xc0cf9a3e	-6.4875784
119	0xc0c6945f	-6.2056117
120	0xc0d88065	-6.765673
121	0xc0dc0b60	-6.8763885
122	0xc0c8e622	-6.2780924
123	0xc0dc0ab4	-6.8763065
124	0xc0ca6a7d	-6.325499
125	0xc0dc9f38	-6.894436
126	0xc0c90e42	-6.2829905
127	0xc0c3ce8e	-6.118964

find.2.W_m f4 [128, 128]
0	0x3d7896df	0.060690757
1	0xbe620e57	-0.22075783
2	0xbe05da82	-0.13071635
3	0xbd71fad8	-0.059077114
4	0xbe940e53	-0.2891718
5	0x3d84305c	0.06454536
6	0xbdb4ad54	-0.08822122
7	0x3e8021a4	0.25025666
8	0xbe6f90b3	-0.23395042
9	0xbd85d238	-0.06534237
10	0xbdcbb35e	-0.09946321
11	0x3d9078e9	0.07054312
12	0x3d8f8a98	0.070088565
13	0xbe53a73c	-0.20669264
14	0xbe5d7dd0	-0.21630025
15	0xbdf67b37	-0.1203522
16	0xbe4d99e9	-0.20078243
17	0x3e3d342f	0.18476938
18	0xbe40a054	-0.1881116
19	0xbddf9d30	-0.10918653
20	0xbe853a9d	-0.2602128
21	0x3e0153fd	0.12629695
22	0xbd0617e6	-0.032737635
23	0x3e0ee03a	0.13952723
24	0x3d30d0cb	0.04316787
25	0xbdf14d98	-0.11782378
26	0xbd833a4a	-0.06407602
27	0xbdd95d54	-0.10613504
28	0x3dd8d06f	0.105866306
29	0xbe57e936	-0.21085057
30	0x3e365b76	0.17808327
31	0x3dde8442	0.1086507
32	0x3d3dd160	0.046342254
33	0x3e820039	0.25390795
34	0xbd371e2d	-0.044706512
35	0xbe350cdd	-0.17680688
36	0xbe5ced18	-0.21574819
37	0xbd853368	-0.065039456
38	0xbe3f26fb	-0.18667214
39	0x3c4f71e1	0.012661428
40	0xbe1c7943	-0.15280633
41	0xbe2efee6	-0.17089424
42	0x3db071e9	0.08615477
43	0x3d25d40d	0.04048543
44	0x3dbd71a0	0.09250188
45	0x3e705fc2	0.23474029
46	0x3e6cbdba	0.2311925
47	0x3e395a51	0.18100859
48	0x3e0901ef	0.13379644
49	0xbd039063	-0.03212012
50	0xbe53fde8	-0.20702326
51	0x3e83456c	0.25638902
52	0x3d57fd02	0.05273152
53	0xbda14f71	-0.0787648
54	0x3dd86092	0.10565294
55	0xbe2cef63	-0.16888194
56	0x3bbb467d	0.00571519
57	0xbe33924f	-0.17536281
58	0x3bd47376	0.0064834906
59	0x3d3df995	0.046380598
60	0xbdf3a9d5	-0.11897627
61	0xbe17491a	-0.1477398
62	0xbdba1a86	-0.0908709
63	0xbe8b74e6	-0.27237624
64	0xbe7c037a	-0.24610701
65	0xbdc62d92	-0.096766606
66	0xbded321c	-0.11581823
67	0xbcbfaeeb	-0.023398837
68	0xbcddcf4e	-0.02707639
69	0x3bd6d628	0.006556291
70	0x3e141b47	0.1446353
71	0xbe535d41	-0.20641042
72	0x3d3885f1	0.04504961
73	0xbe34a386	-0.17640504
74	0x3e8c226b	0.2737001
75	0xbe2542eb	-0.16138808
76	0x3d7cd7c1	0.061729196
77	0x3dc5af34	0.09652558
78	0x3e3ec0d6	0.18628249
79	0xbd29e825	-0.041481156
80	0x3e7fd133	0.24982147
81	0x3e5fc4ed	0.21852465
82	0xbe0d1137	-0.13776098
83	0x3ddab6f3	0.10679426
84	0xbddc66e1	-0.1076181
85	0xbe3db96b	-0.18527763
86	0x3e667fd1	0.22509696
87	0xbdbd2ed0	-0.092374444
88	0xbe0e34fe	-0.13887402
89	0x3e1c51a3	0.15265517
90	0xbe03d3fd	-0.12873836
91	0xbe74787c	-0.23874086
92	0x3d6b8945	0.057503957
93	0x3dfc41ca	0.12317236
94	0x3e2e3443	0.17012124
95	0xbdf540dc	-0.119752616
96	0xbd6a167d	-0.057150353
97	0xbe5ab920	-0.21359682
98	0xbe4fc316	-0.20289263
99	0x3df10e98	0.11770362
100	0x3e20ffa6	0.15722522
101	0xbe825624	-0.25456345
102	0xbe88c964	-0.2671615
103	0x3d7fcc6a	0.062450804
104	0x3c0f149b	0.00873294
105	0x3e222e5d	0.15837999
106	0x3e1d8a4c	0.15384787
107	0x3db3182c	0.08744845
108	0x3e883675	0.26604047
109	0x3db37bd4	0.08763853
110	0xbe297aee	-0.165508
111	0xbc9f2fc9	-0.019431965
112	0x3d8bb15a	0.068209365
113	0x3e86352b	0.2621244
114	0xbe3e3a75	-0.18576987
115	0xbe640830	-0.22268748
116	0xbe83d954	-0.25751746
117	0xbdc756b9	-0.09733338
118	0xbe53354a	-0.20625797
119	0xbdffaa6e	-0.12483679
120	0xbe217552	-0.1576741
121	0x3cbe3c2c	0.023222052
122	0x3e5dd553	0.21663408
123	0xbe3d798d	-0.18503399
124	0xbe79accf	-0.24382327
125	0xbdcd56a3	-0.1002629
126	0xbe6a59cb	-0.22885816
127	0xbe50e762	-0.20400766
128	0xbe219da2	-0.15782788
129	0xbe1060e3	-0.1409946
130	0x3d3cc8d8	0.046089977
131	0xbe276897	-0.16348492
132	0x3bcf19bb	0.006320206
133	0xbdfff8e7	-0.12498646
134	0xbe7f7b86	-0.24949464
135	0x3df490b6	0.11941664
136	0xbe239078	-0.15973079
137	0xbe8d120d	-0.27552834
138	0x3d8bd8a7	0.068284325
139	0xbbcf63cd	-0.006329036
140	0xbc54b791	-0.012983219
141	0xbe89e9e2	-0.2693625
142	0x3e4c7861	0.19967796
143	0x3d3fed3a	0.046857096
144	0x3d27c815	0.040962297
145	0xbe1a9cd9	-0.15098895
146	0xbe3c5774	-0.18392736
147	0xbe654526	-0.2238966
148	0xbe59215a	-0.21204129
149	0xbd370ea9	-0.044691715
150	0xbe34c4a0	-0.17653131
151	0xbe261c87	-0.1622182
152	0x3d3a6185	0.045503158
153	0xbe8a66d5	-0.2703158
154	0xbde9bd1f	-0.11413025
155	0x3d513a40	0.051080942
156	0x3de4616c	0.11151394
157	0xbdb3d79f	-0.08781361
158	0xbd270cb7	-0.04078361
159	0xbdcd155a	-0.10013838
160	0x3d3e6873	0.04648633
161	0x3df48b22	0.119406
162	0xbc3f7658	-0.01168593
163	0xbe541196	-0.20709834
164	0x3bcd5258	0.0062659197
165	0xbd5739d3	-0.05254538
166	0xbd853082	-0.06503393
167	0xbdd9841d	-0.10620902
168	0xbe4cb9ac	-0.19992703
169	0x3c3eb2b7	0.011639289
170	0xba8d12ee	-0.0010763088
171	0x3b9c15ee	0.0047633564
172	0x3d919623	0.071087144
173	0xbbb46d0f	-0.005506165
174	0xbe01ea49	-0.12687029
175	0xbe028686	-0.12746629
176	0xbe4aab17	-0.19791828
177	0xbe578cfc	-0.21049875
178	0xbe120ba0	-0.14262247
179	0x3da6cdec	0.08144745
180	0xbe69add4	-0.22820216
181	0x3c62cd65	0.013842915
182	0x3b07f485	0.002074511
183	0xbd7b80dd	-0.06140219
184	0xbe6ce352	-0.23133591
185	0x3decc54f	0.11561071
186	0x3d8202b9	0.063481756
187	0xbd873c5c	-0.066033095
188	0xbe38282a	-0.17984071
189	0xbe6127af	-0.21987794
190	0xbe81aef4	-0.2532879
191	0xbe960775	-0.29302564
192	0x3d90f17b	0.07077309
193	0xbdaa661f	-0.08320259
194	0xbe14e10c	-0.14538974
195	0xbdf27768	-0.11839181
196	0xbdfa884b	-0.12233027
197	0xbe71464b	-0.23561971
198	0xbc0b47ab	-0.008500974
199	0xbd09af95	-0.033614714
200	0xbdb3596b	-0.087572895
201	0xbd90e79b	-0.07075425
202	0xbe15274a	-0.14565769
203	0x3c3240bd	0.010879693
204	0x3da70d12	0.0815679
205	0xbe35a52f	-0.17738794
206	0x3bc97c38	0.006148841
207	0xbe507b3d	-0.20359512
208	0x3d78a1ad	0.06070106
209	0xbd94fb64	-0.072745115
210	0x3cefab89	0.029256599
211	0xbc1a0212	-0.009399908
212	0xbdad550f	-0.08463489
213	0xbe4b7ce2	-0.19871858
214	0x3d8a22d4	0.06744924
215	0xbd9a311b	-0.075288974
216	0xbdca01ff	-0.09863662
217	0xbdfe6310	-0.124212384
218	0x3d56e31b	0.05246268
219	0xbd8216c7	-0.06352001
220	0x3c425c14	0.011862773
221	0xbdcc444d	-0.09973965
222	0xbd1b2116	-0.03787335
223	0xbe0bf29e	-0.1366677
224	0xbe3948fc	-0.18094248
225	0xbd937cdd	-0.0720155
226	0xbe7f232d	-0.24915762
227	0xbdd7bf09	-0.10534484
228	0x3dd0dce2	0.1019838
229	0x3ce859b4	0.028363086
230	0xbc2d70c1	-0.010585965
231	0x3af56089	0.0018720786
232	0xbe487e43	-0.19579415
233	0x3d35fb0b	0.044428866
234	0x3bda151c	0.0066553485
235	0xbdc5d378	-0.09659475
236	0x3e037f75	0.1284159
237	0xbe55a5df	-0.20864056
238	0x3d54bfc8	0.05194071
239	0xbe554d2a	-0.20830217
240	0xbe4ba7e8	-0.1988827
241	0x3be5042d	0.006989023
242	0xbd2a7133	-0.04161186
243	0xbe5b969c	-0.21444172
244	0x39f0c6da	0.00045924523
245	0xbdf9a1d9	-0.12189073
246	0xbd553f7c	-0.052062497
247	0xbd678aa3	-0.0565287
248	0xbdc6d1fa	-0.097080186
249	0xbe51c209	-0.20484175
250	0xbd81108e	-0.06301986
251	0xbe567128	-0.20941603
252	0xbdaa0604	-0.08301929
253	0xbe83e026	-0.2575695
254	0xbe3d23fa	-0.18470755
255	0xbe763e9e	-0.24047324

find.2.W_s_ f4 [128, 128]
0	0xc0bb9ce9	-5.862904
1	0xc087cfae	-4.2441015
2	0xc09f2c39	-4.9741483
3	0xc0839d00	-4.112915
4	0xc09012b0	-4.502281
5	0xc073b011	-3.8076212
6	0xc0a320b3	-5.0977416
7	0xc093a09b	-4.613355
8	0xc0867358	-4.20158
9	0xc09c9269	-4.8928723
10	0xc0a84d96	-5.259471
11	0xc073cffc	-3.8095694
12	0xc08df827	-4.436542
13	0xc0e261ae	-7.074424
14	0xc0a3b7b4	-5.1161747
15	0xc094722c	-4.638937
16	0xc08a6cd1	-4.3257833
17	0xc0824156	-4.0704756
18	0xc08475fa	-4.1394014
19	0xc09ac86d	-4.836966
20	0xc08f9ebd	-4.488127
21	0xc091220a	-4.535405
22	0xc08a8e9e	-4.3299093
23	0xc08dd1b3	-4.431848
24	0xc097e2ad	-4.7464204
25	0xc0bbca08	-5.868412
26	0xc0984229	-4.758076
27	0xc0cccc55	-6.399943
28	0xc07371a5	-3.8038113
29	0xc08c68ef	-4.3878093
30	0xc06b77c9	-3.679186
31	0xc07aa4d6	-3.9163108
32	0xc082e529	-4.0904737
33	0xc07dfaa8	-3.9684238
34	0xc07be6b2	-3.9359555
35	0xc090db67	-4.5267825
36	0xc085b63b	-4.178495
37	0xc0907a97	-4.5149646
38	0xc085dc37	-4.1831317
39	0xc08cec4b	-4.4038444
40	0xc08daa12	-4.4270105
41	0xc0914667	-4.539844
42	0xc076430d	-3.8478425
43	0xc070de0b	-3.7635524
44	0xc07ed820	-3.9819412
45	0xc09882fb	-4.765989
46	0xc0758d76	-3.836759
47	0xc0789aa9	-3.8844397
48	0xc0a1143f	-5.0337214
49	0xc098a971	-4.770684
50	0xc07e4700	-3.9730835
51	0xc08d5d26	-4.4176207
52	0xc0a5266c	-5.16094
53	0xc0802769	-4.004811
54	0xc0893c56	-4.288615
55	0xc0837214	-4.1076756
56	0xc0ca7623	-6.326921
57	0xc09b033e	-4.844146
58	0xc083f4c2	-4.1236277
59	0xc084b71f	-4.1473536
60	0xc093c702	-4.618043
61	0xc0d63a7b	-6.6946387
62	0xc0aca556	-5.3951826
63	0xc09217b4	-4.5653934
64	0xc0c7468d	-6.227362
65	0xc08ece48	-4.462681
66	0xc093ffe7	-4.624988
67	0xc09d8c50	-4.923378
68	0xc08d6450	-4.418495
69	0xc0992175	-4.785334
70	0xc084aac2	-4.1458445
71	0xc08652dc	-4.1976147
72	0xc0937d5b	-4.609052
73	0xc0a1a73e	-5.0516653
74	0xc088147d	-4.252501
75	0xc07c24fe	-3.9397578
76	0xc08aef03	-4.341676
77	0xc073c781	-3.8090518
78	0xc0956da9	-4.6696362
79	0xc0b31d4a	-5.5973253
80	0xc0882c31	-4.2553945
81	0xc07dbf82	-3.9648137
82	0xc0807083	-4.0137343
83	0xc07f5f37	-3.9901865
84	0xc09e109a	-4.9395266
85	0xc097c084	-4.7422504
86	0xc0739983	-3.8062446
87	0xc08f9898	-4.487377
88	0xc0963e72	-4.6951227
89	0xc079ab47	-3.901079
90	0xc08cddb3	-4.402063
91	0xc0880f2a	-4.251851
92	0xc0a42ecf	-5.130714
93	0xc081ed97	-4.0602527
94	0xc06c10e6	-3.6885314
95	0xc09ee01d	-4.9648576
96	0xc0934c47	-4.603061
97	0xc09bc63b	-4.867948
98	0xc0a9ae90	-5.302559
99	0xc07b8043	-3.9297035
100	0xc0827dbd	-4.077849
101	0xc08dd004	-4.4316425
102	0xc08aae6d	-4.333792
103	0xc07f5e38	-3.9901257
104	0xc08c1f21	-4.3788
105	0xc06a2c78	-3.6589642
106	0xc0a1b460	-5.0532684
107	0xc09457b7	-4.6357074
108	0xc079ebe0	-3.9050217
109	0xc0a667ff	-5.200195
110	0xc08a3004	-4.3183613
111	0xc0a1f708	-5.061405
112	0xc0908f6f	-4.517509
113	0xc06b785d	-3.6792214
114	0xc0816e96	-4.0447493
115	0xc0c69499	-6.2056394
116	0xc0a8a5e7	-5.2702518
117	0xc08d9330	-4.424217
118	0xc09f3bb0	-4.976036
119	0xc0929b2d	-4.5814424
120	0xc0c9d323	-6.3070235
121	0xc089b462	-4.3032694
122	0xc0900973	-4.5011535
123	0xc0fac33f	-7.8363338
124	0xc08c9f61	-4.3944554
125	0xc0a32fa5	-5.099566
126	0xc08ce26d	-4.40264
127	0xc0be73a6	-5.9516172
128	0xc09d17ac	-4.9091396
129	0xc08b4b20	-4.3529205
130	0xc0860cd0	-4.189064
131	0xc0883955	-4.2569985
132	0xc08fbc75	-4.491755
133	0xc0a09773	-5.0184875
134	0xc0aa225a	-5.3166933
135	0xc0857914	-4.17103
136	0xc08279f4	-4.077387
137	0xc0c4db30	-6.1517563
138	0xc07eab7c	-3.9792166
139	0xc08e4c14	-4.446787
140	0xc08ce66a	-4.4031267
141	0xc0ccfbb7	-6.405727
142	0xc09031a2	-4.5060587
143	0xc0829fbf	-4.0820003
144	0xc080b138	-4.021633
145	0xc0826c3e	-4.075713
146	0xc09592bc	-4.674162
147	0xc0c63247	-6.1936374
148	0xc0c8ccba	-6.274991
149	0xc0894f96	-4.290965
150	0xc0b0e52b	-5.5279746
151	0xc082bab9	-4.0852933
152	0xc0893e37	-4.2888446
153	0xc0c996b5	-6.299647
154	0xc0883894	-4.2569065
155	0xc08081ed	-4.01586
156	0xc074306e	-3.815456
157	0xc07b0872	-3.9223905
158	0xc09399de	-4.6125326
159	0xc0a0ce99	-5.0252194
160	0xc09baa36	-4.8645277
161	0xc086fcf9	-4.2183805
162	0xc08cd2de	-4.4007406
163	0xc09ec2d6	-4.9612837
164	0xc0938242	-4.6096506
165	0xc0a31d82	-5.097352
166	0xc08b2ddb	-4.3493476
167	0xc08010bc	-4.002043
168	0xc094c0f9	-4.648556
169	0xc08115a7	-4.033893
170	0xc0831031	-4.0957265
171	0xc07f388d	-3.9878266
172	0xc07dac61	-3.9636462
173	0xc07c5256	-3.9425254
174	0xc0817387	-4.0453525
175	0xc0a66552	-5.199868
176	0xc0827c95	-4.077708
177	0xc0b6ed04	-5.7164326
178	0xc082a938	-4.0831566
179	0xc087e6a7	-4.246906
180	0xc092a9da	-4.583234
181	0xc0815d51	-4.042641
182	0xc0965348	-4.697666
183	0xc07531e0	-3.8311691
184	0xc08a67f8	-4.3251915
185	0xc0a05f1b	-5.0116096
186	0xc09295dd	-4.580794
187	0xc0932cf6	-4.5992384
188	0xc0abab37	-5.3646502
189	0xc0ba5dd3	-5.823953
190	0xc0bc8954	-5.8917637
191	0xc0a36825	-5.106463
192	0xc08b56c2	-4.3543406
193	0xc0776280	-3.865387
194	0xc0aff58c	-5.498724
195	0xc0940fc2	-4.6269236
196	0xc0847ea6	-4.14046
197	0xc093d65f	-4.6199183
198	0xc0a0f4bc	-5.029875
199	0xc07f3f3d	-3.9882348
200	0xc09f3b9b	-4.976026
201	0xc0a09eb4	-5.019373
202	0xc09679b7	-4.702358
203	0xc07faa5f	-3.9947736
204	0xc0c469c9	-6.137913
205	0xc08b76e5	-4.3582635
206	0xc08807de	-4.2509604
207	0xc093c011	-4.6171956
208	0xc09ffb7c	-4.999449
209	0xc0821b2e	-4.065818
210	0xc090d60a	-4.526128
211	0xc07a91e8	-3.9151554
212	0xc08d32f4	-4.41247
213	0xc0975cc6	-4.730075
214	0xc089238c	-4.285589
215	0xc09b06d4	-4.8445835
216	0xc08eadea	-4.4587297
217	0xc08a507a	-4.322324
218	0xc08c38f7	-4.3819537
219	0xc08aa0d8	-4.3321342
220	0xc07f7058	-3.991232
221	0xc0a64703	-5.1961684
222	0xc07b8323	-3.929879
223	0xc097c0b9	-4.7422757
224	0xc0977bb1	-4.733849
225	0xc085b4b9	-4.178311
226	0xc0ad43c0	-5.4145203
227	0xc0a0f31f	-5.029678
228	0xc09b7ae8	-4.858753
229	0xc07d7885	-3.960481
230	0xc0855611	-4.166756
231	0xc08c851b	-4.391248
232	0xc09c04d5	-4.87559
233	0xc08c0de1	-4.376694
234	0xc08a5517	-4.322887
235	0xc08523e2	-4.16063
236	0xc0846ba9	-4.138142
237	0xc0846f34	-4.1385746
238	0xc08036a7	-4.0066714
239	0xc093f4d1	-4.623635
240	0xc08a2cf6	-4.3179884
241	0xc093935b	-4.6117377
242	0xc08b9be9	-4.362782
243	0xc08f39ef	-4.475822
244	0xc07c5edb	-3.9432895
245	0xc097b716	-4.7410994
246	0xc097378e	-4.7255316
247	0xc105d89f	-8.365386
248	0xc093e487	-4.6216464
249	0xc08cd0af	-4.400474
250	0xc08adc08	-4.3393593
251	0xc09ef238	-4.9670677
252	0xc08617c1	-4.1903996
253	0xc0c65747	-6.198154
254	0xc0912046	-4.5351896
255	0xc0b8efc7	-5.7792697

find.2.bias_m f4 [128]
0	0xbd55f734	-0.052237704
1	0xbd459f97	-0.0482479
2	0x3c34bc65	0.011031245
3	0xbd0b2792	-0.033973284
4	0xbcdf8663	-0.02728576
5	0xbdabd88e	-0.08390914
6	0xbda8073a	-0.08204503
7	0xbce37495	-0.027765552
8	0xbd49d8db	-0.049279075
9	0xbd8d2d70	-0.06893432
10	0xbcff55d5	-0.031168858
11	0xbdc2b40d	-0.09506998
12	0xbd8eb49e	-0.06968044
13	0xbdb5d6dd	-0.088788725
14	0x3c43d18e	0.011951817
15	0x3aa48845	0.0012552819
16	0x3cada927	0.021198822
17	0xbdb64fbc	-0.08901927
18	0x3bd5cbbb	0.0065245307
19	0xbd942472	-0.07233514
20	0xbd08c4eb	-0.03339092
21	0xbd6188b6	-0.05506202
22	0xbda8c25a	-0.082401946
23	0xbd6d476a	-0.057929434
24	0xbd3f86e2	-0.046759494
25	0xbda32cb9	-0.079675145
26	0xbd330ab3	-0.043711375
27	0xbd354707	-0.04425719
28	0xbd91cb5e	-0.07118867
29	0xbd186ba5	-0.037212033
30	0xbdaea48f	-0.08527481
31	0xbda83369	-0.08212931
32	0xbd3b238b	-0.045688193
33	0xbda24aec	-0.079244465
34	0x3c6fec3d	0.014643726
35	0xbcb51e1b	-0.022109082
36	0x3c3d52c7	0.01155538
37	0xbdd2dea3	-0.10296371
38	0xbc8ce276	-0.017197829
39	0xbd48435c	-0.048892364
40	0xbcc0d557	-0.023539228
41	0xbcf7d7d3	-0.03025428
42	0xbdbc7256	-0.09201495
43	0xbd86a131	-0.065737136
44	0xbd781537	-0.060567107
45	0xbd6a992a	-0.057274975
46	0xbdadd4fb	-0.084878884
47	0xbda6a301	-0.08136559
48	0xbd824f88	-0.06362826
49	0xbcd6b547	-0.026209487
50	0x3c0cf02a	0.008602181
51	0xbd97daeb	-0.07414802
52	0xbd7b3546	-0.061330102
53	0x3c2a00fc	0.010376211
54	0xbcc94673	-0.024569726
55	0xbcf62c1b	-0.030050328
56	0xbd32aaca	-0.04361991
57	0x3ccf48da	0.025303293
58	0x3cca9df8	0.024733528
59	0xbd8cf686	-0.06882958
60	0xbd4ccd52	-0.050000496
61	0xbd736ddf	-0.059430953
62	0xbd9a1065	-0.07522658
63	0xbd55839e	-0.052127473
64	0x3c2dd303	0.010609391
65	0x3cbe6b80	0.02324462
66	0xbd9c7daf	-0.0764116
67	0x3b91e482	0.004452289
68	0xbd722657	-0.059118595
69	0xbd7406c6	-0.059576772
70	0xbcb88fe4	-0.02252955
71	0x3bf1598b	0.0073654107
72	0xbd94dd30	-0.07268751
73	0xbbc71b6c	-0.006076267
74	0xbcdb8379	-0.02679609
75	0xbc3732af	-0.0111815175
76	0xbd7f9906	-0.062401794
77	0xbdb0baa7	-0.08629351
78	0xbd732899	-0.05936489
79	0xbd3d83ee	-0.046268396
80	0xb7a2c98d	-1.940576e-05
81	0xbddcb62c	-0.10776934
82	0xbdfda1c6	-0.123843715
83	0xbd5e75f7	-0.05431172
84	0xbdbed54c	-0.09318027
85	0xbdef0065	-0.11669997
86	0xbd789bb7	-0.060695376
87	0xbdc0c9e6	-0.09413509
88	0xbdc362d7	-0.095403366
89	0xbd2dc0aa	-0.042420067
90	0xbbdea719	-0.006794822
91	0xbddb56be	-0.10709904
92	0xbd6cbf61	-0.0577997
93	0xbd8dccc3	-0.06923821
94	0xbdb08b99	-0.08620376
95	0xbe04827a	-0.12940398
96	0xbd0b1427	-0.033954766
97	0xbce128e9	-0.027485328
98	0xbdd45d4c	-0.103693575
99	0xbda76434	-0.08173409
100	0xbd455eae	-0.048185997
101	0x3c242b33	0.010020065
102	0x3bc3e351	0.005978026
103	0xbd4b286b	-0.049599092
104	0xbda010f2	-0.07815732
105	0xbd92406f	-0.07141196
106	0xbd6e6ee5	-0.058211226
107	0xbc3f4816	-0.0116749015
108	0xbd8898b1	-0.066697486
109	0xbd51b129	-0.051194344
110	0x3ce2013d	0.027588481
111	0xbd90e60f	-0.0707513
112	0xbda41343	-0.080114864
113	0xbd5da6b2	-0.05411405
114	0xbcda3a84	-0.02663923
115	0xbd97f44a	-0.07419641
116	0xbcde5894	-0.027141847
117	0xbdc31c2b	-0.09526857
118	0xbd42c0e3	-0.047547232
119	0xbd28844b	-0.04114179
120	0x3a4803c5	0.0007629956
121	0xbdb8cc80	-0.0902338
122	0xbdab7ea2	-0.08373763
123	0xbd934a8e	-0.071919546
124	0xbd14acea	-0.036297716
125	0xbd9dbae1	-0.0770166
126	0xbdb97de2	-0.09057213
127	0xbd77a8e0	-0.060463786

find.2.bias_s_ f4 [128]
0	0xc0c6b4cf	-6.2095714
1	0xc0bf74bb	-5.9829993
2	0xc0bf2796	-5.9735823
3	0xc0c6cba9	-6.212361
4	0xc0bc41e2	-5.8830423
5	0xc0c49c87	-6.1441073
6	0xc0ecd49e	-7.4009542
7	0xc0c99a99	-6.300122
8	0xc0c02069	-6.0039563
9	0xc103b5d2	-8.23189
10	0xc0c5be99	-6.1795163
11	0xc0c53555	-6.1627603
12	0xc0c3cba5	-6.118609
13	0xc1033359	-8.200036
14	0xc0bbe46b	-5.871633
15	0xc0bdc898	-5.9307365
16	0xc0bcf86e	-5.905326
17	0xc0c36abb	-6.1067786
18	0xc0bfa66f	-5.9890666
19	0xc0f88673	-7.7664123
20	0xc0e07a1e	-7.014907
21	0xc0c4a3e3	-6.1450057
22	0xc0d3c47f	-6.6177363
23	0xc0c35d94	-6.105173
24	0xc0c78f98	-6.2362785
25	0xc1025c0a	-8.14747
26	0xc0c753f7	-6.2289996
27	0xc0c4df19	-6.1522336
28	0xc0c240fd	-6.070433
29	0xc0bfbae4	-5.991564
30	0xc0c41c0c	-6.1284237
31	0xc0c59f48	-6.1756935
32	0xc0c55a60	-6.167282
33	0xc0c4cc8e	-6.14997
34	0xc0bd276f	-5.9110637
35	0xc0df34b0	-6.9751816
36	0xc0c21108	-6.064579
37	0xc0d1cc6f	-6.5562053
38	0xc0bde2d4	-5.933939
39	0xc0c750ed	-6.2286286
40	0xc0d94761	-6.7899632
41	0xc0bc347a	-5.881406
42	0xc0cd409a	-6.414136
43	0xc0c61efd	-6.1912827
44	0xc0cbb20f	-6.3654857
45	0xc0c6b877	-6.2100177
46	0xc0c363b7	-6.105922
47	0xc0d4e946	-6.6534758
48	0xc0c4ff1e	-6.156142
49	0xc0cfcf69	-6.4940686
50	0xc0bff30a	-5.998418
51	0xc0c44242	-6.133088
52	0xc0c25787	-6.0731845
53	0xc0c0ab4e	-6.020911
54	0xc0c6f2c4	-6.2171345
55	0xc0ba3c6f	-5.819877
56	0xc0cb88c4	-6.360445
57	0xc0bc2801	-5.8798833
58	0xc0bce863	-5.9033675
59	0xc0c6a941	-6.208161
60	0xc0e37bfc	-7.108885
61	0xc0fa5a83	-7.823549
62	0xc1006a53	-8.025958
63	0xc0d0bbd7	-6.5229297
64	0xc0c37f8d	-6.10932
65	0xc0c0f5ed	-6.03002
66	0xc0d312f5	-6.596064
67	0xc0beae13	-5.9587493
68	0xc0c6b09b	-6.2090583
69	0xc0c26418	-6.0747185
70	0xc0c96866	-6.293994
71	0xc0c1df02	-6.0584726
72	0xc0c6cb7c	-6.2123394
73	0xc0be334a	-5.943761
74	0xc0c63250	-6.1936417
75	0xc0bc1aca	-5.87827
76	0xc0c7db14	-6.245493
77	0xc0c60510	-6.188118
78	0xc0c84146	-6.257968
79	0xc0d15560	-6.5416718
80	0xc0ccaf22	-6.3963785
81	0xc0cab903	-6.3350844
82	0xc0c46a30	-6.1379623
83	0xc0c77409	-6.2329144
84	0xc0e011b3	-7.0021605
85	0xc0dc49d8	-6.884014
86	0xc0c87803	-6.26465
87	0xc0cb721c	-6.3576794
88	0xc0d7c74e	-6.743079
89	0xc0c717df	-6.221664
90	0xc0bc4156	-5.8829756
91	0xc0cc707d	-6.3887315
92	0xc0c5e954	-6.1847324
93	0xc0c6e99c	-6.216017
94	0xc0c4867c	-6.1414165
95	0xc0d54802	-6.66504
96	0xc0cf4e14	-6.478281
97	0xc0be74bd	-5.9517503
98	0xc0f84d3d	-7.7594285
99	0xc0cfe714	-6.496958
100	0xc0c6e742	-6.2157297
101	0xc0bdcb61	-5.9310765
102	0xc0bb4592	-5.8522425
103	0xc0cbf186	-6.373233
104	0xc0c3df01	-6.120972
105	0xc0c22f77	-6.068294
106	0xc0c71453	-6.221231
107	0xc0c78325	-6.234759
108	0xc0cb0a55	-6.345011
109	0xc0c4e524	-6.1529713
110	0xc0c43649	-6.1316266
111	0xc0d6b075	-6.70904
112	0xc0c9487d	-6.2900987
113	0xc0c93d35	-6.2887216
114	0xc0bc230f	-5.8792796
115	0xc0d60fb8	-6.689419
116	0xc0bd58a7	-5.917072
117	0xc0e9145b	-7.283735
118	0xc0c404ac	-6.1255703
119	0xc0c25b8b	-6.0736747
120	0xc0c0c382	-6.0238657
121	0xc0cdf1c2	-6.4357615
122	0xc0cbc44d	-6.3677125
123	0xc0d7cc67	-6.7437015
124	0xc0c56410	-6.1684647
125	0xc100aadf	-8.041717
126	0xc0d68eab	-6.7049155
127	0xc109029d	-8.563138

find.4.W_m f4 [128, 64]
0	0xbc8e6365	-0.01738138
1	0x3e271bda	0.16319218
2	0x3e401890	0.1875937
3	0x3df54be6	0.11977367
4	0x3e5b19d0	0.21396565
5	0xbd42ac22	-0.04752744
6	0x3e71a53b	0.23598187
7	0x3e3fe1f9	0.18738545
8	0x3e125417	0.1428989
9	0xbc4e8f32	-0.012607383
10	0x3e5ada7e	0.2137241
11	0x3e352e35	0.17693408
12	0xbcb37157	-0.02190463
13	0x3df3a82e	0.11897312
14	0x3e5ac78e	0.21365187
15	0xbdd0bfc8	-0.10192829
16	0xbd9534b4	-0.07285443
17	0x3d71eb11	0.059062067
18	0xbdb27ffd	-0.08715818
19	0xbd11f621	-0.035635117
20	0x3e5588e9	0.20853008
21	0xbd394a16	-0.04523667
22	0x3e6064d4	0.21913463
23	0xbe017661	-0.12642814
24	0x3e440ea3	0.19146208
25	0xbe046740	-0.12930012
26	0xbd5348a7	-0.05158296
27	0xbd763bdc	-0.06011568
28	0xbdc47b7e	-0.09593867
29	0xbd86c6d7	-0.065808944
30	0xbe0936db	-0.13399832
31	0xbd8b0514	-0.06788078
32	0xbd9189b5	-0.07106344
33	0xbdbfd3d1	-0.09366573
34	0xbd685638	-0.05672285
35	0xbd87f75b	-0.06638976
36	0xbde6ba90	-0.11266053
37	0x3e7d00a3	0.24707274
38	0xbd4b7ff1	-0.04968256
39	0x3e1bd988	0.152197
40	0xbd89bdb0	-0.06725633
41	0x3e5ebfa1	0.21752788
42	0xbdb58ab6	-0.08864348
43	0x3e69475a	0.22781125
44	0x3ded1cd2	0.11577763
45	0xbd14888c	-0.036263034
46	0xbd2bb060	-0.04191625
47	0xbdaecf8f	-0.085356824
48	0xbd94d8fd	-0.0726795
49	0xbde07aaf	-0.109609
50	0x3e6d2692	0.23159245
51	0x3dcb4b07	0.0992642
52	0x3dd45d0d	0.103693105
53	0x3e6339f0	0.2219007
54	0x3e387921	0.18014957
55	0xbda8b4df	-0.082376234
56	0x3e16e1ee	0.14734623
57	0x3e346f2a	0.1762053
58	0xbd85f07f	-0.065400116
59	0xbe0d6ac5	-0.1381026
60	0x3e6499b2	0.22324255
61	0x3e5c636b	0.215223
62	0x3e1e49a9	0.15457787
63	0xbd8f174a	-0.06986864
64	0x3da82948	0.08210999
65	0xbc120896	-0.00891318
66	0xbd86777c	-0.065657586
67	0xbd09e0c3	-0.033661615
68	0xbcdee22d	-0.027207458
69	0x3e10e475	0.1414965
70	0xbc1daef6	-0.0096242335
71	0x3ca9921c	0.020699553
72	0x3cb35af8	0.021893963
73	0xbd551df4	-0.05203052
74	0x3c723c58	0.014784895
75	0xbc905dbf	-0.017622827
76	0x3d87960f	0.06620418
77	0xba5898d0	-0.0008262517
78	0xbd4a2db9	-0.04936001
79	0x3cf34a36	0.029698472
80	0x3d5e4ed4	0.054274395
81	0xbcb17081	-0.021660091
82	0x3d86bf88	0.065795004
83	0xbd9f0955	-0.07765452
84	0x3d04d9cb	0.032434266
85	0x3d93efda	0.072234824
86	0xbc6d651d	-0.014489439
87	0x3e07d7ce	0.13265917
88	0x3ca76794	0.020435132
89	0x3d863fd3	0.06555142
90	0x3d8f12b9	0.06985993
91	0xbdaf9698	-0.08573645
92	0x3dbac285	0.09119133
93	0x3e0ec48a	0.13942161
94	0x3dbe6363	0.092963
95	0x3dac6b30	0.08418882
96	0x3d0166b8	0.0315921
97	0x3daa1142	0.08304073
98	0x3df70e23	0.12063243
99	0x3d3b574d	0.045737553
100	0x3ca4ca48	0.020115986
101	0xbca0d79e	-0.019634064
102	0x3d906d02	0.070520416
103	0x3c37f494	0.011227746
104	0x3ddc7743	0.10764935
105	0x3c742fb2	0.01490395
106	0x3e309f06	0.17248163
107	0xbcca87c0	-0.024722934
108	0xbd82fb8d	-0.06395636
109	0x3e17c755	0.14822133
110	0x3dcd997d	0.10039041
111	0x3dd310d7	0.10305946
112	0x3dac178b	0.08402928
113	0xbdbf4c7b	-0.09340759
114	0xbca02514	-0.01954893
115	0xbd4e903b	-0.050430518
116	0xbd3a274f	-0.045447644
117	0xbbd11baa	-0.0063814716
118	0xbd23e504	-0.04001333
119	0x3d825bb3	0.063651465
120	0xbcc3e81d	-0.023914391
121	0x3ca4503f	0.020057796
122	0x3dbcb622	0.092144266
123	0x3cf3c68a	0.029757757
124	0xbbc3348e	-0.0059571927
125	0xbd2e55fc	-0.04256247
126	0x3c9cf034	0.019157507
127	0x3df52857	0.11970585
128	0x3dddb7bb	0.108260594
129	0xbdd57f26	-0.10424642
130	0xbde57c80	-0.11205387
131	0xbda1e313	-0.07904639
132	0xbdfa5aae	-0.12224327
133	0xbcf23767	-0.029567434
134	0xbdc2dcc1	-0.09514762
135	0xbe0515c0	-0.12996578
136	0xbdc344d7	-0.095346145
137	0xbd68f4fa	-0.056874253
138	0xbe01616b	-0.12634818
139	0xbdc971e3	-0.09836175
140	0x3d8caa40	0.0686841
141	0xbdfca23e	-0.12335633
142	0xbda31318	-0.07962626
143	0xbc069c99	-0.008216047
144	0x3dc63951	0.09678901
145	0xbdd3c433	-0.103401564
146	0x3c2ea050	0.010658339
147	0xbdcb286b	-0.099198185
148	0xbd9298e2	-0.07158066
149	0x3def0370	0.116705775
150	0xbd2ca9ce	-0.042154126
151	0xbbbeac51	-0.0058188816
152	0xbd9a78e6	-0.07542591
153	0xbe30bb75	-0.17259009
154	0x3dcf5434	0.10123482
155	0xbe1843fc	-0.14869684
156	0x3dd9fa41	0.10643435
157	0x3df4efd7	0.11959808
158	0xbe3ac96e	-0.18240902
159	0x3d7e0a90	0.062021792
160	0x3d99bc40	0.07506609
161	0x3d453f59	0.048156116
162	0x3dc5fd95	0.096675076
163	0x3d87af6c	0.06625256
164	0x3db26533	0.087107085
165	0xbdcf3f8d	-0.10119543
166	0x3d376359	0.04477248
167	0xbdd24958	-0.102678955
168	0xbd97c7ec	-0.07411179
169	0xbd41bd52	-0.04729969
170	0xbd70d18c	-0.05879359
171	0xbd95187d	-0.072800614
172	0xbdec07aa	-0.11524899
173	0x3d86bd23	0.06579044
174	0x3de4616d	0.11151395
175	0x3dfeca05	0.12440876
176	0xba760fb9	-0.0009386498
177	0x3d9c0b76	0.076193735
178	0xbdbb475a	-0.091444686
179	0xbdbd8863	-0.09254529
180	0xbde453c6	-0.11148791
181	0xbd635166	-0.05549755
182	0xbded5289	-0.11588008
183	0x3ddcc021	0.10778833
184	0xbdde4e32	-0.10854758
185	0xbdbfdcea	-0.09368308
186	0x3ddadb0c	0.10686311
187	0xbce6a20d	-0.028153444
188	0xbdd4f46d	-0.10398183
189	0xbdc95654	-0.09830919
190	0xbdf22ab1	-0.11824549
191	0x3de5a78f	0.112136
192	0xbd3a0c37	-0.045421805
193	0x3e16c85f	0.14724873
194	0x3e329b38	0.17442024
195	0x3e112aeb	0.14176528
196	0x3e75ca5b	0.24002974
197	0xbd7de74f	-0.06198817
198	0x3e8388b1	0.25690225
199	0x3e64a6ec	0.223293
200	0x3e0bb4bc	0.13643163
201	0xbd6ed628	-0.058309704
202	0x3e2f5784	0.17123228
203	0x3e0f57e3	0.1399837
204	0xbdbb4d5b	-0.09145614
205	0x3e00cb22	0.12577489
206	0x3e321557	0.17390953
207	0xbcbc5fcf	-0.022994904
208	0xbd82df42	-0.06390239
209	0x3dc94062	0.09826733
210	0xbdaa5208	-0.083164275
211	0x3d05c7b6	0.032661162
212	0x3e46bf89	0.19409002
213	0xbd8f4cca	-0.06997068
214	0x3e37bc00	0.1794281
215	0xbd09549b	-0.03352795
216	0x3e75b011	0.23992945
217	0xbd9e95fe	-0.077434525
218	0xbd7e6037	-0.062103476
219	0xbd5ee8c0	-0.054421186
220	0xbd8ed81b	-0.069748126
221	0xbd586eb5	-0.052839953
222	0xbdb4f2ea	-0.08835395
223	0xbcca3971	-0.024685593
224	0xbca2921d	-0.019845063
225	0xbcdcc9c5	-0.02695168
226	0xbd24bba1	-0.040218
227	0xbd93b51d	-0.07212279
228	0xbd0d83e3	-0.034549605
229	0x3e535dbf	0.2064123
230	0xbd75f9b6	-0.060052596
231	0x3d9bb477	0.0760278
232	0xbd27d271	-0.040972177
233	0x3e52f0f6	0.20599732
234	0xbdbdad50	-0.09261572
235	0x3e7d2444	0.24720865
236	0x3e2881ec	0.16455811
237	0xbdba7281	-0.09103871
238	0xbcfb20f8	-0.03065537
239	0xbc648e8f	-0.013950004
240	0xbd883fa0	-0.066527605
241	0x3b1656d9	0.0022939949
242	0x3e8d167d	0.2755622
243	0x3e35d765	0.17757948
244	0x3daea6aa	0.085278824
245	0x3e5f52d3	0.21808939
246	0x3e4b570b	0.19857423
247	0xbd6d553b	-0.05794261
248	0x3e061d48	0.13097107
249	0x3df10d4d	0.11770115
250	0xbcd2a1c2	-0.025711898
251	0xbc185d30	-0.009299561
252	0x3e6f5568	0.23372424
253	0x3e226707	0.15859614
254	0x3dfc3e47	0.12316566
255	0xbd19ba2e	-0.03753107
