scheduler/BaGTI/checkpoints/energy_latency2_10_Trained.ckpt (torch_old, 540113 bytes, 24 tensors)

find.0.weight f4 [128, 140]
00000000: d279 cebd 34a3 263d c83e 913c d39e 18be
00000010: 9025 5ebd 7e19 85be 9c78 403d 973d 81be
00000020: 99b6 fdbd 22d0 48bd 64f4 893e 9aca d1bd
00000030: 4b43 1bbd dd00 5fbd f18d 1bbc 721a 93bc
00000040: 6f7c 96be d329 6b3e 5e3c 123e 6b87 9ebc
00000050: 798b f93b c1f1 97bd 9769 c43d 5b8d 03be
00000060: 6ac4 32be e429 8ebc 95d1 93bd 3608 75bc
00000070: 96c6 8dbb 1b0d 42bc 8651 1ebd 3acf 33be
00000080: c9f5 91be b267 293d 58e5 d1bd c248 8c3e
00000090: e0ef da3c f580 91be 603e bfbe 5cf1 8a3d
000000a0: 92c8 babd 0dfd 52bd 9f81 55bd f28b cc3d
000000b0: ce10 4a3e 9091 2b3e 8212 17bf 0de0 cabe
000000c0: 1cf5 91be 60c9 0f3e 3a61 9a3e e22c 213e
000000d0: 1993 583d b235 1cbd 7315 0bbd b613 adbc
000000e0: 5214 dcbe 93c6 b8bd 6173 963e df22 1dbe
000000f0: 0c6d 3a3e bdf7 413e f3f4 8abe f4e2 143c
00000100: 054c b93e a26e a402 243c 70be 3604 64be
00000110: 6b12 8ebc 0b75 d9bc d1d6 c53d c0d9 803e
00000120: 587d b902 827e ed3d 833b 71be 81a6 25be
00000130: de2f 9ebe d1b0 c53e a310 1cbc 4674 39be
00000140: 3564 a83e f33b 053d 461a 53ba dd0b f83b
00000150: 817a ec3c 5481 6bbe 0cb3 d5bc a3ae f13d
00000160: abf0 313e b222 c23d 6e97 a0be 51b1 39bd
00000170: 84e7 5bbe d0f7 9e3e 6c12 ce3d 902b 9582
00000180: 5f98 89bd c1cc b13c 0e30 e93d 6112 e6bd
00000190: fe97 dc3d ef92 b002 ced9 1a3f 3458 af3d
000001a0: f817 64be 6cf8 02bd 317d 89be 117b b102
000001b0: aa41 b882 5cd0 c3bd bf1c 18bd a375 d83c
000001c0: 3f2f 21be 096a 00bd 229b 3f3e b5ea ae82
000001d0: 5867 0a3e ec58 ad02 88d3 c4bd 6b52 9f02
000001e0: 1ced 003e 1f8c 8abd 9392 f1bd f7e0 9d02
000001f0: a7c1 5fbd 46da edbc a0cd 98bd 14f7 bd3c
00000200: 285d 4a3e 1422 9d82 9d15 a702 9c2c 9d02
00000210: 2cee aa3d 447b 29be fe0b 10be c71f a082
00000220: f979 aa02 87b4 813e 44fe 24bd 7e97 37bd
00000230: a9b8 68bd 89ec 553c 559a 463e a982 79bd
00000240: 6da7 92be 1c3f ddbd 29a3 00bf 9aaf 783d
00000250: 95ed debd 8da2 7fbd 1284 613e 58c3 d4bc
00000260: b471 b5bd 147c b4bc 7aeb a43e 0df7 dabd
00000270: 3abe e1bc 4789 82be cb39 363e a13f 55bd
00000280: 8774 823e 0746 8fbe 0a79 b0bd dbf2 bb3d
00000290: 199c 90be 9a39 413e c6e7 c9bd 0caa 0dbd
000002a0: 289d 5d3e 8a73 b8bd 78b7 823c 5bc6 09be
000002b0: eac3 79bd 09a9 e6bd 1bdc 29be 2d45 2d3e
000002c0: 0a5b a9be c2c8 18bd d142 19be 728d 8bba
000002d0: 295e ccbd e241 cdbc 99fe 313e cade 8c3c
000002e0: 386d bcbd a638 1b3e a108 933d b4ab 8dbd
000002f0: a1b0 1dbe 43a2 183e 05f9 cbbc 9494 e4bd
00000300: 4e7f 763d 7d41 29bd 40fd c9bc fee8 fcba
00000310: e15b 35be 7135 07bd 3a10 1d3e 7815 07be
00000320: a7eb 843e 0dac 893e f057 32bd a8e3 b1bd
00000330: 15f6 6c3e 503e 9e82 a846 aabc 1fef 5e3c
00000340: 2b5c babd 0471 4abd 2501 a33e b49f 603d
00000350: ec4f aa82 45c4 403e 9bed f0bd 2c9a 49be
00000360: a846 bc3c ef8c 623e 2b1d 293e 271e 9fbd
00000370: 979e bdbe 0ce3 293d aac4 f7bd c7f5 ab3a
00000380: d407 93bd 941c 9d3d bd9a 13be d5cb 8e3e
00000390: 3bf3 22bd 0e7f c23d 9421 10be 0dfd 60be
000003a0: bc7b 9dba ad83 cabd d340 453d 44fd ac82
000003b0: 1f94 f1bd 9e7f 77bc b1b5 3ebe 0c92 0a3e
000003c0: fb2a 21be f79b a182 9d5a d83e ee96 b13d
000003d0: 07d8 08be 7e78 f53e a95b e23d 8383 b082
000003e0: 88af d402 5543 4dbe be39 3abd 5160 f5bc
000003f0: bbd0 eebd 961c 80bd 3b3f b63c 8fec 9c02
-0.10081829 0.040682986 0.017730132 -0.14904337 -0.05423504 -0.25996011 0.046990022 -0.25242302
-0.12388343 -0.049026616 0.26944268 -0.10243721 -0.037905972 -0.054444183 -0.009494291 -0.017956946
-0.2939181 0.22965173 0.14280841 -0.019351682 0.0076155034 -0.07419158 0.09590452 -0.12846892
-0.17457739 -0.01735396 -0.07217709 -0.014955571 -0.004326652 -0.011843945 -0.038651966 -0.1755952
-0.28507832 0.041358657 -0.10248822 0.2739926 0.02672571 -0.284187 -0.37352276 0.06784317
-0.09120287 -0.05151086 -0.05212557 0.0998763 0.19732973 0.16754746 -0.59012616 -0.39624062
-0.28507316 0.14041662 0.30152303 0.15739778 0.05287466 -0.038137145 -0.033956002 -0.021127563
-0.42984253 -0.0902225 0.29384902 -0.15345334 0.1820566 0.18942161 -0.27140006 0.009087313
0.3619081 2.4161134e-37 -0.23460442 -0.22267231 -0.017342767 -0.026545068 0.096601136 0.2516613
2.725525e-37 0.11596395 -0.23557858 -0.16176797 -0.30895895 0.38611463 -0.009525451 -0.18110761
0.32888952 0.032527875 -0.0008052926 0.0075697736 0.028867008 -0.22998554 -0.026086353 0.118008874
0.17376964 0.09479274 -0.31365532 -0.045335118 -0.21475035 0.3104844 0.100621074 -2.1918586e-37
-0.067185156 0.02170408 0.11386119 -0.11233974 0.10771178 2.5945211e-37 0.60488594 0.08561745
-0.22274768 -0.031975195 -0.26853326 2.607845e-37 -2.707406e-37 -0.09561226 -0.03713679 0.026423281
-0.15740679 -0.031351123 0.18711522 -2.5701717e-37 0.13515985 2.5471104e-37 -0.09610659 2.3410256e-37
0.1259045 -0.06765007 -0.11795535 2.31982e-37 -0.05462804 -0.029034745 -0.07461095 0.023189105
0.19762099 -2.3088637e-37 2.455085e-37 2.3094681e-37 0.08346209 -0.16550928 -0.14067075 -2.3528126e-37
2.5049264e-37 0.25333044 -0.04028155 -0.04482221 -0.05681673 0.013056883 0.1939481 -0.060915623
-0.2864336 -0.10803053 -0.5024896 0.06071434 -0.10885159 -0.06241088 0.22023037 -0.025972053
-0.08859578 -0.022031821 0.32210904 -0.106916524 -0.027556527 -0.2549536 0.17795484 -0.052062634
0.25479528 -0.27983114 -0.08616836 0.091771804 -0.28244093 0.1886963 -0.098586604 -0.034585997
0.21641982 -0.09006412 0.015956625 -0.13454573 -0.060977854 -0.1126271 -0.1658787 0.1692092
-0.3307727 -0.037300833 -0.14966895 -0.0010647012 -0.09978897 -0.02505583 0.17382278 0.017196078
-0.09200519 0.15158328 0.0717938 -0.069175154 -0.1539941 0.14905648 -0.024899015 -0.111611515
0.06018 -0.04132222 -0.024656892 -0.0019295511 -0.1771083 -0.03300995 0.15338221 -0.13191783
0.25961038 0.26889077 -0.043540895 -0.08686 0.23140748 -2.325178e-37 -0.020785645 0.013606816
-0.09099611 -0.049424186 0.3183681 0.054839805 -2.5025128e-37 0.18824871 -0.1176407 -0.19687718
0.02298291 0.22124074 0.16515033 -0.07769423 -0.37035057 0.041476294 -0.120980576 0.0013119512
-0.071792275 0.076714665 -0.14414497 0.27889886 -0.039782744 0.0949689 -0.14075309 -0.21971531
-0.0012015025 -0.098883964 0.048157524 -2.5418496e-37 -0.1179583 -0.01510611 -0.18623997 0.13532275
-0.15739052 -2.3746343e-37 0.42256632 0.08671366 -0.13363658 0.4794349 0.11052639 -2.593636e-37
3.125135e-37 -0.20045216 -0.045465223 -0.029953154 -0.11660906 -0.06255452 0.022246948 2.3057918e-37

find.0.bias f4 [128]
00000000: fad7 9abd d29d 1bbd f792 98bd fe84 ba3d
00000010: a404 bf3d 5566 96bd 2ad4 11be 11f1 85bd
00000020: f4b5 b63d 5b5e bfbd 4633 a6bd 2048 1d3d
00000030: f647 ff3c 2ea6 0abe 25d6 e7bd a1c5 573d
00000040: 918e 72bd 0b14 fa3b e950 d0bc 4f9a 13be
00000050: e00e 46bd 828c 71bd d464 0f3d 8220 aa3c
00000060: 0ee9 dabd d337 663c 3270 5dbd fe7f 1ebd
00000070: 47ee 1dbd ed0c 86bd ca9f e3bd 3a90 c2bd
00000080: aae9 023e 9f83 8fbb d820 023d a817 7c3d
00000090: 4dc5 9cbd c512 5d3a ecdf b6bc f75d f0bd
000000a0: 0702 23be c798 773d 0790 1abd 7c78 5e3d
000000b0: 714f 24bd 4788 fdbd c0cf 0bbe 4a15 0dbe
000000c0: f01a 8cbc fcbc febc e4ba 0d3d 527a 19bd
000000d0: 4eec ea3c a23f 96bd 7f3a a53d 1f33 27be
000000e0: 4c74 e9bd bc92 c2bd 870f 07bd f09d c13d
000000f0: dd62 05be d245 c1bd 3861 1c3d 2c84 86bc
00000100: 8390 87bd c068 b9bd 4bb1 d2bd 5597 dfbd
00000110: 0293 11bb cba1 ecbd 782a 0cbe 4943 08be
00000120: 626a f7bd 8e39 b03b 79a5 933d ebce 0bbe
00000130: 06a8 07be 3b41 eebc 7b20 0cbe a6ab ccbd
00000140: 3ceb 37bc 53ee 31be 9e2b bfbd 5ee0 c7bd
00000150: 6f07 57bd 772c d4bd ae8a eebc e953 82bd
00000160: e30d 0bbe 84d9 a63c 38a1 c0bd 7c02 fcbc
00000170: 8af2 2cbd bf2a e9bd 1c8d 91bc 5d3a abbb
00000180: 92e9 edbc 8349 b6bd e718 953c bb30 423c
00000190: 50ba 0abe 73f0 cebd abe8 1bbe 00b3 c13d
000001a0: 9e39 443b 0347 07be 356e 03be a005 14bc
000001b0: edfa e2bc 7328 12be ab8d b2bd 8b55 863d
000001c0: 2049 39bd f774 d93c 56cd d1bd 6dbf c2bd
000001d0: 8602 06bd 0e77 a8bd 99d5 02bd 89fe 1a3d
000001e0: 86d6 01be a1a0 863b 076f 27bd 8082 48bd
000001f0: eda7 983d 5653 0ebe 072e c7b9 7f24 a23d
-0.075607255 -0.037992306 -0.07449906 0.091073975 0.09327057 -0.07343737 -0.1424109 -0.065401204
0.089214236 -0.09344169 -0.081152484 0.038398862 0.031162243 -0.13539955 -0.11320142 0.052678708
-0.059217993 0.007631784 -0.025429206 -0.14414333 -0.04835403 -0.05897189 0.035008267 0.020767454
-0.10688983 0.0140513955 -0.054062076 -0.03869628 -0.038557317 -0.06545434 -0.11114462 -0.09500165
0.12784448 -0.004379704 0.031769603 0.061545998 -0.0765482 0.0008433278 -0.022323571 -0.11736672
-0.15918742 0.060448434 -0.03773501 0.05431412 -0.040114824 -0.123795085 -0.13653469 -0.13777652
-0.017102689 -0.031095974 0.03460206 -0.03747017 0.028677132 -0.07336356 0.08067798 -0.16328095
-0.11399135 -0.095006436 -0.032973792 0.09453952 -0.13025995 -0.09437145 0.038178653 -0.016420446
-0.0661936 -0.090531826 -0.10287722 -0.10917536 -0.0022212868 -0.11554297 -0.13688076 -0.13306917
-0.12080838 0.005377955 0.07209296 -0.13653152 -0.1324769 -0.029083839 -0.13684265 -0.09993677
-0.011225518 -0.1737607 -0.09334491 -0.097595915 -0.052497324 -0.103600435 -0.029118862 -0.06363661
-0.13579516 0.020367391 -0.0940575 -0.030762903 -0.04222349 -0.11385106 -0.017767482 -0.0052254633
-0.029042039 -0.0890074 0.01820035 0.011852439 -0.13547635 -0.10104456 -0.15225475 0.0945797
0.002994157 -0.13210683 -0.1283501 -0.009034544 -0.027707541 -0.14273243 -0.08718427 0.06559285
-0.045235753 0.026545031 -0.10244243 -0.09509168 -0.03271725 -0.08225833 -0.031941984 0.0378404
-0.1267949 0.004108504 -0.04087737 -0.04895258 0.07453904 -0.13898978 -0.0003799053 0.07917117

find.2.weight f4 [128, 128]
00000000: ab09 21be 7393 9ebc 892b d6bc 1de1 ab3d
00000010: e837 90bd 81db 9f3d bdbc b53d c899 3cbe
00000020: 0f7c 953c e950 b8bd 9f6e 853e 262d 11bc
00000030: 82c1 ae3d bc19 b3bc 0633 53bc c676 4b3e
00000040: 195a 17bd 1f93 45bd ef9b 5a3e ec0b 023e
00000050: 9cae aebd f950 d23d 1e2a f4bd 89fa 77be
00000060: 67e1 c5bd 8012 8d3c 4eff 8cbd c2db 51be
00000070: 3c38 b9bd 9cbc 2ebe ca31 603c 48d3 443e
00000080: dd80 4cbd b867 1ebe 539b 3fbe 6494 143e
00000090: 70e7 01be b847 66be fca1 bfbd b42d 8f3d
000000a0: 5bed 9d3d 2e2a a1bd f66c f8bd fbf9 c4bd
000000b0: 2952 683e a6de 1abc b3f7 f3bd d2d0 113b
000000c0: 7577 bebc fbab a8bd 1c38 90bd 818c 3ebd
000000d0: 5925 173e 881a cb3d 4b96 813d 1888 373d
000000e0: cf6c cebc ceab 033e 45d5 00be d266 8d3d
000000f0: 48a3 d53c e03d 3d3e d440 633d d8b7 84bd
00000100: b2fc 083b c07b 86bc 37a3 78bc f0d3 5cbd
00000110: a17b 5bbe 444a 1f3e 6e23 65ba 5bb5 8e3c
00000120: b665 f73b fdf6 343e be26 5fbe 20b2 c83b
00000130: 7046 57bc a763 babc 409f 273c 311d 9fbd
00000140: c24d 033c 8b32 ca3d 4ccb a7bc a816 383e
00000150: 3415 06be 6113 873e 36fa 36be 2566 233e
00000160: bf1a 803b e010 ab3c 4121 f7bc 1153 35be
00000170: 901e f3bd 7fdb 753c 08de 533e 75cc 44be
00000180: 59df 71be 6192 56bd cd29 c23b bce7 60be
00000190: 2387 373d 9b9e 6ebd bed6 303d 5ff6 1a3c
000001a0: 4ec6 da3d 8f4a 3ebc 5415 7c3d 2e0d 69be
000001b0: 24d4 fc3d 3190 0e3d 156e 09be 12bc 3fb9
000001c0: c076 46be f999 56be d889 3a3d 1726 9a3d
000001d0: e617 f2bd bae9 bb3c d5ee dabd 7ef9 ebbc
000001e0: 623a cb3b c5c5 84be 1022 483e 5f18 81be
000001f0: 4db2 0c3e f814 123d 1c1b 243e 2102 2d3e
00000200: 6a72 98bc ba44 363c 2bfb ae3b 2e9c b03c
00000210: 3cb6 0d3d 12f2 a1bc 0065 933b 4344 c2b9
00000220: 958e a03b 035a 043c 49b2 26bd b493 22bd
00000230: 7e48 9bbd df6d cebc 0deb afbb 6b29 c63c
00000240: 4883 57bd d0a8 f7bc 2556 5dbd 8b3d 7b3b
00000250: 5b06 5abd e901 7b3c a3bd 2dbb f6f7 113d
00000260: 5e7d cfbc 070e c93b 5dda f1ba 312e 1039
00000270: 09f4 d3bc 0e38 e7bc f99a 74bc 9451 06bd
00000280: c311 e4bc 2391 763c 3a74 82bc 060b 0cbd
00000290: b403 a6bc 5190 cebc 7391 fabc da14 f7bb
000002a0: 527a 8ebb 53b9 acbc 9181 bdbc 70c9 c8bc
000002b0: 9a0e 04bd 7553 bbbb 0c2a 703c a01e 41bc
000002c0: b9f5 4ebd bf6b fabc 9d8a 333b 5273 53bc
000002d0: 7872 03ba 7a5d 89bc 9cfa 3c3d bf70 93bc
000002e0: 0035 06bb 0240 8cbc ce59 14bd c1fd aa3c
000002f0: 7412 10bd 5385 3dbd ccf8 093c 0400 12bd
00000300: b146 533c 3b6f 98bc 5840 8ebc 2974 76bc
00000310: 8673 9cbc 70c0 5cbc 8742 19bc e833 04ba
00000320: 9dbb 27bc d9bb dcbd 358f c0bd 0020 47bc
00000330: 7c07 2bbc c08d b0bc 1868 6bbc 9dd4 973c
00000340: 9d58 e93b 1c4e a43c 92f0 b13b 2b7a b2bb
00000350: 93b0 a6bc 19f3 433c 12bc 073a 9bd2 f6bb
00000360: 975c 28bc de2c c83c 8596 e4bc 9360 35bd
00000370: bb76 7aba 9d8c eebb 77e5 eebd 6c8b c0bc
00000380: b6f7 a6bb cc71 1dbc 7a14 4fbb 98c4 1fbd
00000390: 6e36 9e3c e09d 26bc 0e3b 97bc 4231 c73a
000003a0: 0113 95bd 0961 41bc 4cf7 dcbc 7125 7ebc
000003b0: ca5b 08bc 6660 b8bc 4faa 7ebc 4174 943c
000003c0: 5522 ab3b 4024 ebbc e868 2abc 40f2 a4bb
000003d0: 550c 3d3b 0dcd 53bb 0357 643c 180b 9ebb
000003e0: e23d f4bb 0455 0dbd a2b9 00bd 71e9 04bc
000003f0: 1471 89bc a710 773c 30e3 c43c 0a49 bc39
-0.15726344 -0.019357419 -0.026143806 0.08392546 -0.07041913 0.07805539 0.088738896 -0.18418038
0.018247632 -0.089998074 0.2606096 -0.008860862 0.085330024 -0.021862857 -0.012890583 0.19869527
-0.03695116 -0.04823601 0.21348546 0.1269986 -0.08529398 0.102693506 -0.11922096 -0.24216665
-0.09662133 0.017220736 -0.06884633 -0.20493987 -0.09043929 -0.17064136 0.013683746 0.19221222
-0.04992758 -0.15469253 -0.18711595 0.14509732 -0.12685943 -0.22488296 -0.09357068 0.06991139
0.077112876 -0.07869373 -0.12130158 -0.096179925 0.22687592 -0.009452498 -0.11912479 0.002224971
-0.02325032 -0.08235928 -0.07041952 -0.046520714 0.14760341 0.0991717 0.06327494 0.044807523
-0.025198368 0.12858507 -0.12581356 0.06904377 0.026078835 0.18480635 0.055481747 -0.06480378
0.0020902571 -0.01641643 -0.015175632 -0.053913057 -0.2143388 0.15555674 -0.0008740936 0.017420461
0.0075499667 0.17672344 -0.21792123 0.00612475 -0.013139352 -0.022752596 0.010230839 -0.0776924
0.008014144 0.098729216 -0.020482682 0.17977393 -0.13094026 0.26381972 -0.17868885 0.15956934
0.0039094384 0.02088207 -0.030167224 -0.17707469 -0.11871064 0.015005945 0.20690167 -0.19218619
-0.23620357 -0.05238569 0.005925393 -0.219634 0.04480661 -0.058256727 0.043173544 0.0094581535
0.10682355 -0.011614456 0.061543778 -0.22758934 0.1234515 0.03480548 -0.13420899 -0.00018285241
-0.19381237 -0.20957173 0.045541614 0.07526796 -0.118209645 0.022938598 -0.10690085 -0.02880549
0.006202028 -0.25932136 0.19544244 -0.25213906 0.13739891 0.03566453 0.16025966 0.16895343
-0.018609244 0.011124784 0.00534 0.021558847 0.03459762 -0.019768748 0.004498124 -0.00037053422
0.0048998096 0.008078101 -0.04069737 -0.039691642 -0.07582186 -0.025198875 -0.0053685964 0.024189672
-0.052615434 -0.030231863 -0.054037232 0.0038336243 -0.053228717 0.01532028 -0.0026510737 0.035636865
-0.025328334 0.0061357054 -0.0018451918 0.00013750118 -0.025873201 -0.028224971 -0.0149295265 -0.032792643
-0.0278405 0.015049252 -0.015924562 -0.0341902 -0.020265438 -0.0252153 -0.030586934 -0.0075403275
-0.004348078 -0.021084463 -0.023133071 -0.024510115 -0.032240488 -0.005716736 0.014658462 -0.011787087
-0.050527308 -0.030568955 0.0027395852 -0.0129059125 -0.00050143106 -0.016768206 0.046137437 -0.017998097
-0.0020478368 -0.017120365 -0.036218457 0.020872952 -0.03517385 -0.046269726 0.008421134 -0.035644546
0.012895272 -0.018607726 -0.017364666 -0.015042343 -0.019098055 -0.013473615 -0.00935424 -0.0005043135
-0.010237602 -0.107780166 -0.094023146 -0.0121536255 -0.010438796 -0.021551967 -0.01436808 0.018534
0.007121159 0.020056777 0.0054302895 -0.0054466925 -0.020347869 0.0119598145 0.0005177866 -0.0075324303
-0.010275981 0.024435457 -0.027903805 -0.044281553 -0.00095544354 -0.007279946 -0.11664861 -0.023503982
-0.0050954474 -0.009609651 -0.0031597898 -0.039005846 0.019313063 -0.010169476 -0.018460777 0.0015197175
-0.07279015 -0.01180292 -0.02697339 -0.015511856 -0.0083226655 -0.022506904 -0.015543534 0.01812184
0.0052225986 -0.028703809 -0.010400988 -0.0050337613 0.0028846462 -0.0032318265 0.013936761 -0.0048231
-0.007453666 -0.034504905 -0.031427033 -0.008112297 -0.016777553 0.015079654 0.024034113 0.00035912573

find.2.bias f4 [128]
00000000: 7e65 443d ff9d a7bc 40b5 64bc 68af 7fbb
00000010: 3643 f8bc a1ce 96bc af81 83bc 3a9e c8bc
00000020: 5aa4 7cbc 6cfc 67bc 2f5b 963c 14e3 9fbc
00000030: 07e5 98bc 23bc 98bc 1b59 3ebd 6467 9ebc
00000040: 8394 ad3c cdb6 9cbc 9695 3c3d fb9d 67bc
00000050: 3709 91bc ab2a a7bc 213a 99bc 07c3 82bc
00000060: d8e3 36bd 35e0 05bd c103 44bc 7de8 79bd
00000070: 6e34 263d 8d91 2b3c a72f a1bc 348f 8ebc
00000080: cc1d f33c 66c4 acbd 4c60 99bc 6032 7f3c
00000090: 2c3e a3bc 4fd1 86bc 5eb5 bb3c acf1 76bd
000000a0: 163d 9a3c 5f8f 9cbb 62b7 9cbc 1229 3abc
000000b0: 1d60 a1bc 4dc4 7cbc f59e fc3c fc7f a6bc
000000c0: 0cab 23bd 75f8 c3bc 3801 a3bc 1479 4abc
000000d0: 8e0b b5bc 898b 9fbc 0e91 973c ca65 2abd
000000e0: 4778 213d d9f5 adbc de25 8a3c 9b59 613c
000000f0: c0fc 41bd e1c1 acbd 3e05 58bc 8ba4 953c
00000100: 00b3 54bd 0a46 ff3b 6676 99bc efa3 b4bc
00000110: a88b 963d 3d0b c3bc f706 a3bc 48b4 94bc
00000120: fef9 79bc dba8 9ebc dc98 e1bc 8899 99bc
00000130: c104 613d 34ae 8abc 538d 84bc ce35 393d
00000140: 2595 c7bc 0240 9fbc dfb5 a93d 7a12 51bc
00000150: 0f48 cebb b23d 50bc 1b75 96bc 74bc 823c
00000160: 98d9 a4bc daa0 84bc d84d a9bc eddb 97bc
00000170: a5ff b5bc 7285 8e3d d5b2 1e3d b9ae 9bbc
00000180: 5c67 cabc 810e 62bc 0ed4 9abc 8e27 93bc
00000190: 4f44 3dbc 1a2b 9c3d c2a9 9cbc 6f2c 463d
000001a0: 61ed 7a3d 4573 7fbd d29e 9dbc e690 363d
000001b0: 501f 94bc 8d4b 83bc 314e d1bc b90c 4ebd
000001c0: a24f 29bb 04ab 9ebc 0f02 f93c ee43 c5bc
000001d0: 281e 57bc 9e9a 86bc ac6e debc 76d8 70bd
000001e0: c897 8abc 4e69 8bbc 6249 bbbc 3fa8 7dbd
000001f0: 2960 8dbc ce39 55bc a0dd c6b9 528b 933b
0.047948353 -0.02046108 -0.013959229 -0.0039014462 -0.030305486 -0.018409075 -0.016053049 -0.02448951
-0.015420044 -0.014159303 0.018354027 -0.019517459 -0.018663896 -0.018644398 -0.046471696 -0.01933641
0.02118898 -0.019130135 0.046041094 -0.014136787 -0.01770459 -0.020406088 -0.018704476 -0.015962137
-0.044650882 -0.032684524 -0.011963786 -0.061012734 0.040577345 0.010471714 -0.019676043 -0.017402269
0.029677294 -0.084358975 -0.018722676 0.015575975 -0.019927107 -0.016457228 0.022913631 -0.06028907
0.018827956 -0.0047778334 -0.019130412 -0.011362331 -0.01969915 -0.015427661 0.030837515 -0.0203247
-0.039958045 -0.023922184 -0.019898042 -0.012357969 -0.022100236 -0.019475715 0.018501785 -0.04160098
0.039421346 -0.021235393 0.01686376 0.013754274 -0.04736018 -0.08435417 -0.013184844 0.018266937
-0.05192852 0.0077903317 -0.018733215 -0.022050826 0.07350856 -0.02380907 -0.019900782 -0.018152371
-0.015257357 -0.019367626 -0.02753871 -0.018749967 0.054936174 -0.01692877 -0.01618067 0.045217328
-0.02436311 -0.019439701 0.08286642 -0.012760753 -0.006295211 -0.012710022 -0.018366387 0.015959002
-0.020123288 -0.016189981 -0.020667002 -0.018537486 -0.022216627 0.069590464 0.038744766 -0.019004213
-0.024707489 -0.013797403 -0.018899944 -0.017963197 -0.011551931 0.076254085 -0.019123916 0.04838222
0.06126154 -0.06236579 -0.01924077 0.04457178 -0.018081337 -0.016027236 -0.02554998 -0.050305102
-0.0025834818 -0.019368656 0.03039649 -0.024080243 -0.013129748 -0.01643115 -0.027152382 -0.058800183
-0.016918078 -0.017017987 -0.02286214 -0.06192803 -0.017257767 -0.01301427 -0.00037930626 0.0045026923

find.4.weight f4 [64, 128]
00000000: be4b a382 5ce7 8482 8042 5e82 ceaa 4d03
00000010: fc54 a082 3755 4403 bf4d 3d03 d696 a802
00000020: d210 5a83 f8c0 0b82 6311 a702 7ef2 2503
00000030: 10e1 2c03 6afe c702 508a 8302 0a1b 9a82
00000040: ae91 3e83 e659 0d03 c447 4301 d0aa b902
00000050: b3d4 0402 167f 0c03 dd6f e482 6ec7 2203
00000060: 7f1c ac02 963c a902 b310 fa82 4000 b302
00000070: 9e82 b502 8060 0582 1619 aa81 be8f 9802
00000080: 8fcc b682 8336 b482 fabf 2883 9e69 b182
00000090: 07b7 0603 899e 0783 2806 ad82 fe38 5e82
000000a0: 0eca d602 e308 3602 cf2d 8e02 385a 1a83
000000b0: 22f9 7702 f92f 0a82 52f0 b402 7e7e c302
000000c0: 5598 a602 885d 8c01 edc3 1203 014f 5702
000000d0: c428 f902 c025 a002 44bd af02 570c c382
000000e0: 031d a302 ce4e 9f02 fa47 8782 fe43 b802
000000f0: 93de a102 115d c002 72bd b982 1c0c 6181
00000100: 9fb3 a782 ba58 b602 58d0 c901 5a2a c482
00000110: 3621 1383 b4ab c382 fd01 7f02 6755 5482
00000120: 726a ab02 68bb 0403 c0d2 e280 9d84 0803
00000130: d326 cd82 d330 0603 e21b 4e03 c29f 7902
00000140: 3894 5c03 286d 1f02 f81a 9f02 a00a 5e83
00000150: ab18 5083 9457 b502 26f2 5f82 ee91 b502
00000160: b41f f102 fe1a 1502 ac1b 4e03 64d6 5282
00000170: 3e15 9f02 37aa c202 3081 2201 e059 1f01
00000180: 6cd4 5781 9d1e 2183 a68a 4183 3fbe 2c83
00000190: ffbc b882 26a6 be82 a65e 5403 a6c6 a202
000001a0: ee76 a182 a8ac 8b02 9258 cf02 ed89 1982
000001b0: 18c4 7002 107f 9481 e52f 2582 f666 c482
000001c0: 1b71 a402 96d3 8102 681d f202 abb4 5102
000001d0: bf34 0183 5604 fc82 ecf0 fa82 a73f af82
000001e0: fa8a 2182 342a 8282 d2a0 4683 ac43 bb02
000001f0: 3b34 1d02 6836 2f83 7d97 2f83 dcc1 b901
00000200: 7a3a 3382 68f1 2383 de89 d781 07be 3002
00000210: 1c4f bc02 4403 de02 ee27 f001 28e4 4103
00000220: 8c4c 6183 ca95 ae82 3dd1 b482 645a 5403
00000230: 44ee b602 0cc2 bc02 4e7a 5202 6233 0783
00000240: 787b 3903 d6a5 5583 c873 1583 5d98 ab02
00000250: dcf0 3f83 d012 4c80 49da 6d82 94cf 0582
00000260: 6f29 d202 3a5c 6782 96b9 bf82 58b6 9f82
00000270: 5668 b302 c21f 0983 4517 6903 585f 0e01
00000280: eea0 c882 460c 0e82 5a16 5983 a0bd be82
00000290: 77d5 e102 b40b fd82 eac8 c882 dbc6 0603
000002a0: 25ae 5e03 7f51 0b83 6e0e d902 f225 1083
000002b0: 70cf 8c01 06d3 1883 8f37 b982 74a5 1183
000002c0: f989 9082 ca64 8901 e1da 5c02 4e0a 4c83
000002d0: 5f91 e102 9270 e002 2559 3882 cf3e b282
000002e0: 02d4 0883 0fdd b482 227e 0b02 4c7e aa02
000002f0: 1a6b cc02 f831 0c82 4161 c582 8cdd 3501
00000300: 7a74 a702 014c bc82 e6c7 8702 1df2 9e82
00000310: 1010 9102 f194 3d82 7f19 0082 39cc 7a82
00000320: 2830 8802 20b4 ec01 b282 7782 0c99 dd82
00000330: 9548 0d03 cede 4103 e62e 1803 1cdc 2e82
00000340: 51b7 3303 5675 2402 b5ff b702 34d3 5c83
00000350: 7ceb 4f81 4dd5 a602 b4c5 bb82 664c 6c02
00000360: f8b8 3e03 f6d1 4c02 b696 ef02 321e 6e82
00000370: 9e84 e902 b30f a202 aba9 5103 2edc a382
00000380: f516 1982 1157 9282 6459 a601 d4cb a782
00000390: 820a a802 bc52 a982 38b1 4902 6ac2 bc82
000003a0: 08cd 6183 2680 1502 aa1d 4e03 fff9 1583
000003b0: 2b03 6102 0ccc f681 743a 8282 3ad6 ba02
000003c0: 1cef b882 769c 3a03 1ccc b882 6063 1482
000003d0: ba19 1a82 88e6 b502 7365 a682 fbfa a602
000003e0: 3e37 a282 c40f 1702 b406 b982 fab2 0503
000003f0: e94c 3603 36b1 7580 03b6 4f83 b8e2 b282
-2.3994171e-37 -1.952845e-37 -1.6329069e-37 6.044016e-37 -2.3558666e-37 5.7697045e-37 5.5631356e-37 2.4771957e-37
-6.408375e-37 -1.0267486e-37 2.4548424e-37 4.876751e-37 5.0804616e-37 2.9386448e-37 1.9328107e-37 -2.2643786e-37
-5.6003214e-37 4.1539374e-37 3.5867333e-38 2.7281348e-37 9.75887e-38 4.128819e-37 -3.3565795e-37 4.7836455e-37
2.5289484e-37 2.4867093e-37 -3.6743783e-37 2.630183e-37 2.667053e-37 -9.798991e-38 -6.2484134e-38 2.2416897e-37
-2.6859907e-37 -2.647991e-37 -4.959114e-37 -2.6068434e-37 3.9589166e-37 -3.9854924e-37 -2.5423599e-37 -1.632634e-37
3.1560448e-37 1.3373799e-37 2.0891318e-37 -4.53601e-37 1.8218192e-37 -1.0152406e-37 2.658656e-37 2.8725278e-37
2.4478942e-37 5.156209e-38 4.3130456e-37 1.5818378e-37 3.661066e-37 2.3531554e-37 2.5822572e-37 -2.8659758e-37
2.396735e-37 2.3408182e-37 -1.987778e-37 2.7075396e-37 2.3784575e-37 2.8265282e-37 -2.7292043e-37 -4.133466e-38
-2.4641542e-37 2.6793423e-37 7.41347e-38 -2.882392e-37 -4.323754e-37 -2.8751228e-37 1.8735012e-37 -1.5599809e-37
2.5187288e-37 3.9006445e-37 -2.0830425e-38 4.011904e-37 -3.0144327e-37 3.943511e-37 6.0569967e-37 1.8339479e-37
6.4822336e-37 1.1712801e-37 2.337843e-37 -6.5252133e-37 -6.1154024e-37 2.6645827e-37 -1.6452946e-37 2.667932e-37
3.5429964e-37 1.0954538e-37 6.0569725e-37 -1.548989e-37 2.3375143e-37 2.8603437e-37 2.9847388e-38 2.926817e-38
-3.9641669e-38 -4.734879e-37 -5.6876763e-37 -5.076465e-37 -2.7144849e-37 -2.8013355e-37 6.240985e-37 2.391778e-37
-2.3725086e-37 2.0523314e-37 3.0466753e-37 -1.1280247e-37 1.7688691e-37 -5.454894e-38 -1.213603e-37 -2.8858708e-37
2.4162554e-37 1.907629e-37 3.5575582e-37 1.5406744e-37 -3.7970242e-37 -3.703056e-37 -3.687248e-37 -2.5750474e-37
-1.1868296e-37 -1.9126007e-37 -5.8371583e-37 2.7516022e-37 1.1549528e-37 -5.1490333e-37 -5.160178e-37 6.823644e-38
-1.3167625e-37 -4.8178516e-37 -7.9176356e-38 1.2984973e-37 2.7669524e-37 3.2621843e-37 8.821937e-38 5.6979513e-37
-6.620943e-37 -2.5652977e-37 -2.656872e-37 6.2404964e-37 2.6879254e-37 2.7735495e-37 1.5463463e-37 -3.973192e-37
5.450835e-37 -6.2785445e-37 -4.3920075e-37 2.5213644e-37 -5.640635e-37 -6.986246e-39 -1.7474655e-37 -9.830869e-38
3.0880508e-37 -1.6997667e-37 -2.8171449e-37 -2.346761e-37 2.6361572e-37 -4.0297138e-37 6.849926e-37 2.6149687e-38
-2.9479728e-37 -1.0436035e-37 -6.3796227e-37 -2.802683e-37 3.3183301e-37 -3.7181726e-37 -2.9502678e-37 3.9607336e-37
6.5439845e-37 -4.094198e-37 3.1893567e-37 -4.2361356e-37 5.1725536e-38 -4.491103e-37 -2.7215196e-37 -4.28016e-37
-2.123809e-37 5.0470477e-38 1.6225862e-37 -5.996204e-37 3.3144218e-37 3.2978454e-37 -1.3543768e-37 -2.61908e-37
-4.021018e-37 -2.6575504e-37 1.0248306e-37 2.5051746e-37 3.003658e-37 -1.0299916e-37 -2.900237e-37 3.3403402e-38
2.4605299e-37 -2.7667741e-37 1.9951203e-37 -2.335498e-37 2.1315055e-37 -1.3928271e-37 -9.411272e-38 -1.8425708e-37
2.0011044e-37 8.6951175e-38 -1.8184202e-37 -3.2560876e-37 4.1519496e-37 5.697337e-37 4.472262e-37 -1.2846669e-37
5.281381e-37 1.2082491e-37 2.7036202e-37 -6.489464e-37 -3.8188847e-38 2.4513936e-37 -2.7590656e-37 1.7360467e-37
5.6048315e-37 1.5047809e-37 3.5204398e-37 -1.7494144e-37 3.4312392e-37 2.3812772e-37 6.161435e-37 -2.4077074e-37
-1.1247253e-37 -2.1502746e-37 6.110704e-38 -2.4655436e-37 2.4691413e-37 -2.4879805e-37 1.4818007e-37 -2.7735705e-37
-6.635692e-37 1.0983568e-37 6.057201e-37 -4.4074146e-37 1.6531298e-37 -9.065892e-38 -1.9135334e-37 2.7453204e-37
-2.7173612e-37 5.4840096e-37 -2.7153523e-37 -1.0901842e-37 -1.1321516e-37 2.6727878e-37 -2.4449737e-37 2.4535564e-37
-2.3835468e-37 1.1098252e-37 -2.7187154e-37 3.929064e-37 5.357328e-37 -1.0808324e-38 -6.104077e-37 -2.628488e-37

find.4.bias f4 [64]
00000000: b065 ad02 043f 8782 3f0a bb82 e239 bf82
00000010: 2c21 b982 31a9 bd02 a0ea ae02 f876 53bc
00000020: e737 b482 3ec6 cd3d d83b ab3c bfd2 ae3c
00000030: 07d4 a482 36d4 ad82 65e4 4ebc 6453 b282
00000040: d94d 9b02 9258 353d 96db a982 123b 0fbe
00000050: e1e3 dbbd 8c03 ac02 7673 2a02 e510 9a82
00000060: 8e4d b402 ce9d b002 3057 833d 3b5e b182
00000070: f936 bd82 c8ce 10bd 05ba c402 4728 a582
00000080: f792 a8bc f5d3 aa82 5668 5201 7a91 6b3d
00000090: 6da3 ba02 9b70 78bd 9176 ac01 31ca 72bc
000000a0: 3f82 b002 0ff0 693c 1c17 1d3d 4371 5dbd
000000b0: 5cfa a202 38d5 3283 ae42 9a82 d24c a382
000000c0: 878b ba82 9277 1582 82bf b482 4d85 b082
000000d0: dfd3 8182 57f7 b782 edcd 013d 1eb5 5e3b
000000e0: 6ba8 bd02 1d49 8382 4658 a902 0855 d23c
000000f0: fe8e d6bd cadd a882 7ec9 9802 dd8e b902
2.547843e-37 -1.9872636e-37 -2.7483061e-37 -2.809815e-37 -2.7202347e-37 2.7868165e-37 2.570167e-37 -0.012906782
-2.648071e-37 0.10047577 0.02090256 0.021340726 -2.4219332e-37 -2.5541868e-37 -0.012627696 -2.6202613e-37
2.2819885e-37 0.04427392 -2.4958354e-37 -0.13987377 -0.10736824 2.5275164e-37 1.2522763e-37 -2.2637963e-37
2.6493137e-37 2.5951451e-37 0.06413114 -2.6061898e-37 -2.7802607e-37 -0.035353452 2.8906382e-37 -2.426769e-37
-0.02057789 -2.5100912e-37 3.8645766e-38 0.057511784 2.7424045e-37 -0.060654264 6.3352956e-38 -0.014818714
2.5935633e-37 0.014278426 0.038352117 -0.054063093 2.394746e-37 -5.255426e-37 -2.2666539e-37 -2.399479e-37
-2.7410328e-37 -1.0981106e-37 -2.6558543e-37 -2.5937387e-37 -1.9076454e-37 -2.70314e-37 0.031690527 0.0033982466
2.7867721e-37 -1.9290685e-37 2.4882985e-37 0.025675312 -0.10476492 -2.4812682e-37 2.2450044e-37 2.7265306e-37

find.6.weight f4 [2, 64]
00000000: 6691 c902 bcf2 b482 a0bd ca82 f560 b382
00000010: dd76 be02 f7ea c302 e2bd b282 b317 933d
00000020: d608 c202 4037 ba3d 6d08 09be 0ff4 02bd
00000030: 81fa af02 4a81 c882 85a8 6ebe 6a14 8e02
00000040: ea26 c782 b13f 96bd 648e aa02 1185 a2be
00000050: 4182 8abe 6676 ad02 ad96 ca02 5cb4 b882
00000060: 9a41 ab82 4619 b102 0f75 18bd 1cee a282
00000070: 952a ca82 65d5 34be 119f bd02 248e af82
00000080: 5519 4c3c 1e90 c501 e168 c6a2 d8d6 cdbd
00000090: 42be bd82 4376 013e ad1d ca82 cfa1 2d3e
000000a0: 3642 c802 17fa 163e fe16 233f 326e 42bf
000000b0: 28de c882 421b c702 3e71 c782 d2c1 be82
000000c0: 8cf2 af02 465a bd02 b08a c482 6cf9 6202
000000d0: 0ca9 b202 bc66 a602 9f07 953c 2d2c e43c
000000e0: fab9 bd82 07ef c582 f737 a782 c979 883a
000000f0: abd1 0dbe 610a b902 0bdb e302 ea31 b902
00000100: b9df b002 26be cc82 059b c582 3920 b502
00000110: 85f0 c202 8a58 ca82 d6a6 ac82 beb6 f3be
00000120: edac cc02 e325 ab3e 8145 7e3e 5fbe 953e
00000130: 762a b182 0a72 bf82 59c3 24be 6576 a182
00000140: f5ba b482 2f4c e73e c290 c182 588e f7be
00000150: bca6 b3be 6536 2601 96e1 ba02 e5ed bb82
00000160: 9369 b602 f3f3 c602 aeeb 9f3e df44 b282
00000170: 2816 c582 d966 b3be 04aa c402 ead4 ae02
00000180: f1f4 c2be 4729 0283 8f2e 87a1 0da8 8f3e
00000190: dce5 9702 cd04 76be 7f26 c002 03b5 cbbe
000001a0: e042 c202 82fa 84be fc09 eebd d990 15bf
000001b0: 60f4 c082 7854 d882 3245 ca02 ec44 c082
000001c0: b0ee b182 d2f1 b482 d916 cd02 a92e a782
000001d0: c7ff b302 dc74 ab82 bcf6 cabe 471d d9be
000001e0: 20c3 ad02 80ad b302 ce47 ac82 d750 193e
000001f0: fe36 edbe 5674 8d81 a414 c102 6d3e c682
2.961775e-37 -2.6587946e-37 -2.9790072e-37 -2.6357337e-37 2.7986215e-37 2.8787538e-37 -2.6263737e-37 0.07182255
2.851081e-37 0.09092569 -0.1338212 -0.031971034 2.585772e-37 -2.9461567e-37 -0.23306473 2.0876742e-37
-2.9262758e-37 -0.07336367 2.5060983e-37 -0.31742147 -0.270525 2.5488023e-37 2.9767716e-37 -2.7139891e-37
-2.5163845e-37 2.6022319e-37 -0.03722101 -2.3940429e-37 -2.9705673e-37 -0.17659529 2.7862354e-37 -2.5795524e-37
0.0124572115 7.257317e-38 -5.3779052e-18 -0.10050744 -2.7880257e-37 0.1264277 -2.9698265e-37 0.16956256
2.9425362e-37 0.14743839 0.6370696 -0.75949395 -2.951487e-37 2.9256067e-37 -2.930542e-37 -2.8029238e-37
2.5853154e-37 2.7822868e-37 -2.8879214e-37 1.6675438e-37 2.6251777e-37 2.4450474e-37 0.01819211 0.027853096
-2.78778e-37 -2.9083743e-37 -2.4570567e-37 0.0010412271 -0.13849513 2.7189264e-37 3.3480377e-37 2.7211956e-37
2.5989286e-37 -3.0084246e-37 -2.9035525e-37 2.6614055e-37 2.864379e-37 -2.9732051e-37 -2.5368888e-37 -0.4760036
3.007436e-37 0.33427343 0.24831201 0.29246804 -2.6032184e-37 -2.8130383e-37 -0.16090144 -2.372478e-37
-2.655593e-37 0.4517531 -2.8441888e-37 -0.48350787 -0.35088146 3.052841e-38 2.7459724e-37 -2.7613725e-37
2.6803093e-37 2.9233505e-37 0.31234497 -2.619428e-37 -2.8959265e-37 -0.35039404 2.8897196e-37 2.5689209e-37
-0.380775 -3.825095e-37 -9.16028e-19 0.280579 2.2319389e-37 -0.24025269 2.823396e-37 -0.39786538
2.8544122e-37 -0.25972372 -0.11622998 -0.58424145 -2.8352129e-37 -3.178683e-37 2.9720949e-37 -2.8251424e-37
-2.6144812e-37 -2.658742e-37 3.0135157e-37 -2.4565226e-37 2.6448495e-37 -2.5193266e-37 -0.39641368 -0.4240515
2.5532062e-37 2.640127e-37 -2.5314342e-37 0.14972244 -0.46331018 -5.1962154e-38 2.8370648e-37 -2.9129316e-37

find.6.bias f4 [2]
00000000: a489 0d3e 88ea 19bc
0.13822037 -0.0093942955

exp_avg f4 [128, 140]
00000000: 270f e639 905c 9c39 e27f 7fb8 a8de d4b8
00000010: dd05 1238 4934 43b9 ec53 253a 88d1 1ab6
00000020: ddb6 a9b8 d0d3 b238 5f91 5c3a 0379 89b5
00000030: 8c45 8c3a 6558 c538 7967 19b9 ee49 f539
00000040: 63da 0237 5fc9 e6b8 df7e 65b7 f888 9739
00000050: 36ca 8eb8 16c6 de38 d960 17b7 bad4 3738
00000060: 3139 1e3a 4921 b738 0c3a 8c3a 672c c638
00000070: 995b 9039 79c5 6b3a 2975 083a e07b 67b8
00000080: 7678 1ab6 7a94 1935 4f05 c4b5 f7ae a838
00000090: 3f78 0f3a 137c 2738 1999 e2b8 98b0 b1b8
000000a0: a933 8c3a 2668 c538 6e56 9339 8fab b039
000000b0: 0f6f 0436 ac1f 57b7 9db4 1738 3446 f6b7
000000c0: e3f5 c6b6 3e20 2e3a 5d16 fb37 bd35 5d39
000000d0: ccea 7637 a68f 94b9 df46 8c3a 460b c638
000000e0: e7fa a038 871e ae39 38c7 dc38 f5f7 cdb5
000000f0: 2c17 ec37 884c 85b8 7d98 b238 e54c c235
00000100: e52a be39 bc06 0000 08f5 7db8 6bd7 f039
00000110: 724c 8c3a 2cee c538 e285 b339 bc85 4039
00000120: a207 0000 3306 44b8 ddae 0838 3593 9739
00000130: a840 c737 4ec8 d638 c639 ccb3 af47 17b7
00000140: 29fe d2b8 4f2a 96b7 fe51 8c3a 56a5 c638
00000150: 34e1 c039 4208 d139 180b b738 47ef 4e34
00000160: 7132 f6b6 e8c6 1539 727b 52b6 e376 ee39
00000170: d400 ad36 3caa f237 a83c ad35 1c06 0080
00000180: ba3b 8c3a 37f1 c638 3f12 0039 57ed 9839
00000190: 3ab4 8138 3e07 0000 50ac fc39 0e37 5335
000001a0: 1f46 bf37 e98a 3db7 ae8f 53b6 4807 0000
000001b0: 8e07 0080 765f 7837 ce45 8c3a 8c0a c738
000001c0: c740 b538 fd9d 7839 862a fb35 2a07 0080
000001d0: d052 2c3a 2007 0000 f28f e1b8 8a06 0000
000001e0: a2af a835 e89a 35b5 a592 ccb7 8006 0000
000001f0: ef3f 8c3a d0e0 c538 91d5 0138 5fd6 0c39
00000200: 866e 9e35 7606 0080 da06 0000 7606 0000
00000210: 5023 6035 d611 deb5 89df 113a 9406 0080
00000220: 0207 0000 f205 2a36 c044 8c3a 0c8c c538
00000230: 3a5f 6739 4f02 cb38 cc34 76b8 0ece a8b8
00000240: 4e9d a737 4309 63b8 a461 bd39 bcb7 9b35
00000250: 5be9 f3b7 cbdd c737 7878 8e39 6367 8bb4
00000260: b180 e439 25d9 3438 afb1 5cb8 a810 6039
00000270: d63d c736 191b 2138 5dfe e6b6 42ae c538
00000280: 91be 88b8 a107 fd37 daa1 c1b6 a06a a436
00000290: a0f6 6839 4ed9 8338 4873 e439 5752 3438
000002a0: b1f8 4939 5dea a639 46e4 8c39 d9a3 d7b7
000002b0: 4a0b c0b4 f039 90b5 76ad 20b6 6f00 6f38
000002c0: 9876 5239 e381 00b8 20ba a2b8 e201 03b7
000002d0: ac71 e439 adb8 3438 2638 2c39 863a 3939
000002e0: 2805 77b5 6d49 7cb7 b5a8 3438 14b0 46b7
000002f0: c3c4 35b6 ae9a 9439 189c 7eb4 b090 c738
00000300: d1b4 1d37 47a4 5ab8 83d6 e439 01b1 3538
00000310: f5c4 8b38 6168 0939 2128 3339 ae12 b1b5
00000320: 500d bb37 d756 31b8 8f9f 7e38 3f6e 63b4
00000330: cd4f 3939 8006 0080 7c1a 85b8 8c29 1439
00000340: 787d e439 04b3 3338 c044 2e39 2a58 1239
00000350: 0207 0080 f90d d3b7 de2e 2038 974a 4f39
00000360: 6ffd a937 1a24 9038 10b1 dd35 3044 e6b6
00000370: 8c64 23b8 2900 8e37 3b55 e439 cfd3 3538
00000380: 94e7 2e39 4caa 7839 67db 7938 32bc 1e36
00000390: 7e3a b5b5 5046 ad38 5be9 bcb5 7380 8539
000003a0: e783 2936 43af 3e37 bb27 36b4 1607 0080
000003b0: 4a59 e439 8423 3538 5b62 0f38 dfbb 3b39
000003c0: 1694 1d38 a806 0080 ebe3 8039 473e 6335
000003d0: acf5 4f38 b42c 4cb7 7723 5535 3e07 0080
000003e0: ba08 0000 26dd b436 94ba e439 1884 3438
000003f0: 946b 9e37 6d88 c838 f3f3 6e34 7606 0000
0.00043880308 0.00029823603 -6.0915838e-05 -0.00010150421 3.4814573e-05 -0.00018616127 0.0006306756 -2.3069751e-06
-8.092609e-05 8.5271546e-05 0.0008413996 -1.0242514e-06 0.0010701879 9.410157e-05 -0.00014629764 0.00046785123
7.799451e-06 -0.00011004763 -1.3679003e-05 0.00028903014 -6.8087524e-05 0.00010622681 -9.0228505e-06 4.3828717e-05
0.0006035744 8.73232e-05 0.0010698452 9.449646e-05 0.00027534066 0.00089939643 0.00052054465 -5.519006e-05
-2.3017906e-06 5.7213003e-07 -1.4604683e-06 8.043454e-05 0.0005472935 3.9931456e-05 -0.000108050364 -8.472911e-05
0.0010696548 9.413091e-05 0.0002810242 0.00033697157 1.9734177e-06 -1.2822373e-05 3.6169415e-05 -2.9358176e-05
-5.929485e-06 0.00066423777 2.9931945e-05 0.00021096221 1.47174105e-05 -0.00028335786 0.0010702274 9.4434756e-05
7.676129e-05 0.0003321061 0.00010527525 -1.5345855e-06 2.8144183e-05 -6.356189e-05 8.5161046e-05 1.4476506e-06
0.00036271583 2.416e-42 -6.0548104e-05 0.00045936866 0.0010703935 9.438055e-05 0.0003424129 0.00018360367
2.738e-42 -4.6735815e-05 3.258778e-05 0.00028910642 2.3752757e-05 0.00010241625 -9.509999e-08 -9.0169915e-06
-0.00010060921 -1.7901095e-05 0.0010705588 9.472172e-05 0.00036788883 0.0003986974 8.7281864e-05 1.9272294e-07
-7.3372435e-06 0.00014283846 -3.1364293e-06 0.00045483475 5.155898e-06 2.892792e-05 1.2907158e-06 -2.192e-42
0.0010698952 9.4863055e-05 0.00012213828 0.0002916853 6.184769e-05 2.598e-42 0.00048193568 7.868374e-07
2.2801627e-05 -1.129762e-05 -3.1525083e-06 2.612e-42 -2.71e-42 1.4804178e-05 0.0010701956 9.491024e-05
8.642818e-05 0.00023709978 1.8713333e-06 -2.57e-42 0.00065736193 2.556e-42 -0.00010755648 2.346e-42
1.2568091e-06 -6.765317e-07 -2.4386982e-05 2.332e-42 0.0010700206 9.4355666e-05 3.0954896e-05 0.000134313
1.1804084e-06 -2.318e-42 2.458e-42 2.318e-42 8.349789e-07 -1.654548e-06 0.00055646204 -2.36e-42
2.514e-42 2.5335435e-06 0.0010701641 9.419778e-05 0.00022065351 9.680224e-05 -5.870014e-05 -8.049245e-05
1.9981202e-05 -5.4129643e-05 0.00036121637 1.1601874e-06 -2.9076522e-05 2.3825929e-05 0.00027174107 -2.596599e-07
0.0004358343 4.3117576e-05 -5.2617568e-05 0.0002136851 5.937861e-06 3.8410628e-05 -6.884146e-06 9.42615e-05
-6.520481e-05 3.0163503e-05 -5.77069e-06 4.8999937e-06 0.00022217119 6.287043e-05 0.0004357344 4.299203e-05
0.00019261499 0.00031836602 0.00026872958 -2.5706295e-05 -3.5771e-07 -1.0745698e-06 -2.3942825e-06 5.6982444e-05
0.0002007134 -3.0638545e-05 -7.7594304e-05 -7.808647e-06 0.0004357224 4.3087337e-05 0.00016424115 0.00017664777
-9.2022174e-07 -1.5037466e-05 4.3072465e-05 -1.1842716e-05 -2.7085632e-06 0.00028344005 -2.371238e-07 9.5160096e-05
9.400029e-06 -5.2128245e-05 0.00043647373 4.331861e-05 6.6647226e-05 0.00013104222 0.0001708572 -1.3192964e-06
2.2298336e-05 -4.2280964e-05 6.070692e-05 -2.118113e-07 0.00017672703 -2.332e-42 -6.346867e-05 0.00014129857
0.0004358103 4.2843647e-05 0.00016619544 0.00013956489 -2.514e-42 -2.5159667e-05 3.819062e-05 0.00019768845
2.0264384e-05 6.8731795e-05 1.6517315e-06 -6.862472e-06 -3.895587e-05 1.6927794e-05 0.0004355105 4.3351025e-05
0.00016680203 0.00023714564 5.957056e-05 2.3653379e-06 -1.3502574e-06 8.2623796e-05 -1.4075007e-06 0.0002546344
2.525974e-06 1.1365689e-05 -1.6964525e-07 -2.542e-42 0.00043554074 4.318684e-05 3.4185457e-05 0.00017903697
3.7569633e-05 -2.388e-42 0.00024583875 8.4654715e-07 4.9581446e-05 -1.2169756e-05 7.940029e-07 -2.598e-42
3.13e-42 5.390163e-06 0.0004362656 4.3038366e-05 1.8885163e-05 9.5621544e-05 2.2254225e-07 2.318e-42

exp_avg_sq f4 [128, 140]
00000000: 2c63 0137 d58c 4637 e253 6037 1ec5 b135
00000010: 6f8f 4436 80fe af35 0dc8 3f37 2b21 0935
00000020: 7e65 2136 b982 8936 7580 e836 9c39 9e33
00000030: 8794 1038 cab2 4935 5858 9136 273e 5637
00000040: c6c2 4935 c4a0 f536 93b4 cf35 3a8b da36
00000050: d000 4c36 73a6 f136 68c4 a736 200e f235
00000060: 4a0f 2436 4f80 d336 7d94 1038 8cb2 4935
00000070: ea2f c636 f172 3637 2ba8 4837 a0a8 bb35
00000080: 7e37 0334 2cb2 6536 166c a035 04f1 fc36
00000090: beff 9136 0297 8936 5e40 6f35 2abf 6b36
000000a0: 7b94 1038 cab2 4935 c30a ed36 eee6 1c37
000000b0: 2709 e232 e3b7 9836 de99 1335 000c f335
000000c0: cb6e d434 48a2 ae36 6588 2836 9dc5 0a37
000000d0: 505a 1e36 7f98 0f37 8594 1038 88b2 4935
000000e0: e815 af35 818f f636 cffe 8c36 831f 0c34
000000f0: 6176 c835 6c85 f536 4134 9f36 63a4 4e36
00000100: 1a5f 0636 e221 ee03 cc85 1036 07d5 2936
00000110: 7c94 1038 92b2 4935 0859 5e36 8034 c736
00000120: e4d6 5803 c4fa 5736 1cb8 5535 1d43 b636
00000130: f4c4 9032 7c30 db36 9335 9e33 fac3 5435
00000140: d4ef 5a36 9d3e 9e35 8294 1038 4cb2 4935
00000150: aeca d035 18da 1636 658f 0635 b7fc ff33
00000160: 9eac 9535 1ba0 2636 da93 2633 ee97 5936
00000170: 6484 c734 af49 2834 949e 4934 eda6 2103
00000180: 7694 1038 4bb2 4935 4c68 b835 4105 4436
00000190: f0bd 9235 5a2b 8303 df96 0737 4212 c633
000001a0: 6f77 8b33 8019 bd34 85c2 1135 074c 1203
000001b0: a4b6 1803 ecbb 9633 8494 1038 3cb2 4935
000001c0: f35c a234 c58b b635 29d3 3432 860a 1803
000001d0: 7c15 7636 9e7f 5103 66a3 9535 dc7a 2103
000001e0: 147e a433 ef55 2c33 b0fa a235 5555 aa03
000001f0: 7894 1038 8bb2 4935 bfe5 c734 9fe9 9a35
00000200: 40d0 6e31 0fa9 0204 b662 da03 3255 0103
00000210: 3cfc 1330 7e7c 8934 10e2 9336 9ac1 0703
00000220: b316 2403 a379 3e32 8394 1038 b9b2 4935
00000230: 2f4e c835 1f9a 1f36 e1d2 7e36 f4a3 b934
00000240: dcf0 cb34 bd16 4d34 1bcd 8535 9392 4934
00000250: 5969 e534 b156 0635 2d4a d335 292f 5c32
00000260: 8aab d936 61a5 0334 9745 4435 1031 1936
00000270: 3826 6634 5684 6c35 3d99 c834 d544 b535
00000280: d72d 7435 e74e 4d35 6954 d534 95ef 1d35
00000290: 53e8 f334 d9b1 0b36 97ab d936 a5a5 0334
000002a0: 1f9a 8635 ffc2 0c36 a8be c335 d046 cb34
000002b0: fc57 1933 2332 9c34 0510 a334 794e 2036
000002c0: 4c66 d734 60b2 4c35 1f53 7c34 99a1 6935
000002d0: 98ab d936 73a5 0334 edd6 ac35 fab0 e635
000002e0: 185e 4731 b4ab 3435 dcc7 a734 b9f3 2435
000002f0: 04f8 5a33 cae3 6b35 48c5 ad34 dd00 1036
00000300: cf4f dc34 f50a 7e35 55ab d936 f2a4 0334
00000310: ec2e 7d34 698b d435 86de 2c35 d321 6032
00000320: 8288 c634 e872 c435 95d7 ef35 6eb2 5534
00000330: 27ab 6934 ebeb 7403 574f 1435 d794 bb34
00000340: 8fab d936 fca5 0334 c145 4c35 e2bc 9c35
00000350: 79dc 0404 03b9 4a35 d630 a034 4a70 2435
00000360: 09d8 1132 645c 0b36 602b 5c32 d7dc 0034
00000370: f530 1134 5c79 5534 b7ab d936 e0a4 0334
00000380: ff1d 2e34 fb6f ab34 7a04 7133 753f c032
00000390: 4d21 8b34 b2dd f734 3e13 4932 737b bd34
000003a0: dca0 e932 607b 2732 28ed 3032 dad7 7d02
000003b0: b8ab d936 30a5 0334 c992 8534 db16 ae34
000003c0: 2ea8 0834 a5c8 8802 9aa6 6e35 435f 1332
000003d0: 5454 0532 af69 3234 f327 fd33 3d7d 4f03
000003e0: 8cd4 7d02 6b96 4a32 69ab d936 8ea5 0334
000003f0: 01b4 5833 7c9b 1334 084d 7e30 e612 b703
7.712089e-06 1.183451e-05 1.3370971e-05 1.3244896e-06 2.9289765e-06 1.3112585e-06 1.1431065e-05 5.108474e-07
2.4049946e-06 4.0981363e-06 6.929093e-06 7.3679274e-08 3.4470602e-05 7.513851e-07 4.3316213e-06 1.2769865e-05
7.516177e-07 7.3202846e-06 1.5475256e-06 6.5131144e-06 3.0398842e-06 7.201737e-06 4.9998525e-06 1.8034516e-06
2.4446804e-06 6.303227e-06 3.4470566e-05 7.5138155e-07 5.9064378e-06 1.0874807e-05 1.1960084e-05 1.3981662e-06
1.2220514e-07 3.4227369e-06 1.1952386e-06 7.538243e-06 4.351109e-06 4.100498e-06 8.9128105e-07 3.5129e-06
3.447056e-05 7.513851e-07 7.0644032e-06 9.352092e-06 2.6314025e-08 4.5513602e-06 5.4985674e-07 1.8108403e-06
3.956869e-07 5.204496e-06 2.5113343e-06 8.271451e-06 2.3596403e-06 8.55897e-06 3.4470595e-05 7.513813e-07
1.3044892e-06 7.3480774e-06 4.2019888e-06 1.304998e-07 1.4935614e-06 7.3171013e-06 4.7446524e-06 3.0792078e-06
2.0022912e-06 1.3996162e-36 2.1535552e-06 2.530696e-06 3.4470562e-05 7.513819e-07 3.31324e-06 5.936774e-06
6.3723377e-37 3.2183461e-06 7.96166e-07 5.4318357e-06 1.685337e-08 6.532353e-06 7.3671934e-08 7.926134e-07
3.262413e-06 1.179014e-06 3.4470584e-05 7.513779e-07 1.5556195e-06 2.247869e-06 5.0127557e-07 1.19203314e-07
1.1151603e-06 2.4829121e-06 3.8784357e-08 3.2423955e-06 3.7162965e-07 1.5673025e-07 1.8777274e-07 4.750527e-37
3.447054e-05 7.5137785e-07 1.3739423e-06 2.9209334e-06 1.0933127e-06 7.709441e-37 8.0817545e-06 9.2234146e-08
6.494417e-08 3.5222547e-07 5.429977e-07 4.299282e-37 4.4878446e-37 7.019102e-08 3.447059e-05 7.51377e-07
3.024248e-07 1.3600735e-06 1.0525391e-08 4.4680866e-37 3.6669362e-06 6.1566077e-37 1.114892e-06 4.7454683e-37
7.6597786e-08 4.0125027e-08 1.21429e-06 1.0011293e-36 3.4470548e-05 7.513815e-07 3.72338e-07 1.1541887e-06
3.4751935e-09 1.5359054e-36 1.2835551e-36 3.800749e-37 5.3836735e-10 2.5608819e-07 4.4072585e-06 3.989518e-37
4.8221326e-37 1.1087113e-08 3.4470588e-05 7.513841e-07 1.4923916e-06 2.3782557e-06 3.7971697e-06 3.4578227e-07
3.7986945e-07 1.9100385e-07 9.968966e-07 1.8772907e-07 4.2731224e-07 5.004504e-07 1.5742313e-06 1.2816408e-08
6.4870737e-06 1.226049e-07 7.3116956e-07 2.2827335e-06 2.1434323e-07 8.8109425e-07 3.7364399e-07 1.3505584e-06
9.096379e-07 7.648327e-07 3.9735758e-07 5.8835695e-07 4.5431315e-07 2.0816135e-06 6.4870796e-06 1.2260587e-07
1.0028633e-06 2.0975128e-06 1.458412e-06 3.786322e-07 3.570311e-08 2.9093744e-07 3.0372772e-07 2.3887535e-06
4.0121301e-07 7.625549e-07 2.3499568e-07 8.703442e-07 6.48708e-06 1.2260516e-07 1.287755e-06 1.7187842e-06
2.9011797e-09 6.7305086e-07 3.125159e-07 6.1449424e-07 5.098265e-08 8.78758e-07 3.2367302e-07 2.1458175e-06
4.1036262e-07 9.463832e-07 6.4870496e-06 1.2260332e-07 2.3579531e-07 1.5835805e-06 6.439881e-07 1.3046207e-08
3.6979696e-07 1.463658e-06 1.786963e-06 1.9902083e-07 2.1762081e-07 7.1975976e-37 5.524975e-07 3.493976e-07
6.487076e-06 1.226071e-07 7.609743e-07 1.1677878e-06 1.5617762e-36 7.552009e-07 2.9837855e-07 6.1258163e-07
8.4892315e-09 2.0766392e-06 1.2815548e-08 1.200127e-07 1.3521988e-07 1.9881321e-07 6.487094e-06 1.2260307e-07
1.6215925e-07 3.1932709e-07 5.6116257e-08 2.2380599e-08 2.5914997e-07 4.616864e-07 1.1704115e-08 3.5293814e-07
2.719792e-08 9.748732e-09 1.0298471e-08 1.8649451e-37 6.4870947e-06 1.226042e-07 2.487998e-07 3.2426655e-07
1.272717e-07 2.0098568e-37 8.8904346e-07 8.578186e-09 7.760793e-09 1.661599e-07 1.1788497e-07 6.09756e-37
1.8648502e-37 1.1792149e-08 6.4870587e-06 1.2260554e-07 5.045513e-08 1.3747007e-07 9.251413e-10 1.0760112e-36

exp_avg f4 [128]
00000000: 86b7 983a f00e f239 a67f fe38 526d 80ba
00000010: 4920 20ba 9ab2 d239 0dbb 1d3a ec7c e739
00000020: 3707 57ba b97e 0b3a 1ced e439 4400 64ba
00000030: a178 13bb ed09 c138 7d3b 3b37 c0b5 073a
00000040: 309a eb38 e003 f936 6d42 0f39 9a30 ef39
00000050: 095f d139 3a75 043a 54e4 bf39 87a6 fd39
00000060: 185a 8fb9 8ccf 9cba a844 45ba 5e7d 163a
00000070: 2ee2 21b8 accc e839 4dcd 2d39 5817 b839
00000080: 9875 05b9 84e8 0039 ab8c 2dba ca82 71ba
00000090: b680 9e39 cd16 f539 ac37 5a38 821c da39
000000a0: e7ca 9939 92ae 30ba f0bd 8138 d2d4 f7b9
000000b0: a4d5 44b9 30dd d436 852e 0c3a 9209 c6b7
000000c0: aa8e 1ab9 e404 b839 da2a 353a 1351 c7b9
000000d0: a390 bab9 1029 c639 c35a 4f3a 3815 82b8
000000e0: 1249 8137 9e8f fab9 92f6 03ba 1131 50b9
000000f0: b4d5 80ba 3f1a ec39 cc9f 40b9 a2fc b0b9
00000100: 7f33 09ba e629 c8b8 4584 65b8 1b57 0439
00000110: 3ef4 0fb8 f9fc b1b9 6ed5 59b7 d3b3 7539
00000120: 6cd9 a4b6 9a63 9db9 b375 1fba ce33 cbb7
00000130: 7a75 93b7 6a76 58b9 ff0c 1eb8 f522 a1b9
00000140: 09c7 3eb9 2fc3 d8b8 b0b0 0c38 d2ff 25ba
00000150: fe3f f439 82ee 92b9 65bf 353a 2d79 2cba
00000160: c5ab 81b7 dcdd 2539 d2b0 2c3a ccd5 7c39
00000170: f25e f637 0cd6 be39 98ab c1b9 589c 9d38
00000180: 33de 49ba eea9 de38 a1fe 93b9 b25d 52ba
00000190: dee6 ab39 5323 d3b7 4ba1 8a39 32a0 78b8
000001a0: acd3 0bbb f13f beb7 dfb5 02b9 621d 0e3a
000001b0: a612 15ba 0550 673a 0ebb dd39 62b1 64ba
000001c0: a018 1639 8e62 5339 d2ab 53ba 4c02 0e3a
000001d0: 2990 1b3a bea1 b739 45eb ac39 9e42 07ba
000001e0: 927d 0eb6 04df 8639 567a c839 0e27 cab9
000001f0: 58fc f5b9 4230 0539 d337 51ba 6ecd a6b9
0.0011651374 0.00046168966 0.0001213544 -0.0009798205 -0.00061083265 0.0004018739 0.00060169474 0.00044152827
-0.0008202674 0.00053213123 0.0004366421 -0.00086975493 -0.002250232 9.204806e-05 1.1159919e-05 0.0005176924
0.00011234393 7.4212294e-06 0.00013662288 0.00045621843 0.00039934393 0.00050528685 0.00036600477 0.00048379993
-0.0002734221 -0.0011963709 -0.0007525184 0.0005740727 -3.8596037e-05 0.0004440298 0.00016575046 0.00035112607
-0.00012727675 0.0001229365 -0.00066203874 -0.00092129095 0.00030232006 0.0004674703 5.20271e-05 0.0004160144
0.00029333608 -0.000673988 6.186578e-05 -0.00047270075 -0.00018771604 6.343842e-06 0.0005347508 -2.3607896e-05
-0.00014739731 0.0003509886 0.00069109874 -0.00038016643 -0.00035584447 0.00037796097 0.0007909948 -6.202835e-05
1.5412024e-05 -0.0004779072 -0.0005033995 -0.00019854704 -0.0009829313 0.00045032983 -0.00018370076 -0.00033757562
-0.0005233809 -9.544547e-05 -5.472104e-05 0.0001262095 -3.4321325e-05 -0.0003394855 -1.2983901e-05 0.0002343201
-4.912892e-06 -0.00030019582 -0.0006082907 -2.422361e-05 -1.757847e-05 -0.00020643478 -3.768224e-05 -0.00030734358
-0.00018193958 -0.000103360384 3.3543154e-05 -0.00063323707 0.00046586985 -0.00028024992 0.0006933122 -0.0006579336
-1.5457985e-05 0.00015818275 0.00065876276 0.00024112238 2.9369698e-05 0.000363991 -0.00036939676 7.515465e-05
-0.0007700652 0.00010617437 -0.00028227738 -0.0008024826 0.0003278767 -2.516961e-05 0.00026441584 -5.9277e-05
-0.0021335883 -2.267954e-05 -0.00012465518 0.00054212485 -0.0005686678 0.00088238745 0.0004229177 -0.0008723942
0.00014314288 0.00020159243 -0.00080746145 0.00054172124 0.00059342623 0.00035024987 0.00032981686 -0.0005159768
-2.123274e-06 0.0002572463 0.0003823812 -0.0003855754 -0.00046918052 0.00012701846 -0.0007981036 -0.00031815044
