scheduler/BaGTI/checkpoints/stochastic_energy_latency_10_Trained.ckpt (torch, 996719 bytes, 42 tensors)

find.0.W_m f4 [120, 128]
00000000: 9df4 813d 08a7 e5bc dc11 99bd 5fc2 3e3d
00000010: f48a 6dbd 9595 bfbc bf50 f5bc e090 833b
00000020: 86f2 22bd 8a14 afbc 8b73 a5bd 15d2 833d
00000030: db4a 9cbd faf8 3bbe 39c3 a9bd 0f72 92bd
00000040: f648 ad3d 12e3 06be aa8b a0bd 59a2 7abd
00000050: abab b43c f296 acbd 6c6b 1bbe e024 223d
00000060: 9ee6 b43d 09e1 22be 154f 2dbe a59c de3d
00000070: 10a4 c9bc 2559 0ebd ebd4 03be 6803 ef3c
00000080: c43f c0bd a58a 103d 9320 353d 307a f0bd
00000090: a9a2 b8bc e05c 44bd 9bfb efbd 385b 8bbd
000000a0: 8904 423d eca8 00bd fcec e5bd af29 fd3d
000000b0: 5cdb f9bd 493f 5dbd 1da4 d9bb 7390 ef3d
000000c0: cf3d 9e3d aad1 44be ecc9 e5bd 9a4f a2bd
000000d0: 8926 cabd eced 123e 857d 083e 1bd7 01be
000000e0: ec8a 05be d743 483c 43a4 003c 1c3e 3bba
000000f0: 6323 9dbc c9f9 743d 8198 84bd 6daf 683d
00000100: b02a 0abe 2ab4 80bd 3b6b 5f3d 1d7f ce3c
00000110: 87c5 743c a293 04be 4da6 c3bd abad 143d
00000120: 5449 7b3d c76d ecbc ff2a c8bd f81e d2bd
00000130: 95ee 073e 3f2c 92bd 5cc8 88bd 4e04 1bbd
00000140: aaf4 99bd 0834 083d c9f8 0b3e dfeb b1bc
00000150: 5bc7 14be b765 97bc 6857 49be b8fa 943d
00000160: 7da4 743d 1801 ee3c de90 25bd d546 a5bd
00000170: 85a5 08be 09b3 d43b 426e bfbd bb33 debd
00000180: 477f 1a3c b8cc 0f3c eb92 56bd 9bae f8bc
00000190: c1fe a93d 0090 22be 7571 023e a8f8 8c3d
000001a0: cb76 e63c a264 49bd 1d88 3fbe 4afc 223d
000001b0: 3e88 a13d 53e6 d3bc fc29 5abe a0f2 28bd
000001c0: 467a 12be be4a 10b9 bbe0 9abd 8175 b4bb
000001d0: bf07 053d 6be8 21bd e4f8 43be 3e55 b2bc
000001e0: bdb8 70bd 8df0 af3d 5157 d6bc 0be8 3dbc
000001f0: 24d0 9b3d 60f1 9fbc 7f5a 963d 128b 1bbe
00000200: 9005 913d 3dfd e5bd 435e 1abc 4a4b f7bc
00000210: 54cc 65be 64b8 103e 8cb4 0abd 90af b7bd
00000220: 07f1 a93d a4c1 9abd 6841 d93d 5525 b43c
00000230: 914c c0bd 8bd7 193d ddc5 28bd 5516 ddbd
00000240: f527 4d3d d2c6 313c 8d19 28be afd8 6b3d
00000250: 8c0d 21bd 0a9b 58bc 6bd7 313e 6797 8cbd
00000260: 3c5d 6a3d b3f8 18bd 031f e9bd fe32 e4bc
00000270: 9f24 c8bd 9e66 423d 8db0 bf3d 52a0 c7bd
00000280: 480e e9bb 0d61 303d 3f06 f43d c10c 49bd
00000290: 5383 4e3d d0fb 07bd 7da5 293d 823f d43d
000002a0: b1bf 35bd d1d9 cdbd 7a82 30bb 9209 82bd
000002b0: a0b7 3b3d 642e 8cbd a0b8 ca3d 9e1a 26bd
000002c0: 2c12 01be df5d a53c d0be a9bd 5aff b0bd
000002d0: cfef 4fbe fdf5 cb3c b00e a13b bd85 963c
000002e0: ddf1 b63c 85d0 f6bd 8b6d 853b cbb1 ccbd
000002f0: 9760 513d f050 413d fd6b f3bd 40fc 043e
00000300: bc27 dbbd 8758 823c 0cc0 acbd 3173 0fbd
00000310: 412f 773d 31ce 77bd 6d6b 043c 7d14 38be
00000320: 938a f2bd 99ed 9bbd 2271 e3bd 13e0 22be
00000330: ad65 cfbd f933 c6bd 3682 2dbe bd6a c73d
00000340: 317d f3bb eb45 933c 9831 91bd f7bf 03be
00000350: 1aa8 04be 1701 16be 9d83 16bd 001a e4bd
00000360: 56e5 ff3d 3e14 c7bd f97c 823d fddb 433e
00000370: 7b97 92bd a37f e83d 1fce f7bd 8a62 b1bc
00000380: d172 0bbe 14b8 0a3d 8d2f 0dbe 6187 a03c
00000390: debf c63d 50a3 ca3d 2892 4d3c 4088 b93c
000003a0: 3482 a43d 978f 893d 4aea 71bc 4204 aebc
000003b0: d725 343d c0f2 39bd b81f 2a3d d4cd 363b
000003c0: 82aa 953d db2d 8dbe d147 753d 2a72 31be
000003d0: f8c4 dcbc 0325 6d3e 5405 e8bd 2e64 0cbe
000003e0: f640 c6bd 164d e4bc 2b68 b93c 931e 39bd
000003f0: 5861 38be f9cc a5bc 0bfb e53b 961c 783d
0.063454844 -0.028033748 -0.074741095 0.046572085 -0.057993844 -0.023386756 -0.02994573 0.004015073
-0.03978207 -0.021372098 -0.08078679 0.06436554 -0.07631465 -0.18356696 -0.08289189 -0.07150661
0.08461182 -0.13172558 -0.07839139 -0.061189983 0.022054514 -0.08427228 -0.15177697 0.039585948
0.08833049 -0.15906157 -0.16924699 0.10869721 -0.024614364 -0.034752984 -0.1287419 0.029176429
-0.09387162 0.03528847 0.04422052 -0.117420554 -0.0225385 -0.047940135 -0.11717912 -0.06804508
0.047367606 -0.031411096 -0.11226842 0.12361466 -0.122000426 -0.05401543 -0.0066418783 0.116974734
0.07726633 -0.19220605 -0.11220154 -0.07925339 -0.09870631 0.14348572 0.13329132 -0.12679712
-0.13041276 0.0122232055 0.007851663 -0.0007142739 -0.019181913 0.059808526 -0.064744 0.056807924
-0.13492846 -0.062843636 0.054545622 0.025207097 0.014939672 -0.12946942 -0.09553204 0.036298435
0.061349228 -0.02886094 -0.09773826 -0.10259813 0.13274606 -0.071373455 -0.066788405 -0.037845902
-0.07517369 0.033252746 0.13669123 -0.021718917 -0.14529173 -0.018481119 -0.19662249 0.07274383
0.05972718 0.029053256 -0.04042136 -0.08070151 -0.1334439 0.006491069 -0.09347202 -0.108497106
0.009429759 0.008776836 -0.052386206 -0.030356696 0.083005436 -0.15875244 0.12738593 0.06883365
0.028132817 -0.049168237 -0.18704267 0.039791383 0.07887314 -0.025866663 -0.21305078 -0.04124701
-0.14304456 -0.00013760754 -0.07562395 -0.0055071716 0.03247809 -0.03952829 -0.19137913 -0.021769162
-0.05876993 0.08590803 -0.026164683 -0.011590968 0.07608059 -0.019524276 0.073414795 -0.1518977
0.07081139 -0.11229942 -0.009421888 -0.030187268 -0.22441226 0.1413284 -0.03386359 -0.08969033
0.082979254 -0.07556465 0.106081784 0.021990458 -0.09389604 0.037559073 -0.041204322 -0.10795275
0.050086934 0.010850625 -0.16415997 0.057579692 -0.03931956 -0.013220558 0.17367332 -0.06864815
0.05721782 -0.037346553 -0.11382868 -0.027856346 -0.0977261 0.047461145 0.09359846 -0.097473755
-0.007112298 0.043061305 0.11915254 -0.04908443 0.05041821 -0.03319913 0.041417588 0.10363676
-0.044372264 -0.10051311 -0.002693324 -0.06349482 0.045829415 -0.06844786 0.09898496 -0.040552728
-0.12604588 0.020186363 -0.08288348 -0.086424544 -0.20306323 0.02489757 0.004915081 0.018374318
0.022332126 -0.12051491 0.0040718964 -0.09994849 0.051117506 0.04719633 -0.118858315 0.1298685
-0.10700938 0.015911354 -0.084350675 -0.035021964 0.0603478 -0.060499374 0.008082253 -0.17976566
-0.11842837 -0.076136775 -0.11105563 -0.1590579 -0.10126815 -0.09677882 -0.16944203 0.097371556
-0.0074306955 0.017977675 -0.070895374 -0.12866198 -0.1295475 -0.14648853 -0.03674661 -0.111377716
0.12494914 -0.09720658 0.06371493 0.19126888 -0.07157799 0.1135247 -0.12099861 -0.021653432
-0.13618018 0.033866957 -0.1378767 0.019595804 0.097045645 0.09894431 0.012547053 0.022647977
0.08032647 0.06716841 -0.0147653315 -0.021242265 0.0439814 -0.04539752 0.041534156 0.002789368
0.073079124 -0.27574047 0.059882943 -0.17328706 -0.02694939 0.2315865 -0.11329141 -0.1371009
-0.09680359 -0.027868789 0.022632679 -0.045195173 -0.18005884 -0.02023934 0.007018452 0.060574137

find.0.W_s_ f4 [120, 128]
00000000: 69a8 abc0 0461 abc0 bedc cfc0 148e 99c0
00000010: b1a3 94c0 81d3 84c0 defc e5c0 fa43 9dc0
00000020: 6890 96c0 2861 91c0 534d 9bc0 76cd 84c0
00000030: 1a56 96c0 b19d afc0 c4fe 8cc0 cbbd 85c0
00000040: 4e77 a1c0 cef6 7ac0 6bc0 81c0 6fd9 87c0
00000050: 0e66 9cc0 a0ba 9fc0 aa0a 7dc0 4232 88c0
00000060: 1f8e 74c0 fdb1 8bc0 6934 8ac0 d45f 8ac0
00000070: 34ba 92c0 b395 acc0 06d9 a8c0 fb16 8cc0
00000080: 5360 a7c0 a5ff 91c0 a9a4 87c0 44a4 8dc0
00000090: 486b 7dc0 2ad2 bdc0 a078 94c0 903a 92c0
000000a0: 499f 94c0 bad7 75c0 4547 aac0 c1b5 89c0
000000b0: 88dd 74c0 c709 96c0 9eeb 8ac0 b5a6 8fc0
000000c0: 0c37 a7c0 a27f 86c0 baff 87c0 adc3 91c0
000000d0: 174b 95c0 6534 8cc0 993d 91c0 eaa1 9cc0
000000e0: 59c6 91c0 188d 86c0 602e 98c0 b768 8fc0
000000f0: dd65 b1c0 078a 8ac0 7636 97c0 3956 90c0
00000100: 366a 98c0 bb78 82c0 9323 d6c0 4840 a5c0
00000110: 55f0 a0c0 0143 8cc0 be57 9dc0 2c6e b0c0
00000120: f35a 98c0 43cc 80c0 ef79 98c0 5869 83c0
00000130: 9ce2 8ac0 487e 99c0 fc8d b2c0 f15f adc0
00000140: dc72 aac0 0df6 acc0 7f51 afc0 5deb b3c0
00000150: a039 81c0 5836 90c0 e727 b0c0 b450 88c0
00000160: 8cd6 adc0 6da3 90c0 9383 afc0 9d0b 84c0
00000170: 0788 83c0 f0ec 9bc0 740c 9dc0 9e79 95c0
00000180: 0416 acc0 d44f 83c0 1758 91c0 2e5e 95c0
00000190: 7575 98c0 c55a 89c0 a1ad 9ac0 8427 8fc0
000001a0: d599 9bc0 30e1 8dc0 6bd7 87c0 c906 bec0
000001b0: 94ff 93c0 00a6 96c0 d42b 8fc0 0b0e 9dc0
000001c0: 36c1 8fc0 d728 7fc0 f2b7 a6c0 8691 90c0
000001d0: 4944 80c0 a463 82c0 8986 a3c0 52e8 91c0
000001e0: 845a 93c0 6ab5 9bc0 b6e5 a2c0 4e5a 9ac0
000001f0: 223a 9cc0 ba02 95c0 c53e 8cc0 9b51 8cc0
00000200: 733e 84c0 55ce 8ec0 f7bd a6c0 5f26 97c0
00000210: 2489 76c0 3eb7 7fc0 3c63 87c0 749d 87c0
00000220: 9988 94c0 1b9a 8bc0 e4a7 cec0 ecb3 86c0
00000230: df7b 8ac0 1afe b3c0 2843 85c0 0661 dec0
00000240: 5856 94c0 4c3b 84c0 2a3b b0c0 36f3 84c0
00000250: 3045 8cc0 5fda 7bc0 571c 7bc0 8dc6 80c0
00000260: abc7 81c0 c905 88c0 ef8b 80c0 1ae0 83c0
00000270: a630 92c0 a951 8cc0 3dc1 87c0 6b0f 9bc0
00000280: 1f33 90c0 346e 93c0 eb45 a1c0 7340 8cc0
00000290: b25d 98c0 b7c7 8cc0 0e6c 96c0 a5d4 94c0
000002a0: 6464 97c0 c068 96c0 e317 8fc0 b921 97c0
000002b0: ccbe 76c0 eae7 8fc0 54e4 90c0 b896 84c0
000002c0: 97b5 90c0 7110 87c0 37fe a2c0 be52 91c0
000002d0: 1ae5 85c0 e209 7ec0 d311 7bc0 19f4 87c0
000002e0: 0faa 95c0 960b 7bc0 cf33 7ac0 f4fa b7c0
000002f0: da61 aac0 3d7c b0c0 8fd4 a6c0 a07b 99c0
00000300: c83f 82c0 4ef7 76c0 7e02 aec0 5a27 80c0
00000310: 286e 82c0 628c 89c0 34ab afc0 c2eb 8bc0
00000320: 6cfa 92c0 08d3 84c0 2647 96c0 76d1 8dc0
00000330: 68ec 8bc0 7987 92c0 08f1 7ec0 5424 87c0
00000340: 2078 97c0 a1ef 70c0 dfc7 82c0 e1f4 a1c0
00000350: 276d 86c0 cfb4 82c0 0314 7fc0 b10a 82c0
00000360: dd64 8cc0 aac6 b0c0 7115 a6c0 30cb 88c0
00000370: a414 a4c0 de99 bbc0 69a6 bac0 0c31 86c0
00000380: b77d 8fc0 4808 7fc0 beab c5c0 82d2 9fc0
00000390: 7ef5 b8c0 6fc7 8ec0 989e 9bc0 e1e0 8ec0
000003a0: beb2 86c0 91e6 86c0 0020 91c0 61a8 aac0
000003b0: ab25 86c0 f682 a9c0 3aa5 d5c0 c6f9 74c0
000003c0: 607c 81c0 d36c 83c0 3603 7ec0 20de 8cc0
000003d0: da94 83c0 9ba8 6dc0 5b9d b9c0 e847 85c0
000003e0: ee00 a1c0 5b05 9ec0 a70a 88c0 b5c7 86c0
000003f0: f146 8dc0 8887 87c0 dfdb 81c0 3cbb 6ec0
-5.364308 -5.3555927 -6.495696 -4.7985935 -4.644982 -4.1508183 -7.1871176 -4.914548
-4.7051277 -4.54311 -4.853189 -4.1500807 -4.6980104 -5.4879994 -4.4060993 -4.179418
-5.0458136 -3.9213138 -4.0547385 -4.245292 -4.887458 -4.9915314 -3.953776 -4.256135
-3.8211744 -4.365477 -4.3188977 -4.324198 -4.58523 -5.393274 -5.276492 -4.377805
-5.2305083 -4.5624566 -4.23885 -4.426302 -3.959673 -5.931905 -4.6397247 -4.5696487
-4.644444 -3.841292 -5.3212 -4.3034368 -3.8260212 -4.6886935 -4.341262 -4.4891
-5.2254696 -4.20308 -4.2499666 -4.555136 -4.6654162 -4.381396 -4.5387692 -4.894765
-4.5554624 -4.2047234 -4.755661 -4.4815326 -5.5436845 -4.329349 -4.725398 -4.510525
-4.762965 -4.0772376 -6.6918426 -5.164097 -5.0293374 -4.383179 -4.9169607 -5.5134487
-4.761102 -4.0249343 -4.7648845 -4.1066093 -4.3401623 -4.796665 -5.579832 -5.4179616
-5.326521 -5.4050355 -5.4786983 -5.622481 -4.0382843 -4.5066338 -5.504871 -4.2598515
-5.43244 -4.5199494 -5.4848113 -4.1264176 -4.110355 -4.872673 -4.90777 -4.671096
-5.3776875 -4.1034946 -4.542003 -4.6677465 -4.764338 -4.2923303 -4.833695 -4.4735737
-4.8625283 -4.4337387 -4.245046 -5.9383283 -4.6249485 -4.7077637 -4.4741 -4.907964
-4.4923353 -3.9868677 -5.2099543 -4.517764 -4.0083356 -4.074663 -5.1101727 -4.5596094
-4.6047993 -4.8658953 -5.090541 -4.8235235 -4.8820963 -4.656583 -4.3826623 -4.3849616
-4.132623 -4.462687 -5.210689 -4.723434 -3.8521204 -3.9955592 -4.2308636 -4.2379704
-4.6416745 -4.3625617 -6.4579945 -4.209463 -4.327621 -5.6247683 -4.164448 -6.9493437
-4.63554 -4.1322384 -5.507222 -4.154689 -4.3834457 -3.9352033 -3.9236047 -4.024237
-4.0556235 -4.250706 -4.0170817 -4.121106 -4.5684385 -4.3849683 -4.2423387 -4.845632
-4.5062404 -4.6072025 -5.039785 -4.3828673 -4.7614374 -4.3993793 -4.7006903 -4.6509576
-4.7310047 -4.700287 -4.471666 -4.7228665 -3.8553953 -4.49706 -4.527872 -4.1433983
-4.5221667 -4.220757 -5.093532 -4.5413504 -4.1842165 -3.9693532 -3.922963 -4.248547
-4.677009 -3.9225821 -3.9094121 -5.749384 -5.324445 -5.515166 -5.213447 -4.796341
-4.070286 -3.8588443 -5.437804 -4.0048037 -4.075947 -4.2983866 -5.489649 -4.372529
-4.593069 -4.1507607 -4.696185 -4.431819 -4.372608 -4.579037 -3.9834614 -4.2231846
-4.7334137 -3.7646258 -4.0868983 -5.0611424 -4.2008243 -4.0845714 -3.9855964 -4.063805
-4.3873124 -5.524251 -5.1901174 -4.274803 -5.1275196 -5.8625326 -5.8328137 -4.193487
-4.484096 -3.9848804 -6.1772146 -4.9944468 -5.7799673 -4.461845 -4.8631096 -4.464951
-4.209319 -4.2156453 -4.5351562 -5.333054 -4.192098 -5.2972364 -6.6764193 -3.827745
-4.0464325 -4.107034 -3.968946 -4.402115 -4.1119204 -3.7134159 -5.8004584 -4.1650276
-5.0313635 -4.9381537 -4.2513003 -4.2118783 -4.41491 -4.2352943 -4.0580897 -3.7301779

find.0.bias_m f4 [128]
00000000: 4530 193d f14e d9bc ce6d d63d 4b66 cabc
00000010: bca4 3ebc 529c d33c 8311 413c 4d6f 4bbd
00000020: a3d0 78bc de24 6fbc c2ea abbd f4c0 c83d
00000030: 70ba 933b a631 fcbc 6611 b6bd 3337 b8bd
00000040: b0ba 193e 6383 b13c 6c53 a7bd 6f10 6bbd
00000050: 1e98 1dbd 338e 6dbd 51a9 443e 1b95 eebd
00000060: 68d4 83bd 6097 293d 0b3c b33d d8a3 1cbc
00000070: b2fd 6cbd 9245 10bd 957a 62bb eaa6 60ba
00000080: f956 b0bd 3289 503c 23ef d83b f092 503d
00000090: 59d2 043d 7000 d4bd e0bc 73bd 3402 e5bd
000000a0: 70c6 f8bc 246a c93c 0bfe 9ebd 442e 2c3d
000000b0: b80e 56bd 29b9 ecbb 863b bfbd 7fba f7bd
000000c0: a0da a2bd ad3d 9f3d a43e 243d 33f5 adbd
000000d0: 6b15 0ebd 07f7 373d a8e7 133d 1471 e13b
000000e0: ca28 43bd 0a50 fbbd 2dd4 b9bd 539c a6bd
000000f0: 930b 5bbc 986e 943b 1c72 153d 3c33 69bd
00000100: a12a 43bb 3791 9f3c 551b 26bd d265 e6bd
00000110: 8bdf b1bd 1ad2 0b3d 5e0f 96bd ad12 b13c
00000120: b5d4 8bbd 0ed3 e0bd 4720 5abd 2956 f4bb
00000130: 1bf2 c13c 71c7 75bd e141 a93c c9e6 e93d
00000140: 1b2b 38bc 8e7c a0bd c44a 9c3c 4636 c73c
00000150: 783f e0bb 69fe b6bd f958 e9ba 1bf1 c73c
00000160: 7368 d1bd d3de da3c c802 04ba d10f 463c
00000170: e799 ac3c 90a2 a23c 6704 9bbd e580 b5bd
00000180: f70e 9e3d 55bd 703c ec46 223c 83df 76bd
00000190: 5d69 153d ca59 78bd ced0 663b 568f d8bd
000001a0: 4ec7 e4bb c042 07be 2cc8 a83c a6b8 3abd
000001b0: d3ff 1b3d c8e7 a8bd 99c7 a1bd eca6 8cbc
000001c0: 7882 9cbd 2790 3a3c 1be6 cebd 1603 733c
000001d0: 1004 46bc ba8a 813c 85ce cd3c 7731 863c
000001e0: 7f0f 94bd 0801 4cbd 6688 503d f2e0 a6bd
000001f0: 18a3 2abb be50 a3bd 952e d1bc e6f2 8b3d
0.03739955 -0.0265269 0.10470162 -0.02470698 -0.011635955 0.025831375 0.01178396 -0.04966669
-0.015186462 -0.014596192 -0.08394386 0.09802428 0.004508309 -0.030785393 -0.08890037 -0.089949034
0.15012622 0.021669095 -0.08170208 -0.05738872 -0.03847515 -0.05799694 0.19205214 -0.11649533
-0.06436998 0.041404128 0.08751687 -0.009560548 -0.05785913 -0.035222597 -0.0034557928 -0.0008569794
-0.08610339 0.012728022 0.006620304 0.05092138 0.032427166 -0.10351646 -0.059506297 -0.11182061
-0.03036806 0.024586745 -0.077632986 0.04203631 -0.05226013 -0.0072242212 -0.09337525 -0.12096118
-0.07951856 0.077754356 0.0400988 -0.08494034 -0.034688395 0.044913318 0.036109596 0.006879935
-0.04764632 -0.122711256 -0.090736724 -0.08135285 -0.013369459 0.0045297854 0.036485776 -0.056933627
-0.0029780047 0.019478424 -0.04055341 -0.112498894 -0.086852156 0.034135915 -0.0732715 0.02161535
-0.0682768 -0.109777555 -0.05325344 -0.00745656 0.023675015 -0.060004655 0.020661296 0.11420972
-0.011240746 -0.07836257 0.01907862 0.024317872 -0.0068435036 -0.08935244 -0.0017803005 0.02440696
-0.10225 0.026717579 -0.0005035815 0.012088732 0.02106948 0.019852906 -0.07569199 -0.08862475
0.07717698 0.014693578 0.009904604 -0.06027175 0.036477435 -0.060632505 0.0035219672 -0.10574214
-0.006981767 -0.13209057 0.020603262 -0.04558625 0.03808577 -0.08247334 -0.07899398 -0.017169438
-0.076420724 0.011386908 -0.10102483 0.014832279 -0.0120859295 0.01581322 0.02512289 0.016381009
-0.07229518 -0.04980567 0.05091133 -0.08148374 -0.0026037153 -0.07974385 -0.025534907 0.068334386

find.0.bias_s_ f4 [128]
00000000: b33f bfc0 46f9 d3c0 3aa2 bbc0 a34e d1c0
00000010: c3ee bac0 d637 bbc0 1ef1 d0c0 133a cec0
00000020: 026f c6c0 6cfe bbc0 7304 d9c0 12eb b7c0
00000030: b560 d0c0 8670 d7c0 b031 cfc0 4489 c3c0
00000040: 094a b9c0 3c97 b7c0 27a2 c1c0 2f68 bdc0
00000050: d2e2 d1c0 e9b6 c4c0 ea1b bac0 50d1 c8c0
00000060: a000 bdc0 456d c9c0 0159 b7c0 fce7 c8c0
00000070: bdad d5c0 4472 c8c0 fab4 d5c0 da22 bdc0
00000080: 13e8 d3c0 7cfd cfc0 0fd1 c1c0 97e8 b7c0
00000090: 8ec8 b8c0 3e7e d4c0 5b43 d1c0 4b3f d4c0
000000a0: 12ba d4c0 eb74 b8c0 7ff9 d6c0 9873 b9c0
000000b0: 4be3 bac0 ab0d cfc0 9d92 d4c0 c683 cfc0
000000c0: dfd8 cbc0 ab78 c5c0 a0ca c3c0 6af8 d6c0
000000d0: d6b6 d1c0 f99d bdc0 6aa6 bbc0 29f1 c4c0
000000e0: 30a7 d1c0 6564 cbc0 e969 ccc0 0746 d9c0
000000f0: ddb7 d4c0 ef2a d7c0 0ba2 cec0 5806 d5c0
00000100: 9e01 bcc0 757b b9c0 d75f d5c0 cb74 cac0
00000110: a8da d3c0 ae88 c0c0 69c4 c9c0 002d cac0
00000120: 87c2 d5c0 2600 c4c0 39cf bdc0 2ace bfc0
00000130: dca8 c2c0 fa63 c1c0 1dbb bec0 1b44 c9c0
00000140: 0734 d5c0 d0a2 c1c0 b08e d4c0 1541 bfc0
00000150: d4ab bfc0 a9a6 cdc0 3c70 cdc0 9b9b b8c0
00000160: 14f8 d9c0 1e64 b9c0 9e3e cfc0 801f bec0
00000170: be33 b8c0 5d46 b9c0 c63b bec0 ddc0 cdc0
00000180: e705 c8c0 66d1 b8c0 a200 d5c0 4333 d7c0
00000190: 6ac1 d1c0 6487 cec0 12dc cec0 8ef8 d3c0
000001a0: a4c0 d3c0 d24b cfc0 111b bbc0 68f4 c9c0
000001b0: 5eb9 b9c0 843d d6c0 117e d7c0 8dc3 c3c0
000001c0: 0d62 c8c0 a013 b9c0 ad61 cbc0 6dda c8c0
000001d0: 68c3 bcc0 0b4b bdc0 7e72 c5c0 6f2b bcc0
000001e0: 972c d1c0 cec2 d2c0 d267 bec0 701e d3c0
000001f0: 7b41 c6c0 4e8c d7c0 7a89 bec0 4067 b7c0
-5.976526 -6.624179 -5.863553 -6.540849 -5.8416457 -5.850566 -6.5294333 -6.444589
-6.2010508 -5.8748074 -6.781793 -5.747445 -6.511805 -6.732486 -6.4748154 -6.110506
-5.7902875 -5.737211 -6.051044 -5.9189677 -6.558938 -6.147328 -5.8159075 -6.275551
-5.9063263 -6.2945886 -5.7296147 -6.2783184 -6.6774583 -6.2639484 -6.678342 -5.9105043
-6.6220794 -6.499693 -6.05677 -5.7471423 -5.774482 -6.6404104 -6.539472 -6.632726
-6.6477137 -5.764272 -6.717956 -5.7953606 -5.8402457 -6.4704185 -6.642897 -6.4848356
-6.3702235 -6.17098 -6.1184845 -6.717824 -6.553569 -5.925534 -5.864064 -6.1544385
-6.5516586 -6.356005 -6.3879285 -6.7897983 -6.6474442 -6.723991 -6.4572806 -6.6570244
-5.8751974 -5.7963204 -6.667949 -6.326757 -6.6204414 -6.0166845 -6.305226 -6.317993
-6.679996 -6.125018 -5.9315457 -5.9939165 -6.0831127 -6.043454 -5.960341 -6.2895637
-6.662601 -6.0511246 -6.642418 -5.9766946 -5.989725 -6.4265943 -6.4199505 -5.768995
-6.811533 -5.7934713 -6.4763937 -5.941345 -5.756316 -5.7898393 -5.9447966 -6.429793
-6.2507205 -5.7755613 -6.6563272 -6.7250075 -6.55486 -6.454027 -6.464364 -6.624091
-6.6172657 -6.4780054 -5.847054 -6.3110847 -5.803878 -6.695009 -6.734139 -6.117621
-6.261969 -5.7836456 -6.3556733 -6.2766633 -5.8988533 -5.9154105 -6.170226 -5.880302
-6.536693 -6.58628 -5.9501734 -6.5974655 -6.195493 -6.735877 -5.954282 -5.7313538

find.2.W_m f4 [128, 128]
00000000: e9be db3d ef4e 4fbe 512f ecbd eff5 f4bb
00000010: 4a85 8dbe 5a7e 183e acc4 983d b05c 963e
00000020: 3f4a 50be 7672 02bc 1b51 af3c 89bd 893d
00000030: 5695 d63d 633b 1abe 18bd 3fbe ea3f b1bd
00000040: dc0f 2abe 56d2 233e f4c2 30be 77ae a8bd
00000050: 4ba8 79be ca8a d53d 0825 8f3d 3d31 533e
00000060: 299a b63d 2a36 ce3d 8a6a 17bd 0455 0dbd
00000070: 964b cd3d 236c 3cbe 2fbe 153e 30e5 193e
00000080: 7b8f b93d de64 643e 5a9e 0dbd 3d92 2abe
00000090: f29a 40be a73a 9bbd b701 1dbe e026 753c
000000a0: c589 06be f6ce 1dbe e5d9 7e3d 673f 1b3d
000000b0: 7a94 c53d 9240 483e 605e 943e c5aa 5e3e
000000c0: e83e 2c3e 3223 2f3d 1753 4abe 55e7 7f3e
000000d0: b700 a23d b828 87bd 96b5 033e 1911 1abe
000000e0: cf4a 0b3d efe7 1abe 85ad 0b3c 1cff ce3c
000000f0: fce2 d0bd ffe7 efbd 4220 c53d 736a 83be
00000100: c320 54be 062c a1bd 53e1 f3bc ff4d d4bc
00000110: 97ad fc3a 1235 3f3d dbde 833d ec2e 47be
00000120: 9e66 7d3d 1d44 0fbe 0533 7b3e 670c 12be
00000130: a90f 973d c94a ad3d dee8 0f3e c25f 553d
00000140: 7ee9 943e ddce 3d3e 3ea5 e9bd 8101 fc3d
00000150: 70a3 b6bd bdf9 59bd 45da 853e cc51 dabd
00000160: 72f6 d3bc 3166 1a3e bb41 fbbd b9ac 93bd
00000170: aef9 c53d cedc 133e e043 113e 3cdb 83bd
00000180: d275 bb3c 0b91 49be d030 fbbd 9bea 323e
00000190: 7419 123e a032 6fbe a065 69be bc0e e33c
000001a0: 8f93 343d 7b02 133e 1288 2f3e 0181 4d3e
000001b0: 64dd 763e 3177 063e f137 1ebe c5c2 f73d
000001c0: 24b1 123e 92f6 a03e 147d 26be a4b6 54be
000001d0: c68c 76be f263 5dbd 4fa5 44be 04b5 67bd
000001e0: 1a7a 2ebe c169 a53b 6d84 2f3e 3bdf b9bd
000001f0: bb81 6cbe 2997 af3d bb1a 54be 69f4 2bbe
00000200: 4c5a 2cbe 978b 20be af97 cc3c 8923 1bbe
00000210: b80a adbc 08bb ebbd bca0 51be d4d2 9b3d
00000220: 806c 2abe 7765 b3bd e78c c43d 3973 b2bb
00000230: 9c8f 61bb f11d 85be 175e 323e 704e 7b3c
00000240: 69fb a13c b77d fdbd b0c2 43be ea3f 69be
00000250: 4578 66be cff9 dbbc 613d 3bbe 72fb 1dbe
00000260: c728 353d 9107 3bbe 3865 ebbd d0d2 943d
00000270: 6bed dc3d 5f14 d1bd e949 f6bc 6d39 b9bd
00000280: ceb6 933d dc00 113e a9ac 19bd 84c2 5cbe
00000290: 0c74 d6bb e14f f9bc bd2b a2bd 124b e4bd
000002a0: 6d77 4cbe 8eb1 d8bc d497 a93c 3ad4 e33b
000002b0: cff6 c73d 4b0f 213b 2f3a f2bd 0c3f 04be
000002c0: bf34 43be 2f42 80be 17ef 1fbe f377 ce3d
000002d0: fb1d 74be 8cc3 6bbc dd8e 4b3c 5bb8 96bd
000002e0: e3d5 7dbe 9b8c ad3d 98c1 303d 4334 a9bd
000002f0: 6cb4 4bbe 8963 6cbe af49 45be 4be9 92be
00000300: 007f 453d 34db dbbd d242 30be abc7 0ebe
00000310: 73af d4bd 0975 7dbe 5514 46bc dd81 31bd
00000320: 9547 c7bd e0d1 b5bd de59 23be c0e2 5abc
00000330: c81a b23d f46d 29be bc50 8a3c 70e0 4dbe
00000340: 3d08 fb3c 4a07 9bbd 38f9 3e3d 73f1 383c
00000350: 4a1b 98bd 76c8 16be 16e7 963d a692 67bd
00000360: 182d 6fbd 7d2e e8bd 70ff 9c3c 63c6 3dbd
00000370: 0723 633c f65b e4bd 57fb 5bbc c988 f3bd
00000380: 0577 3abe f469 cabd b52c 55be 99db b3bd
00000390: bd89 ca3d 9757 583b 6c24 03bd b4e6 c53c
000003a0: 6c7f 4dbe 3af4 833d 855a 28bc 34a3 acbd
000003b0: 4f81 013e 5217 5cbe dcfb 1b3d 9018 5cbe
000003c0: 9154 40be 032d deba 8664 9dbd 6974 76be
000003d0: b52e 61bc 6d2c babd 53d9 9cbd d9d4 b5bd
000003e0: 6153 e3bd 5656 20be 71ee 37bd fe23 36be
000003f0: e5c9 e3bd 1a6e 5cbe 6b33 2cbe 84e0 80be
0.107297726 -0.20244955 -0.115324624 -0.0074756066 -0.27640754 0.1489195 0.07459387 0.2936759
-0.20340823 -0.00796186 0.021400979 0.06725604 0.10477702 -0.15061717 -0.18724477 -0.08654769
-0.16607612 0.15998206 -0.17261869 -0.082364015 -0.24380605 0.104268625 0.06989485 0.20624252
0.089161225 0.10068925 -0.036966838 -0.034504905 0.100241825 -0.18400626 0.1462333 0.15028834
0.0906057 0.22304103 -0.034574844 -0.16657348 -0.18809107 -0.075795464 -0.15332685 0.014962882
-0.13138492 -0.1541098 0.06221952 0.037902262 0.0964746 0.19555882 0.28978252 0.21744831
0.16820872 0.042758174 -0.19758259 0.2499059 0.079102926 -0.06599563 0.12862238 -0.15045585
0.03400689 -0.15127538 0.008525257 0.02526813 -0.10199544 -0.117141716 0.09625293 -0.25667152
-0.20715623 -0.07869725 -0.029770529 -0.025916098 0.0019277808 0.04668147 0.06438991 -0.19451493
0.06186544 -0.13990827 0.24531181 -0.14262544 0.07376034 0.0846153 0.14053676 0.052093275
0.2908439 0.18535943 -0.114084706 0.12304974 -0.08917892 -0.053216685 0.2614309 -0.10660133
-0.02587435 0.15078045 -0.122683965 -0.072106786 0.09666763 0.14439699 0.14186049 -0.064383
0.02288333 -0.19684236 -0.122651696 0.17472307 0.14267522 -0.23359156 -0.22792673 0.027716987
0.044086035 0.14356415 0.1714175 0.20068742 0.24107891 0.13131405 -0.15451027 0.12097696
0.14325386 0.31438118 -0.16258651 -0.20772797 -0.24077138 -0.054050393 -0.19203685 -0.056569114
-0.17038766 0.0050480072 0.1714036 -0.09075781 -0.23096363 0.085737534 -0.20713322 -0.16792454
-0.1683132 -0.1567825 0.024974672 -0.15150274 -0.021123275 -0.11510283 -0.20471472 0.07608572
-0.16642952 -0.08759587 0.095971875 -0.0054458645 -0.0034417873 -0.25999406 0.17418705 0.015338525
0.019773202 -0.12377494 -0.19117236 -0.22778288 -0.22506817 -0.026852516 -0.18285133 -0.1542795
0.04422834 -0.18264605 -0.11493915 0.07266772 0.107874714 -0.102089636 -0.03006454 -0.09044156
0.072126016 0.14160484 -0.037518177 -0.21558577 -0.0065445956 -0.030433597 -0.07918499 -0.11147131
-0.19967432 -0.026451852 0.02070228 0.0069527896 0.09763872 0.0024575766 -0.11827504 -0.12914675
-0.1906309 -0.25050494 -0.1561855 0.10081472 -0.23839562 -0.014389884 0.012424198 -0.07359382
-0.24788623 0.08474084 0.043153375 -0.08261921 -0.19893044 -0.23084845 -0.1926639 -0.28693613
0.04821682 -0.10735169 -0.1721299 -0.13943355 -0.10385027 -0.24751677 -0.0120898085 -0.043336738
-0.0973045 -0.08877921 -0.1595225 -0.0133597255 0.08696514 -0.1654585 0.0168842 -0.20105147
0.030643577 -0.0756975 0.046624392 0.011288035 -0.0742708 -0.14724907 0.07368295 -0.05653634
-0.058392614 -0.11336992 0.01916477 -0.046331774 0.013863332 -0.11150353 -0.013426623 -0.11891324
-0.18209465 -0.0988349 -0.20817836 -0.08782119 0.09889553 0.0033011192 -0.032017156 0.02415786
-0.20068139 0.06443067 -0.010275488 -0.08429566 0.12646984 -0.21493271 0.03808199 -0.21493745
-0.1878226 -0.001695067 -0.07685189 -0.24067844 -0.013744046 -0.09090505 -0.07658639 -0.08878488
-0.11099888 -0.15657935 -0.04490513 -0.17787167 -0.11122493 -0.21526375 -0.1681649 -0.25171292

find.2.W_s_ f4 [128, 128]
00000000: c886 b4c0 696e 80c0 ad1f 96c0 7a0b 7ec0
00000010: ac57 88c0 0246 68c0 ff8b 9dc0 da5a 8bc0
00000020: 81a8 7ec0 a3eb a7c0 9617 a1c0 5a08 69c0
00000030: ef48 88c0 8e62 dbc0 2bac 9ac0 39d8 8bc0
00000040: 247b 82c0 d422 78c0 30c7 79c0 453d 95c0
00000050: b55e 88c0 da78 8ac0 d2ae 88c0 7179 89c0
00000060: 3aef 91c0 80c4 bac0 f702 90c0 696e c2c0
00000070: 8615 69c0 a89d 84c0 79ad 60c0 8abd 71c0
00000080: 7e99 79c0 7828 72c0 d8ba 6dc0 dd41 89c0
00000090: 59de 7bc0 6a15 8ac0 6ce8 7bc0 2748 87c0
000000a0: bfc2 85c0 602c 89c0 beaf 6bc0 1f3a 66c0
000000b0: 626d 72c0 f116 91c0 33a3 6ac0 14a7 6dc0
000000c0: 8d8d 9ac0 3115 96c0 62c5 6fc0 60e1 86c0
000000d0: 879d 9dc0 fe0f 72c0 193f 85c0 ce5e 77c0
000000e0: 3768 c2c0 fe19 92c0 b92d 78c0 24f0 7ec0
000000f0: 01d1 8bc0 af2e cec0 dacc aac0 bf58 8ac0
00000100: 26f5 bbc0 5587 86c0 043b 8ec0 d3e2 94c0
00000110: f84d 87c0 0869 93c0 a821 7ec0 0ac6 7cc0
00000120: 370a 8ec0 316a 98c0 9c2e 82c0 2480 6dc0
00000130: eddc 84c0 1fd1 67c0 cc78 8ec0 db66 adc0
00000140: afd5 80c0 dd8a 71c0 5289 74c0 7c69 74c0
00000150: 7a56 99c0 3c60 8fc0 47a1 66c0 6497 8cc0
00000160: 3fc2 8dc0 673e 70c0 9dcd 84c0 0ee0 80c0
00000170: c462 9dc0 ed6f 7bc0 ae1f 61c0 de80 97c0
00000180: c465 8ec0 35fb 92c0 4304 a7c0 6a1d 6dc0
00000190: 27a7 78c0 f4c9 85c0 4fae 82c0 ee1e 74c0
000001a0: 1ea5 87c0 b4ea 5fc0 c691 9bc0 2639 8ec0
000001b0: 5931 6ec0 7b08 a1c0 29c4 82c0 3c2d 9dc0
000001c0: 86a6 8ac0 9e97 5fc0 e1c0 73c0 36c8 bcc0
000001d0: ec2c 9fc0 4822 88c0 10df 96c0 5c86 89c0
000001e0: 3ed3 bec0 2ca5 83c0 285e 8ac0 1aa6 eec0
000001f0: 8ea5 84c0 4d0a 9fc0 dcae 87c0 9a23 b7c0
00000200: c13f 95c0 43b1 84c0 74ff 7ec0 8149 80c0
00000210: d220 89c0 c4e1 97c0 35e3 a6c0 edf8 80c0
00000220: 01ee 77c0 6b46 cdc0 dfdb 6fc0 c08c 86c0
00000230: f013 85c0 41d7 c7c0 e5b1 89c0 bc53 79c0
00000240: ce62 75c0 9cfe 75c0 3d1c 8ec0 5e5a bfc0
00000250: 7609 c0c0 2b17 81c0 eba2 a8c0 60e9 76c0
00000260: 7ea7 81c0 f648 cbc0 de31 81c0 2402 72c0
00000270: 4353 66c0 d02c 6fc0 c883 8bc0 dda0 97c0
00000280: 3ccb 92c0 e200 7ec0 14ba 86c0 162d 98c0
00000290: 5f8a 8cc0 1dc3 99c0 6d87 84c0 f34f 72c0
000002a0: d856 8ec0 7052 76c0 39c4 76c0 8d5a 71c0
000002b0: 4e1a 6fc0 8c36 6ec0 5fe5 74c0 9b3d a3c0
000002c0: fbb6 76c0 3290 aec0 14c8 78c0 54eb 7fc0
000002d0: 0382 8bc0 a676 77c0 67a9 8dc0 fe2d 69c0
000002e0: af6e 83c0 92cb 98c0 0f81 8bc0 f79e 8bc0
000002f0: f373 a4c0 4ac5 b4c0 3a73 bbc0 5012 9cc0
00000300: ecef 84c0 c24f 6cc0 496c a8c0 57f5 8cc0
00000310: d84e 7ac0 7d8e 8cc0 a15b 98c0 afeb 72c0
00000320: a7a4 96c0 61e9 98c0 39b4 8ec0 32c3 73c0
00000330: 9398 b9c0 8167 84c0 4a22 80c0 45de 8bc0
00000340: f432 9bc0 fc88 76c0 9b81 88c0 dce3 6cc0
00000350: 75f8 86c0 904e 8ec0 1074 82c0 8344 94c0
00000360: e647 86c0 12ca 82c0 bbd9 85c0 b4e4 82c0
00000370: da3c 71c0 0adc 9cc0 e9fb 6cc0 0a4a 8fc0
00000380: bd45 8fc0 90c8 7ec0 74c1 a9c0 fdf9 99c0
00000390: e7c5 92c0 5ba3 71c0 76ec 7dc0 513f 84c0
000003a0: 2aaa 93c0 b1c1 83c0 3328 83c0 faa1 7ac0
000003b0: ef4c 7ac0 4430 7bc0 104f 75c0 03b7 8cc0
000003c0: 9bbc 82c0 26d4 8dc0 2f7c 85c0 fa4b 8ac0
000003d0: ba83 70c0 4111 90c0 e5ca 8fc0 2172 fec0
000003e0: ee78 8cc0 d1bb 84c0 db8b 83c0 7845 96c0
000003f0: df65 7fc0 4016 c3c0 9a14 8bc0 64fa b2c0
-5.641453 -4.013478 -4.6913667 -3.9694505 -4.260702 -3.629273 -4.9233394 -4.3548403
-3.9790347 -5.2475142 -5.034129 -3.6411347 -4.258903 -6.8557806 -4.8335166 -4.3701444
-4.077532 -3.8771257 -3.9027824 -4.663729 -4.261561 -4.3272524 -4.2713404 -4.2960744
-4.5604525 -5.836487 -4.500362 -6.075978 -3.6419387 -4.144245 -3.510588 -3.7771935
-3.8999934 -3.78372 -3.714529 -4.28929 -3.935446 -4.315114 -3.936061 -4.2275577
-4.1800227 -4.286667 -3.6826015 -3.5972974 -3.7879262 -4.5340505 -3.666211 -3.7133226
-4.829779 -4.690087 -3.7464223 -4.2150116 -4.9254794 -3.782226 -4.1639524 -3.8651614
-6.0752215 -4.565673 -3.8777907 -3.983407 -4.369263 -6.4431987 -5.3375063 -4.3233333
-5.8736753 -4.20402 -4.444704 -4.6526885 -4.2282677 -4.606571 -3.9708042 -3.9495873
-4.438747 -4.762963 -4.0681896 -3.710946 -4.1519685 -3.6221387 -4.4522457 -5.4188056
-4.0260844 -3.7741005 -3.8208814 -3.8189383 -4.791806 -4.4804974 -3.6035936 -4.3934803
-4.4299617 -3.7538087 -4.1500993 -4.0273504 -4.9183064 -3.9287064 -3.5175586 -4.734481
-4.4499226 -4.593165 -5.21927 -3.7049203 -3.8852022 -4.1809025 -4.083778 -3.8143878
-4.238906 -3.4987001 -4.8615446 -4.444476 -3.721762 -5.032285 -4.0864453 -4.911772
-4.3328276 -3.493629 -3.8086474 -5.89944 -4.9742336 -4.2541847 -4.7147293 -4.2976513
-5.9632864 -4.1139126 -4.3239937 -7.457776 -4.1452093 -4.9700074 -4.240095 -5.723096
-4.6640325 -4.1466384 -3.9843416 -4.0089726 -4.2852564 -4.7463093 -5.215235 -4.0303864
-3.8739016 -6.414846 -3.7477949 -4.2046814 -4.158684 -6.245026 -4.3029656 -3.8957357
-3.8341556 -3.8436651 -4.440947 -5.979781 -6.001155 -4.034078 -5.2698874 -3.857994
-4.051696 -6.3526564 -4.0373373 -3.7813807 -3.598832 -3.7371101 -4.3598366 -4.7383866
-4.587309 -3.968804 -4.2102146 -4.7555037 -4.391891 -4.8050675 -4.1415315 -3.7861297
-4.448101 -3.8487816 -3.8557265 -3.7711518 -3.7359805 -3.7220793 -3.8264997 -5.10127
-3.8549182 -5.455102 -3.8872118 -3.9987383 -4.3596206 -3.8666167 -4.426929 -3.6434321
-4.107261 -4.77485 -4.359504 -4.363155 -5.139154 -5.649083 -5.8578157 -4.8772354
-4.1542873 -3.692368 -5.2632184 -4.4049487 -3.9110622 -4.3923936 -4.761185 -3.795635
-4.707599 -4.7784886 -4.4595 -3.8087888 -5.799875 -4.1376348 -4.0041857 -4.3708825
-4.84997 -3.8521109 -4.265821 -3.7014074 -4.217829 -4.44709 -4.076668 -4.6333632
-4.1962767 -4.087167 -4.1828284 -4.090418 -3.769339 -4.90186 -3.7028754 -4.477788
-4.477263 -3.9809914 -5.304865 -4.811766 -4.586658 -3.7755954 -3.9675574 -4.132729
-4.614522 -4.117394 -4.098657 -3.9161363 -3.9109457 -3.924821 -3.8329506 -4.3973403
-4.085523 -4.432147 -4.171409 -4.3217745 -3.75804 -4.502106 -4.4935174 -7.9514318
-4.389762 -4.147927 -4.110822 -4.69598 -3.9905927 -6.096466 -4.346265 -5.5930653

find.2.bias_m f4 [128]
00000000: 5b8f 79bd 16c0 5fbd e213 053c e679 f7bc
00000010: 9428 0bbd 7897 a1bd 0275 abbd 9a70 0bbd
00000020: 891a 67bd da4d d3be 1d5e babc d546 cdbd
00000030: 1aae 93bd a955 d6bd 3b5f 363c d5e3 c4ba
00000040: 506c 6a3c 4d90 bdbd 345e e8ba f69d acbd
00000050: c3a1 b6bc 211e 75bd 54fc 62bd b16f 73bd
00000060: 1140 5abd 8ea9 e8bd 6cab 6ebd 7018 37bd
00000070: 0420 98bd dd60 2dbd 1d60 bbbd 5f7e a0bd
00000080: 6180 3abd 2f86 a7bd f63d 1f3c 7100 b6bb
00000090: 6b2b e13a 0e53 dcbd eb44 8bbc cb10 6abd
000000a0: ddb0 82bb 1280 23bd 4da2 d6bd 2ed7 96bd
000000b0: d697 88bd cda2 85bd 2bf8 b0bd 3c0c cebd
000000c0: 4672 87bd b4fb b6bc 8a15 303b 12b3 98bd
000000d0: b14b 86bd 88b7 c33b d498 dbbc bc3b 03bd
000000e0: 48f0 2ebd f029 923c 2957 623c 4c81 9fbd
000000f0: 1c9a 1dbd 97c3 87bd 6687 a4bd 2593 1dbd
00000100: 3d4c 313c 01ff 823c 9adc 7fbd df87 363b
00000110: 79c3 78bd d801 83bd 2579 1fbd c19f d8b9
00000120: 56c2 98bd 7609 1bbc a9bb 1cbd 733c 79bc
00000130: b2c2 8ebd 0dab b8bd d15b 8ebd 033e e8bc
00000140: f7d3 eeb9 254f f4bd 21c1 00be 7ccb 74bd
00000150: e794 babd f2e4 b9bd f8ac 64bd 8daf f3bd
00000160: 3752 babd 39d8 43bd 1aeb 5bbc 872b c0bd
00000170: f933 79bd 475e 9fbd 851d bdbd 6681 ddbd
00000180: fae4 fcbc 2bc9 fcbc 8d47 f2bd 2b87 96bd
00000190: d1c4 70bd 58ba a33a 8bd7 61ba 4a52 63bd
000001a0: 590e 9bbd 685c 90bd edfa 88bd dcf5 9bbc
000001b0: cfc3 a6bd 8e24 66bd 33d6 cb3c 5ee9 68bd
000001c0: 10f4 abbd 40c6 4abd 033b 05bd 8766 91bd
000001d0: b06d e4bc 7d46 cebd f9d9 62bd 5ef0 29bd
000001e0: 2dd9 0ebc f5b7 c0bd 2994 cfbd af36 4cbd
000001f0: 52b8 24bd 4e7c a3bd e4aa c8bd 9c5c 78bd
-0.06092773 -0.054626547 0.008122416 -0.030209493 -0.033974245 -0.078902185 -0.08371927 -0.034042932
-0.05642179 -0.41270334 -0.022749955 -0.10023276 -0.072109416 -0.10465557 0.011131103 -0.0015021513
0.01430805 -0.09256039 -0.001772827 -0.08428566 -0.02229393 -0.059843186 -0.05541642 -0.05943269
-0.053283755 -0.11360465 -0.05826895 -0.04470104 -0.074279815 -0.042328704 -0.091491915 -0.078366034
-0.045532588 -0.0817989 0.0097193625 -0.005554252 0.0017179077 -0.10758029 -0.017000636 -0.05714492
-0.003988369 -0.03991706 -0.10480175 -0.07365261 -0.066695854 -0.065251924 -0.08641084 -0.10060927
-0.06613593 -0.022336818 0.0026868307 -0.0745603 -0.06557406 0.0059728064 -0.026806273 -0.03203939
-0.04270962 0.017842263 0.013814726 -0.07788333 -0.03847705 -0.06629103 -0.08033638 -0.038470406
0.010821399 0.015990736 -0.06246624 0.0027851982 -0.060733292 -0.06396836 -0.03893389 -0.00041317756
-0.07458942 -0.009462705 -0.038264904 -0.015212166 -0.06970729 -0.09017 -0.06951106 -0.028349882
-0.00045552824 -0.11929158 -0.12573673 -0.05976437 -0.09110432 -0.09076871 -0.05582902 -0.11898718
-0.090977125 -0.047813628 -0.013422752 -0.09383302 -0.06084058 -0.07781654 -0.09234146 -0.108156964
-0.030870903 -0.030857643 -0.118300535 -0.0735 -0.05878145 0.0012491448 -0.0008615187 -0.0554984
-0.07571096 -0.07048875 -0.06688485 -0.019038133 -0.08142816 -0.056187205 0.024882412 -0.05686318
-0.083961606 -0.049505472 -0.03252698 -0.07099634 -0.027884334 -0.10072038 -0.055383656 -0.041488998
-0.008718771 -0.09410087 -0.10135681 -0.049856838 -0.040214844 -0.079826936 -0.0979822 -0.060635194

find.2.bias_s_ f4 [128]
00000000: 5164 bdc0 7788 b5c0 512d b5c0 b71a bdc0
00000010: abaa b2c0 e89d bac0 cd87 e6c0 1caf c0c0
00000020: 3246 b6c0 e705 08c1 c9f0 bbc0 fe25 bbc0
00000030: d02b bac0 d595 fdc0 5756 b2c0 f420 b4c0
00000040: 4445 b3c0 ba6a b9c0 6db7 b5c0 a64b efc0
00000050: b38a d5c0 d275 bac0 1dc2 cbc0 e535 bac0
00000060: 6724 bec0 b504 02c1 d739 bdc0 8cd8 bac0
00000070: 426f b8c0 7ab9 b5c0 2212 bac0 22c5 bbc0
00000080: e659 bbc0 89c9 bac0 e795 b3c0 5a1d d4c0
00000090: b3e5 b7c0 d776 c7c0 6207 b4c0 767b bdc0
000000a0: 7655 cec0 0184 b2c0 156a c3c0 ce25 bcc0
000000b0: 0886 c1c0 b169 bcc0 bace b9c0 3a33 cfc0
000000c0: 2930 bbc0 f071 c7c0 3120 b6c0 466c bac0
000000d0: b0d4 b8c0 61e6 b6c0 acb3 bdc0 b851 b0c0
000000e0: f0d8 c1c0 6b51 b2c0 f034 b3c0 2eed bcc0
000000f0: 5b13 d8c0 275d f1c0 c519 fec0 e140 c6c0
00000100: 4968 b9c0 d5e5 b6c0 7051 c9c0 57b1 b4c0
00000110: 6f70 bcc0 8200 b9c0 3ab9 bfc0 d09a b7c0
00000120: 462e bdc0 1355 b4c0 2b38 bcc0 2043 b2c0
00000130: 7819 bec0 fee8 bbc0 5536 bec0 6acd c7c0
00000140: 7283 c4c0 74c0 c0c0 a755 bac0 828c bdc0
00000150: 0dbd d7c0 9b45 d2c0 3a69 bec0 8d23 c5c0
00000160: 571f cdc0 5059 bdc0 a885 b2c0 f0c9 c2c0
00000170: ec3f bcc0 e353 bdc0 0865 bac0 64a1 cac0
00000180: 1a73 c5c0 788b b4c0 793a f2c0 a934 c6c0
00000190: 1dc6 bcc0 ffe3 b3c0 7f7a b1c0 73a7 c1c0
000001a0: f576 bac0 1a50 b8c0 2993 bdc0 03f5 bdc0
000001b0: a315 c1c0 6eca bbc0 b173 bac0 d57f cdc0
000001c0: d871 bfc0 605a c0c0 666c b2c0 0526 ccc0
000001d0: 9f9c b3c0 da8b dfc0 9ec1 b9c0 435f b8c0
000001e0: fbba b6c0 42df c3c0 b0b2 c2c0 1437 cdc0
000001f0: 15ea bac0 2e28 fcc0 9e1b cec0 6e6e 03c1
-5.9184957 -5.6729083 -5.661782 -5.909511 -5.5833335 -5.8317757 -7.2040772 -6.0213757
-5.696069 -8.501441 -5.8731427 -5.8483877 -5.817848 -7.92454 -5.5730395 -5.6290226
-5.6022053 -5.794278 -5.678641 -7.4779844 -6.673181 -5.8268824 -6.3674455 -5.819079
-5.9419436 -8.126149 -5.9133105 -5.838934 -5.7635813 -5.678891 -5.8147135 -5.867814
-5.854724 -5.8371015 -5.6120486 -6.628583 -5.7467895 -6.233257 -5.625901 -5.921321
-6.4479322 -5.5786138 -6.1066995 -5.879615 -6.047611 -5.887902 -5.806485 -6.4750032
-5.849629 -6.2326584 -5.6914296 -5.825717 -5.775963 -5.7156224 -5.9281826 -5.5099754
-6.0577316 -5.5724387 -5.600212 -5.9039526 -6.7523627 -7.542621 -7.9406457 -6.19542
-5.79398 -5.7155557 -6.291191 -5.646648 -5.888725 -5.781312 -5.9913607 -5.737648
-5.9118986 -5.635385 -5.8818564 -5.570694 -5.940609 -5.8721914 -5.9441323 -6.243825
-6.1410456 -6.023493 -5.8229556 -5.923402 -6.7418275 -6.5709968 -5.950345 -6.1605897
-6.4100757 -5.9171524 -5.5788155 -6.0871506 -5.882803 -5.91649 -5.824833 -6.332201
-6.1703005 -5.642025 -7.569638 -6.1939282 -5.8991838 -5.6215816 -5.546203 -6.0516906
-5.827021 -5.759778 -5.924214 -5.9361587 -6.033891 -5.8684607 -5.8266225 -6.4218545
-5.982647 -6.011032 -5.575732 -6.379641 -5.612869 -6.9858217 -5.804885 -5.7616286
-5.710325 -6.121003 -6.0843124 -6.4129734 -5.8410745 -7.8799047 -6.4408712 -8.21446

find.4.W_m f4 [128, 64]
00000000: 1a59 f3bc 57be 323e 48a0 443e cd14 103e
00000010: e3bb 5c3e c159 58bd 4684 6c3e 635f 463e
00000020: 6921 223e 1ffd 303d 7526 5c3e b365 3c3e
00000030: d3f9 f1bc 5969 103e 467b 5b3e 2eab bebd
00000040: 91b5 81bd 737d b83d e4bb a0bd 7715 c73c
00000050: 8ace 583e 0cdb 2dbd 47ab 5f3e e073 e8bd
00000060: cd1f 4d3e 2d18 17bd 78da 6cbd f178 c2bd
00000070: 8683 95bd c26a 71bd 11a8 2ebd c03c 83bd
00000080: 0c5c 8ebd 4c97 abbd 9903 60bd 8916 7abd
00000090: afc0 c7bd 31ea 7a3e 854f 5dbd 314b 283e
000000a0: db1e 89bd 6eb6 613e 73f4 c1bd 188f 623e
000000b0: b993 093e 282f 22bd e046 32bd 32e9 a2bd
000000c0: 15f4 91bd 5233 cdbd ecc6 673e efca ff3d
000000d0: cdd1 fe3d b55a 5f3e ac3b 413e 5c5a 7cbd
000000e0: f52e 253e 9752 403e 715f 63bd 9e76 febd
000000f0: 2ef6 5f3e 6b5a 5f3e 0f59 2b3e b58f 87bd
00000100: 23da 833d fb08 9fbc 1d77 63bd db16 0dbd
00000110: 9ae9 ecbc 3109 ea3d 319d a1bc 40f6 863b
00000120: e535 ea3b cc92 3bbd 8ddf adba 57ab acbc
00000130: dadd 603d b833 32bc b93d 3cbd 1baf 5b3c
00000140: 31fd 263d cd29 b2bc 5992 573d 3f4e 8dbd
00000150: e110 0f3c 3d2b 763d 46ca 82bc 6784 e23d
00000160: c3ab 34b9 563f abbd 51de 573d 06c4 a7bd
00000170: ae94 963d a8d0 e73d 942e bbbd f7e7 843d
00000180: f8c6 a43c 48fc 843d 8849 c73d 81c1 0f3d
00000190: e16b 213c 9690 dfbc 4563 6c3d 55b5 46bb
000001a0: 57ab 933d 6a2e b9ba 4085 133e ac18 cdbc
000001b0: e71e 64bd 57fa fc3d 0ea0 a53d b9c4 aa3d
000001c0: 7ae2 843d ac42 c5bd cbc4 cbbc db07 3ebd
000001d0: 8cc3 00bd c800 55bc 1809 37bd 9b0e 5a3d
000001e0: 930f c2bc 60cc f1b9 4e70 963d 6bb9 9b3c
000001f0: 8115 94bc 133e 36bd 09fc 2d3b 17ae c33d
00000200: 53ac bb3d b521 f7bd d328 04be 647f d1bd
00000210: 2dd2 01be ef29 10bd 9373 d8bd b76b 0cbe
00000220: 5fa1 f2bd 598a b2bd 8f0f 0fbe 95ac e8bd
00000230: dde6 843d 1367 0abe 8572 d1bd 676f 76bc
00000240: b94c ab3d a827 f6bd 4216 523c 5bfb f7bd
00000250: bc41 c6bd 5e04 d93d 7d4e 92bd 9abd eebb
00000260: 5b40 c3bd a37e 02be ef7c a33d 191c 27be
00000270: e21f c33d 44ce da3d 7da4 0cbe f6c6 5c3d
00000280: f983 893d 4a51 2a3d eae2 ae3d c07d 6a3d
00000290: 3d39 993d dad5 f2bd 2b4e 1a3d 23e5 fcbd
000002a0: 5b76 9fbd 222e 9dbd ec70 92bd f92b b4bd
000002b0: e0c7 02be e1b3 773d 85a9 cb3d 72d2 df3d
000002c0: 2913 39bb a927 953d 98e7 cfbd b803 e9bd
000002d0: c915 ffbd d175 9bbd a521 04be 3f66 c83d
000002e0: d4de ffbd ed2b eebd 798e c13d bd96 c5bc
000002f0: 6daf debd 2549 f2bd 83b7 08be 5970 c73d
00000300: 8932 9abd 60f4 373e f9b1 4d3e b783 333e
00000310: 3c84 7d3e 7dc4 adbd f29f 843e b281 6f3e
00000320: b677 323e cd60 143d 8aed 4b3e edd6 2c3e
00000330: 4c01 dfbd 7321 253e 9dae 4c3e 59ce 4fbd
00000340: 6713 a6bd a902 113e 43db cbbd ca8d ca3d
00000350: 3bc5 613e c1c3 adbd 03f9 513e ee5c 80bd
00000360: cbb4 803e 1e8e 21bd 830f b1bd 6160 cdbd
00000370: 7188 a3bd 177b 99bd 2d5b 36bd 0f0f 65bd
00000380: 9567 49bd a393 6dbd 45ea 88bd b1f0 b6bd
00000390: 63b5 7ebd b6b0 693e 2d81 afbd ed46 003e
000003a0: c77c 87bd 41a9 683e a95d eabd a1e3 7d3e
000003b0: 8164 413e 17a8 d7bd ea47 75bd 74f6 46bd
000003c0: 4a0d b6bd e416 dabc f3dd 8b3e d142 503e
000003d0: 5768 ff3d baeb 663e 980a 603e 9502 90bd
000003e0: e3eb 273e 1ac2 253e a960 5bbd 02f8 39bd
000003f0: 07cf 733e 134b 433e 402a 253e 65de 86bd
-0.029705573 0.17455421 0.19201767 0.14070435 0.21556048 -0.05281997 0.23097333 0.19372325
0.15833057 0.043210145 0.21499045 0.1839817 -0.02953807 0.14102687 0.21433744 -0.09309994
-0.06333459 0.090083025 -0.07848337 0.024302227 0.21172538 -0.042445228 0.21842681 -0.113502264
0.20031662 -0.03688829 -0.057825536 -0.09495724 -0.07300477 -0.058939703 -0.04264075 -0.064080715
-0.0695115 -0.08378467 -0.05469093 -0.061056647 -0.09753548 0.245034 -0.054030914 0.16434933
-0.06695338 0.22042248 -0.09470453 0.22124898 0.13435258 -0.039595753 -0.043524623 -0.07954635
-0.07126633 -0.10019554 0.22634476 0.124898784 0.1244236 0.21811946 0.1887042 -0.06160961
0.16131194 0.18781506 -0.055510942 -0.12424968 0.21871254 0.21811835 0.16733192 -0.06619207
0.06438091 -0.019413462 -0.055533517 -0.034445625 -0.028919984 0.11427534 -0.019728275 0.0041187108
0.007147538 -0.045794293 -0.0013265476 -0.021077795 0.054899074 -0.0108765885 -0.0459573 0.013408448
0.040768806 -0.021748448 0.052629802 -0.0689969 0.008732052 0.06009983 -0.015965592 0.1106041
-0.00017230124 -0.0836169 0.05270225 -0.081916854 0.07352577 0.11319095 -0.091397434 0.06489556
0.020114407 0.06493431 0.09730822 0.03509665 0.0098523805 -0.027290624 0.05771186 -0.0030320485
0.07210415 -0.0014128212 0.144063 -0.025036179 -0.055693533 0.12352436 0.08087169 0.08338303
0.064885095 -0.09631857 -0.024874112 -0.04639421 -0.031436488 -0.013000675 -0.044686407 0.053236585
-0.023689067 -0.00046119373 0.07345639 0.019009313 -0.01807666 -0.044492792 0.002654793 0.095546894
0.091637276 -0.12066976 -0.12906198 -0.10229376 -0.12677832 -0.03519624 -0.10568919 -0.13712965
-0.11847185 -0.08717794 -0.13970779 -0.113610424 0.06489346 -0.13515882 -0.10226921 -0.015041209
0.08364243 -0.120192826 0.0128226895 -0.12108489 -0.096805066 0.10596536 -0.07143877 -0.007285786
-0.09533759 -0.1274362 0.079828136 -0.16319312 0.095275655 0.10683873 -0.13734622 0.05390068
0.06714625 0.04158143 0.08539374 0.05724883 0.074816205 -0.11857195 0.037672203 -0.12348392
-0.077862464 -0.07674815 -0.071504444 -0.087974496 -0.12771559 0.06047428 0.09944443 0.10928811
-0.002824018 0.07282955 -0.10151595 -0.113776624 -0.12455327 -0.07590831 -0.1290346 0.09785127
-0.12493673 -0.11629472 0.09451003 -0.02411973 -0.108733036 -0.118303575 -0.13351254 0.097382255
-0.0752917 0.17964315 0.20087422 0.17530714 0.24757475 -0.08484743 0.2590328 0.23389319
0.17428479 0.03622513 0.19914833 0.16878863 -0.10888919 0.16126041 0.19988485 -0.050733898
-0.081091695 0.14161171 -0.0995393 0.09890325 0.22047894 -0.08484603 0.20505147 -0.06267725
0.25137934 -0.039442174 -0.08645537 -0.100281484 -0.079850085 -0.07494181 -0.044520546 -0.055922564
-0.04917105 -0.058002125 -0.06685308 -0.08932627 -0.062184703 0.22821316 -0.0856956 0.12527056
-0.06615596 0.22720815 -0.114436455 0.24793865 0.18885995 -0.105301075 -0.059883036 -0.04857488
-0.088892534 -0.026622243 0.2731777 0.20337988 0.12471073 0.2255086 0.21879041 -0.070317425
0.16398577 0.16187325 -0.05355898 -0.045402534 0.23809443 0.19071607 0.16129398 -0.06585387

find.4.W_s_ f4 [128, 64]
00000000: 6038 b7c0 aca4 83c0 8a33 bbc0 7f2f 9fc0
00000010: e5f2 8dc0 941c 99c0 c45e 8bc0 827b 8ec0
00000020: bb56 80c0 6cba 79c0 65b2 86c0 88c5 93c0
00000030: 4508 9dc0 6a5e cfc0 96f0 93c0 dfa0 9dc0
00000040: d1c5 b1c0 2e6f 89c0 28e6 a0c0 3bb9 83c0
00000050: 1149 a2c0 40c0 bdc0 76f5 77c0 8109 9fc0
00000060: d80e 96c0 21c1 29c1 56ae 99c0 52df 94c0
00000070: af94 d1c0 aec2 a8c0 1c7a 2ec1 20af 9fc0
00000080: 1311 86c0 fb67 9ec0 35d8 adc0 3dce a6c0
00000090: b50f abc0 7553 9ec0 a67b a3c0 fd9a 83c0
000000a0: b1d2 96c0 abba 84c0 9baa 8ec0 9c9c 8dc0
000000b0: 8f1a 84c0 7789 a0c0 0591 a0c0 f2b1 c8c0
000000c0: 1b2a 92c0 d8fc 87c0 38dc 8bc0 abcb 94c0
000000d0: afeb aec0 fd87 93c0 3a1e 92c0 eb9b cac0
000000e0: 8c16 8cc0 4ed4 8ac0 8c4d b5c0 dafa 98c0
000000f0: c24e 90c0 de90 87c0 aac6 83c0 0911 b0c0
00000100: cde4 77c0 3eda 81c0 ec7f c2c0 151f 87c0
00000110: 8843 88c0 23ec 91c0 1801 9bc0 8e5c 81c0
00000120: 7fd7 7bc0 3129 9ac0 7460 84c0 a248 83c0
00000130: 6e77 90c0 13ec 95c0 8d1e 8bc0 abe6 7dc0
00000140: cbf9 d1c0 a89b 81c0 0812 8fc0 11af 8ac0
00000150: 61c2 8bc0 fd8c bec0 ab80 90c0 1d8c 99c0
00000160: 22b0 85c0 acab 0bc1 f634 91c0 fc1f 76c0
00000170: e90c c3c0 965f a9c0 ce9f 02c1 31d8 a4c0
00000180: 4745 6cc0 21cb 9ec0 3cb3 95c0 98eb a4c0
00000190: c6f0 84c0 f073 7ac0 2377 a7c0 2dd2 8fc0
000001a0: 59aa 83c0 a557 82c0 f6a6 8bc0 3f53 90c0
000001b0: 4c63 92c0 aac4 9bc0 a86b 77c0 ab75 c0c0
000001c0: 9121 a4c0 3229 67c0 5f58 97c0 e7c1 84c0
000001d0: a509 86c0 393b 84c0 68ed 80c0 6f1d c9c0
000001e0: c2e5 7dc0 3888 b4c0 659e d4c0 2111 80c0
000001f0: e345 8dc0 68c3 81c0 7085 99c0 7da1 8dc0
00000200: cc6c 7ec0 ae13 92c0 e43a 96c0 a2d8 9dc0
00000210: a81a 9bc0 0620 83c0 a95e 96c0 455e 89c0
00000220: 08c6 85c0 0855 84c0 d18e 8dc0 6b24 8ac0
00000230: 9312 9dc0 1d79 87c0 47fc 8fc0 6b63 81c0
00000240: f74e bbc0 dfae a4c0 37ab 9ac0 2595 81c0
00000250: 0372 87c0 f6a7 bac0 0d22 83c0 2f63 7ec0
00000260: cf24 8fc0 a214 25c1 08ff ecc0 bf7a 9ac0
00000270: 82e6 d8c0 ec23 b0c0 1054 22c1 4126 9fc0
00000280: 80f8 86c0 54b0 95c0 6440 95c0 ec5b 9dc0
00000290: ea35 a8c0 7da6 82c0 2be5 b5c0 c8d2 8cc0
000002a0: f967 8ac0 f0d3 91c0 a6e9 91c0 6a76 98c0
000002b0: 4dab 89c0 f14f 9bc0 4df4 80c0 aab9 8bc0
000002c0: fee6 82c0 2b1d 6dc0 6978 93c0 499b 87c0
000002d0: ff48 8ec0 5b93 a0c0 b165 92c0 bd47 eac0
000002e0: 87d8 8ec0 61d4 8dc0 353a d5c0 c0a3 c4c0
000002f0: f307 a9c0 35de 93c0 bc14 8ac0 ae51 9bc0
00000300: 4fd0 8dc0 bda7 d1c0 229f b5c0 fac8 89c0
00000310: 2565 97c0 6c19 9ac0 e223 a5c0 c7ff 97c0
00000320: b16a 9bc0 3ad9 96c0 8890 88c0 5a4b 88c0
00000330: 51b6 c3c0 6154 8fc0 031d 8fc0 f92e 98c0
00000340: a7a1 b2c0 c59f 8dc0 c37f 9cc0 9848 7fc0
00000350: f019 86c0 785a b8c0 9a63 9ac0 4962 a9c0
00000360: 5057 a1c0 fac0 27c1 d41f b4c0 ac76 82c0
00000370: f991 c6c0 7756 aec0 b24e 2ec1 5693 adc0
00000380: 0474 8cc0 3062 acc0 4c5b a4c0 3d76 a5c0
00000390: df6d b7c0 3f8b 9fc0 962d 9ec0 38cd 8cc0
000003a0: 4b5c 98c0 54f4 96c0 c2be 91c0 4ea5 97c0
000003b0: fde8 8ac0 5ba5 afc0 a1e2 96c0 4e74 acc0
000003c0: 309e edc0 7f8f 89c0 e5e4 a7c0 e271 91c0
000003d0: dced 95c0 456b 8fc0 736d 9bc0 d07f ccc0
000003e0: 0cda a5c0 522e 87c0 d992 b8c0 3209 90c0
000003f0: 0c65 a7c0 2e21 84c0 7378 97c0 88a0 aac0
-5.7256317 -4.1138515 -5.8500414 -4.974548 -4.4359 -4.7847385 -4.355318 -4.4525766
-4.010587 -3.9020033 -4.2092767 -4.6178627 -4.9072595 -6.480275 -4.6231184 -4.9258876
-5.5553975 -4.2948217 -5.0280952 -4.116361 -5.0714192 -5.929718 -3.8743567 -4.96991
-4.689312 -10.609651 -4.8025312 -4.652261 -6.5494 -5.2737646 -10.904812 -4.9901276
-4.1895843 -4.950193 -5.4326425 -5.2126756 -5.3456674 -4.9476876 -5.108844 -4.1126695
-4.713219 -4.1477866 -4.458326 -4.4253674 -4.128242 -5.0167804 -5.0177026 -6.271722
-4.56764 -4.2496147 -4.370632 -4.649862 -5.46627 -4.61035 -4.56619 -6.331533
-4.3777523 -4.338416 -5.665716 -4.7806215 -4.509614 -4.236434 -4.118001 -5.5020795
-3.87334 -4.057891 -6.0781155 -4.222544 -4.2582436 -4.5600753 -4.8438835 -4.042548
-3.9350278 -4.8175282 -4.136774 -4.1026163 -4.514579 -4.6850677 -4.3474793 -3.9672039
-6.5617423 -4.050251 -4.470951 -4.3338704 -4.367478 -5.9547105 -4.5157065 -4.7983537
-4.1777506 -8.729412 -4.537715 -3.8457022 -6.095326 -5.292918 -8.164015 -5.1513906
-3.6917284 -4.962296 -4.678129 -5.153759 -4.1543913 -3.9133263 -5.233293 -4.494406
-4.1145444 -4.073199 -4.364131 -4.510162 -4.574621 -4.867757 -3.8659458 -6.014364
-5.1290975 -3.6118894 -4.7295375 -4.1486697 -4.1886773 -4.1322293 -4.0289803 -6.284843
-3.9671483 -5.6416283 -6.6443353 -4.002091 -4.414781 -4.0551033 -4.7975388 -4.425963
-3.9753904 -4.5649023 -4.694689 -4.9326944 -4.847004 -4.097659 -4.699055 -4.2927575
-4.1804237 -4.13538 -4.4236836 -4.3169456 -4.9085174 -4.2335343 -4.4995456 -4.043386
-5.8533893 -5.1463466 -4.8334002 -4.049456 -4.2326674 -5.833003 -4.0979066 -3.9748037
-4.473243 -10.317537 -7.4061317 -4.8274837 -6.778138 -5.504385 -10.145523 -4.9734197
-4.2178345 -4.6777744 -4.66411 -4.917471 -5.2565813 -4.0828233 -5.6842246 -4.40073
-4.325192 -4.5571213 -4.5597715 -4.764455 -4.3021607 -4.8535085 -4.029822 -4.366414
-4.0906973 -3.7049053 -4.6084485 -4.2377057 -4.4464107 -5.0179877 -4.5749135 -7.321257
-4.4639316 -4.432175 -6.6633554 -6.144989 -5.2822204 -4.620875 -4.315031 -4.8537207
-4.4316783 -6.551726 -5.6756754 -4.3057833 -4.7310967 -4.8156033 -5.16063 -4.749973
-4.856774 -4.714017 -4.267643 -4.259198 -6.1160054 -4.47905 -4.4722915 -4.755734
-5.582233 -4.425753 -4.890596 -3.9888058 -4.190666 -5.7610435 -4.8246584 -5.2932477
-5.0419083 -10.484613 -5.6288853 -4.0769863 -6.205319 -5.448055 -10.894213 -5.4242353
-4.389162 -5.386986 -5.1361446 -5.1706834 -5.732162 -4.985748 -4.9430647 -4.400051
-4.761266 -4.717325 -4.554536 -4.738929 -4.340941 -5.488935 -4.7151647 -5.3891973
-7.42556 -4.2987666 -5.246691 -4.5451517 -4.6852856 -4.4818444 -4.8571105 -6.390602
-5.182867 -4.2244043 -5.7679257 -4.5011225 -5.231085 -4.1290503 -4.7334533 -5.332096
